checkpoint/model_epoch_l1filter_0.5.pth (torch, 684191 bytes, 20 tensors)

weight f4 [32, 32, 3, 3]
000000 98 ab e1 bb b0 ed dc 3b e2 0e c0 bb c0 f1 35 bc
       -0.0068869106 0.0067422017 -0.005861149 -0.011105001
000010 16 98 67 bc 3c 9e 24 bc 9c 57 1e bc 8e 29 08 bc
       -0.014135381 -0.010047492 -0.009664442 -0.008310689
000020 ce ce a5 bb d5 40 f0 ba dc ae e7 ba 18 37 6d bb
       -0.0050600534 -0.0018329868 -0.0017676014 -0.0036196169
000030 a4 fa 51 bc 82 2f 53 3c a4 70 33 3b b0 72 15 bc
       -0.012816105 0.012889745 0.0027380371 -0.009121582
000040 c3 9b b2 bb 65 01 36 bb b2 82 23 bc 06 73 4e bc
       -0.005450697 -0.0027771827 -0.009979891 -0.012600666
000050 68 45 3a 3c 59 cc 38 bc 72 3c 2a 3c bb 06 b7 bb
       0.011369087 -0.011279189 0.010390388 -0.005585519
000060 69 53 2d bc 45 4f 21 3c c2 c8 0b 3c 18 9f f5 bb
       -0.010578969 0.0098455595 0.008531751 -0.007495772
000070 32 76 6c bb 8c 67 8d ba d2 86 bb 3a ff 42 2b bc
       -0.0036081192 -0.0010788306 0.0014307147 -0.010452985
000080 d6 e2 21 b8 ec e5 39 bc a8 13 fd ba 6e bc 21 3c
       -3.859665e-05 -0.011346322 -0.0019308226 0.009871585
000090 c9 f0 9d 3b 7f 35 10 3b f5 e6 46 b9 5f 08 0d 3c
       0.0048199636 0.0022004542 -0.0001896879 0.008607953
0000a0 7e 5d bd 3b 1f 4a 4e bb 73 04 b7 bb ba d9 5e bc
       0.0057789674 -0.0031477285 -0.005585247 -0.013601715
0000b0 97 e5 70 bb 3a d3 8c bc f0 b9 6b bc 56 b4 74 ba
       -0.003675794 -0.017190564 -0.014387593 -0.00093347335
0000c0 54 3c 50 bc fa c6 87 bc c4 ee 6b bc 2b f7 9e ba
       -0.012709696 -0.016574372 -0.014400188 -0.0012128105
0000d0 20 4c ee bb 20 f4 83 bc d2 58 1a bc ca 11 72 3b
       -0.0072722584 -0.016107619 -0.0094205905 0.0036936873
0000e0 6c 12 da bb a7 41 f3 bb 59 dc 99 3b 75 71 df ba
       -0.006655028 -0.007423598 0.004695457 -0.0017047363
0000f0 26 2c 35 bc 4d 79 70 3b 2d 58 69 bc b7 ef 2d bc
       -0.011057889 0.0036693395 -0.014242214 -0.0106162345
000100 fb 85 4f 3a cc 21 40 3c 1a 51 0f 3c 5b 5b 8d bb
       0.0007916388 0.011726808 0.008747363 -0.004313869
000110 bc ca 2a 3c 36 15 4d bb ef ca db 3b e0 08 00 3c
       0.010424312 -0.003129316 0.006707541 0.007814616
000120 32 c2 ff bb d9 4d df bb 89 a6 d6 bc 74 5a e6 bb
       -0.0078051323 -0.0068147 -0.026202457 -0.007029826
000130 32 1b f8 bb d2 2c bc bc 57 de 46 bc d2 11 8d bc
       -0.0075716013 -0.02297059 -0.012137971 -0.017220411
000140 f3 34 92 bc 89 c4 52 bc ef 7c e3 3b eb f9 10 3c
       -0.017847514 -0.01286424 0.0069423835 0.008848648
000150 45 4d e1 bb 03 19 11 3c ee 37 68 bb 2e ae 4b 3c
       -0.0068756663 0.008856061 -0.0035433727 0.012431664
000160 23 e2 3c bc 83 2a 0b bc c2 fb 2b bb ea 5d 22 3c
       -0.011528525 -0.008494022 -0.0026242589 0.009910086
000170 06 df 36 3b a3 9e 65 bc 28 85 d4 b8 af 3f 42 bc
       0.0027903928 -0.014014873 -0.0001013375 -0.011856004
000180 92 fe 4f bc 3f d4 5c 3c 81 77 91 bb 15 a7 05 bb
       -0.012694972 0.013478338 -0.004439295 -0.0020393778
000190 25 e8 e8 3b 12 e9 79 3b 4e ad 2b 3c 5b ea 5c bc
       0.007107752 0.0038133305 0.010478331 -0.013483609
0001a0 ce ae c7 ba a3 a5 3f bc a0 06 31 bc 05 73 49 bc
       -0.0015234591 -0.011697206 -0.010804802 -0.012295489
0001b0 33 2c 6a 3b 63 92 0f bc 5e 50 46 3c 71 b0 bc bb
       0.0035731911 -0.008762929 0.012104122 -0.005758338
0001c0 dd 54 96 3b e5 7e 83 b9 20 e9 35 bc e2 a4 96 3b
       0.004587753 -0.0002508081 -0.011102945 0.0045972923
0001d0 66 fb fc 39 40 7a 4a bc ea eb 1d bc 9a 5d 1c bc
       0.00048252492 -0.012358248 -0.009638766 -0.009543801
0001e0 cc 64 3b bc 09 d7 31 bc a4 68 41 3c 51 84 00 3c
       -0.011437606 -0.010854491 0.011804733 0.007844047
0001f0 c8 d0 da 3b 27 9b e1 3b 6d 67 03 bc b8 c5 42 bc
       0.0066777207 0.0068849507 -0.008020264 -0.01188796
000200 59 06 1a 3c 09 32 7a bc ff 6a 0e bc b7 3c ce bb
       0.009400927 -0.015270718 -0.008692502 -0.006293859
000210 38 00 0b bc 76 ef 81 bc 21 79 5c bb 30 e5 dd 3b
       -0.008483939 -0.015861254 -0.0033641534 0.006771706
000220 3a 46 42 3c 49 2d 41 bc 9f 12 1e 3c 2d fb f0 3b
       0.011857564 -0.011790582 0.009647994 0.0073541612
000230 5f e0 76 3b 60 91 90 bb 30 47 4f bc 81 fd ff 3b
       0.0037670357 -0.0044118613 -0.01265125 0.0078122024
000240 1a 2e 80 3a 7f 79 07 bc 9d 1f 10 bc d2 94 e3 bb
       0.0009779364 -0.008268713 -0.0087966 -0.006945231
000250 c4 5a 4e 3c 3a 47 62 b9 8b d5 a2 b9 d1 2a 48 3c
       0.012594882 -0.00021579574 -0.0003105815 0.0122172395
000260 29 94 21 ba 7a b4 16 3c b9 e8 1f bc 02 fc c3 3b
       -0.000616374 0.009198302 -0.009760075 0.0059809694
000270 01 0e 21 3c 62 46 a6 3b 68 49 f2 bb 1d 38 a6 ba
       0.009829999 0.0050743083 -0.0073940046 -0.0012681518
000280 3f 59 07 ba 6c 36 22 bb 4a 25 c2 3a 07 62 3c 3c
       -0.000516314 -0.0024751676 0.0014812138 0.011497981
000290 77 d3 58 bb bd 75 2b ba 49 ec 20 3c 34 e3 45 bb
       -0.0033085027 -0.00065406767 0.00982196 -0.0030195238
0002a0 ed d2 3f 3c 7e 67 56 3c fb 2c ae bb 96 6d 1f bc
       0.0117080035 0.013086198 -0.0053154207 -0.009730717
0002b0 e8 dc 22 3c 92 e4 12 3b e3 13 1b bc 0f 0b 43 3c
       0.0099403635 0.002241407 -0.009465191 0.011904492
0002c0 48 34 04 bc 85 46 57 bc 89 2e 5f 3c 50 7e b0 bb
       -0.008069105 -0.013139372 0.013621935 -0.0053861514
0002d0 d3 af 37 3b 93 06 c0 bb 2f ea d8 ba 7a 1e 38 3c
       0.0028028383 -0.0058601587 -0.0016549284 0.011237735
0002e0 1a 5b cc 3b 66 fc b9 ba 3b 71 4d 3c f8 e8 16 bc
       0.006236446 -0.00141896 0.012539203 -0.0092108175
0002f0 08 6b d5 39 85 f6 b6 bb 85 a3 2d bc 56 fe 8a bb
       0.0004070627 -0.0055835866 -0.010598068 -0.004241745
000300 f6 99 f1 3b 4c dd 20 3b f2 3e bc bb b6 1c f8 3b
       0.00737309 0.0024545966 -0.0057448084 0.007571782
000310 86 92 fa bb e7 cd 89 3b 36 75 2a bc 99 4a de bb
       -0.0076468615 0.0042054537 -0.010403922 -0.006783795
000320 45 b2 bc ba f6 be 5c bc e8 69 bf bb 2f 25 bd ba
       -0.001439639 -0.013473263 -0.0058414824 -0.0014430637
000330 98 2e 25 bc bd 46 66 bb 33 6b 5d 3b dc 30 9e bc
       -0.01008191 -0.0035137378 0.003378582 -0.019310407
000340 e0 1c 9b bb e2 64 ea 3b 3b 31 0f bc 32 91 06 bc
       -0.004733667 0.0071531394 -0.008739765 -0.008213328
000350 27 3c 84 bc 12 97 53 3b 05 04 2c bc 6d bd 8d bb
       -0.016141964 0.003228609 -0.010499005 -0.00432556
000360 40 06 91 bb c1 d4 e2 ba b0 91 4b bc c0 1c 2a 3a
       -0.004425794 -0.0017305837 -0.012424871 0.00064892694
000370 92 27 5e 3c 5a a4 a6 3b df 04 f7 bb b7 a9 5a bc
       0.013559239 0.00508551 -0.0075384225 -0.013346127
000380 15 e5 32 bc 1c 4a 75 bb c9 e8 0a 3c 6f 75 55 bc
       -0.010918875 -0.0037428206 0.008478352 -0.013028487
000390 b2 1b 61 bc ef 97 05 bc c4 2e 90 3b 72 fc 84 3b
       -0.013739513 -0.0081539 0.004400106 0.004058414
0003a0 ef b6 c0 3b 1b 56 f5 bb 84 95 5d bc 38 03 5b 3c
       0.0058811824 -0.007487071 -0.013524417 0.013367467
0003b0 7d 70 05 3c 5b 38 d0 bb 13 f7 58 3b c1 98 58 bc
       0.008144495 -0.0063543743 0.0033106252 -0.013220013
0003c0 4c 07 5b 3c af 81 54 bc 68 2a 30 3c 04 ff 20 3b
       0.013368439 -0.012970372 0.010752298 0.0024566064
0003d0 95 0e f1 38 62 27 a6 bc 51 c3 ea bb 2d f0 b5 bb
       0.000114944916 -0.020282451 -0.007164397 -0.005552313
0003e0 f5 ac 66 bb f5 c9 84 bc d2 4e f5 ba fa 0e 56 bc
       -0.0035198305 -0.016209582 -0.0018715507 -0.013065094
0003f0 d4 1d 70 bb d9 8f 12 bc 06 03 b4 bb 69 68 95 3b
       -0.0036638873 -0.008945429 -0.0054935245 0.004559566

weight f4 [32, 32, 3, 3]
000000 12 48 27 bc c4 c7 50 bc f5 62 51 bc ce 05 3c 3c
       -0.010210054 -0.01274294 -0.012779941 0.011475993
000010 bb 2f 50 3b 98 f2 5f bc 99 c2 2b bc cc 06 1c 3c
       0.003176673 -0.013668679 -0.010483407 0.009523105
000020 86 0e ef b9 67 1c b6 bc 58 67 e1 ba a2 bd 05 3c
       -0.00045596453 -0.02223034 -0.0017196937 0.008162888
000030 eb 5c 21 bc 02 b6 fa 3b 07 01 c6 bb d9 6d 5e bb
       -0.0098488135 0.0076510916 -0.006042603 -0.0033939986
000040 d7 fc b0 3b 52 b3 c7 3b eb cc 56 3c 00 9c 2f bc
       0.0054012346 0.0060943747 0.01311038 -0.010718346
000050 46 b2 65 3c e0 b9 48 bc 92 76 d8 3a 44 a4 34 bc
       0.0140195545 -0.012251347 0.0016514829 -0.011025492
000060 7b a8 40 bc 66 be b2 3b b1 06 63 3c c8 5c 4d 3c
       -0.011758919 0.005454826 0.013856576 0.012534328
000070 ee ad 31 bc 89 3b 37 3b d7 9c 22 bb 98 70 d8 3b
       -0.010844691 0.002795907 -0.0024812722 0.006605219
000080 c8 69 9e bb 01 1d 4e 3c aa a9 47 3c f4 c6 4b 3a
       -0.0048343875 0.012580157 0.012186447 0.0007773482
000090 a3 72 6a bc f7 3e a2 3b 84 c7 4e bc c9 9f 3a 3c
       -0.014309558 0.0049513537 -0.01262081 0.011390635
0000a0 31 88 bd 3b 5c 46 51 3c 68 4d ba 3b e1 79 ea 3b
       0.0057840575 0.012773123 0.005685497 0.0071556424
0000b0 ec ec 70 bc 2f 66 5f bb 64 c8 49 3c 20 cc 5a bc
       -0.014704924 -0.0034088006 0.012315843 -0.013354331
0000c0 66 d7 0d 3c bc 49 40 3c c7 89 82 bc 3c bb 17 3c
       0.008657312 0.01173633 -0.015934838 0.009260949
0000d0 60 a4 1c bc 32 76 76 3b 9e 84 44 3c e5 53 8a b8
       -0.009560674 0.003760707 0.011994509 -6.595979e-05
0000e0 29 ea 5f bc ca 20 0e bc 86 db 0a bc fa 18 ea bb
       -0.013666668 -0.00867481 -0.00847519 -0.0071440907
0000f0 2f e6 66 3c 25 74 35 bc da 95 a6 bc 8c 9d af 3a
       0.014092966 -0.011075054 -0.020335127 0.0013398393
000100 4f ed 47 bc 1f e3 46 bc 1a c0 21 bb ea ae 34 bc
       -0.012202575 -0.012139111 -0.0024681152 -0.011028031
000110 bd 3a a7 bc b7 01 37 bc 3e ba c8 ba f8 51 83 bc
       -0.02041375 -0.011169842 -0.0015314294 -0.016030297
000120 bc df 34 3a 6c e9 10 bb 52 3e 14 39 13 1a 8c bb
       0.0006899794 -0.0022111787 0.00014137596 -0.004275569
000130 f3 69 32 bc aa 7c 26 3c 45 f0 0c bb d0 23 4a 3b
       -0.010889518 0.010161558 -0.0021505516 0.00308441
000140 50 f4 7d 3c 41 25 c2 ba be c1 b7 bc d3 0d a0 3b
       0.015500143 -0.0014812128 -0.02243125 0.0048844605
000150 87 ef fa bb ea 7e 14 bc 30 8e 2f bc db 8b f4 bb
       -0.0076579484 -0.009063462 -0.0107150525 -0.007462961
000160 06 f7 12 bc c6 49 ba bc d1 c9 54 3b f0 0b b4 3b
       -0.008970028 -0.022740256 0.0032468925 0.005494587
000170 52 ce 5d 3c d9 18 8f bb f1 28 39 3c ea 54 55 3c
       0.01353796 -0.0043669757 0.011301265 0.013020733
000180 ee 8e fa bb 66 8f f6 ba 71 fe 4f 3c 37 d1 d7 3b
       -0.007646433 -0.0018811047 0.012694941 0.0065862196
000190 bb c5 5c bc 29 4e fd 3b b8 15 ef 3a 7a cc 6a bc
       -0.013474877 0.0077302647 0.0018240726 -0.014330978
0001a0 0c 54 2e bc 98 42 1e bc 14 6d 68 bc 25 4e a0 bc
       -0.0106401555 -0.009659432 -0.0141861625 -0.019568512
0001b0 bc 8b 50 bc 12 64 6a 3c ef f1 ad 3a 87 19 09 bc
       -0.012728628 0.014306085 0.0013270954 -0.008367903
0001c0 05 a2 16 bc 9f b0 97 bb 44 a5 0e bb 76 2f 90 3b
       -0.009193902 -0.004629209 -0.0021765986 0.004400189
0001d0 f4 16 c2 bb 9b 55 11 3b 70 46 00 3c 27 f8 27 bc
       -0.0059231464 0.002217627 0.007829294 -0.010252035
0001e0 02 66 1d bb 4d d8 90 bb 34 ab 00 3c 6c 8d 1e 3b
       -0.00240171 -0.0044203163 0.007853318 0.002419318
0001f0 8b 6d 13 3c 6c 1b 49 3c 01 81 5c 3a 14 e6 40 bb
       0.008998285 0.012274604 0.0008411557 -0.0029434012
000200 b9 ff 2a 3c de 76 15 3c 1c 8c 5a 3b e0 29 d7 3b
       0.010436946 0.009122578 0.0033347672 0.006566271
000210 fd 04 8e 3b a1 2a e2 bb 1a b6 3f 3c 09 1f 08 3c
       0.0043340907 -0.0069020544 0.011701131 0.008308181
000220 97 4a 02 bc b9 12 65 bc da da 40 bc 0c 4c 4a 3c
       -0.007952354 -0.013981515 -0.011770928 0.012347233
000230 d2 c3 0f 3c c3 66 c5 bb 97 88 7d 39 fd 1c 78 bc
       0.008774715 -0.006024213 0.00024178844 -0.01514363
000240 1f 76 99 bc ed a0 c2 bc 02 43 fd bb fb 56 4a bb
       -0.018733082 -0.023758376 -0.007728935 -0.0030874598
000250 76 a6 fd bb 9a a3 59 bc 8a 0d b5 bb 99 f9 5a bb
       -0.007740791 -0.013283635 -0.0055252956 -0.0033412932
000260 7b 98 a5 bc ee ba 09 bc d9 70 42 3c 29 7c 08 bc
       -0.02021431 -0.008406384 0.011867725 -0.008330383
000270 01 c0 45 bc a3 11 07 bc 0f 46 b6 3b 1c a8 60 3c
       -0.012069703 -0.008243951 0.005562551 0.013711955
000280 5f b6 45 bc 78 ed 39 3c 3b ee 88 bc 1f 14 d3 bb
       -0.012067406 0.011348121 -0.01671516 -0.0064416076
000290 83 e2 aa 3a ae bb 76 ba d2 24 7f b9 83 bf cf bb
       0.0013037476 -0.0009412122 -0.00024332412 -0.0063399686
0002a0 8d 9d 20 bb 42 77 07 bc 9c f3 61 bc 19 44 6c 3c
       -0.002450797 -0.008268179 -0.013790991 0.014420533
0002b0 e1 7f 04 3c 39 5a b3 ba 83 d8 48 3c 72 61 2a 3c
       0.008087129 -0.0013683505 0.012258652 0.010399209
0002c0 a5 86 9b 39 bb 38 3c bb d0 7a 25 3c d5 bf 4d ba
       0.00029664222 -0.0028720337 0.010100082 -0.00078487146
0002d0 f4 68 04 bc 5e 8f 74 3b ba c0 ba 3b 72 a1 25 bb
       -0.008081663 0.0037316899 0.0056992443 -0.002527323
0002e0 d8 52 c1 3b 0a 97 cb 3b 22 10 31 3c b2 60 19 3c
       0.0058997683 0.0062130736 0.010807069 0.009361433
0002f0 3d e0 08 3c 7d 01 1c bc bf 70 ce 3b 9f f6 92 3b
       0.008354244 -0.009521839 0.0063000615 0.004484966
000300 10 c4 7f bb 92 34 89 b9 4c 5c a5 bc 9a 0d e5 39
       -0.0039026774 -0.00026169844 -0.020185612 0.00043688418
000310 60 a8 96 bc 18 68 b6 bc fb 40 bb 3b 36 d6 fd 3b
       -0.018390834 -0.022266433 0.0057145334 0.007746483
000320 e1 93 58 bc 63 4b b3 ba 32 68 0a bc d3 84 72 bb
       -0.013218851 -0.0013679083 -0.008447694 -0.003700544
000330 fc ac 87 bb cd 37 ab bb cc fa 92 3b 94 13 41 bc
       -0.0041404944 -0.005225158 0.0044854637 -0.011784453
000340 e7 88 04 bc 66 4d c5 bb 71 e0 91 3a b6 4b 14 bc
       -0.008089281 -0.0060211895 0.0011129511 -0.009051254
000350 f6 30 34 bb 7a 4e c4 3a e8 e9 ec bb c5 bf 30 ba
       -0.0027495003 0.0014977001 -0.0072300322 -0.0006742443
000360 36 00 27 3c be b2 88 3b 3b d5 57 ba ce 45 7e ba
       0.010192921 0.0041716984 -0.0008233373 -0.0009699733
000370 af 90 12 3c 17 64 d9 3b 69 f2 bf ba fe 3a ba 3b
       0.008945628 0.006634246 -0.0014644387 0.005683302
000380 57 43 6c 3b a3 d4 88 39 40 d8 db ba 7e b7 93 bc
       0.003605088 0.00026098368 -0.0016772822 -0.018031832
000390 3d 43 a0 bc 07 6e 8a bc 90 d3 d9 bb 93 85 b7 3b
       -0.019563312 -0.016898168 -0.0066475347 0.00560064
0003a0 94 82 85 3b 04 11 cf ba 2c 06 3b 3b c1 9b de bb
       0.004074404 -0.0015797918 0.0028537614 -0.0067934697
0003b0 13 f0 85 bc 4b 4a d5 bb 38 8f b9 bb f1 e9 13 bc
       -0.016349828 -0.0065091006 -0.005662825 -0.009027944
0003c0 f2 c4 e9 b9 90 aa c9 bb 78 ae 01 bd 3f 67 78 ba
       -0.0004458796 -0.006154366 -0.031660527 -0.0009475834
0003d0 51 4c 46 bc 9d 5d a8 bb 97 bc b4 3a 7f a6 54 3c
       -0.012103156 -0.0051381127 0.0013789114 0.012979149
0003e0 b2 ed 2e 3c d7 7f 2e bc c7 b7 00 bc 66 d5 41 bc
       0.010676788 -0.010650597 -0.007856316 -0.011830663
0003f0 e6 2e ac bb cf 3f e1 3b dc 23 00 bc 55 43 c3 3b
       -0.005254614 0.0068740617 -0.00782105 0.0059589543

weight f4 [32, 32, 3, 3]
000000 41 c4 07 bc 14 20 33 3c a9 f0 e6 bb 41 cb d6 bb
       -0.008286537 0.010932941 -0.007047732 -0.0065549915
000010 36 43 24 ba de cd 2c 3c 4d 6f 28 3c 63 1a 3b 3c
       -0.0006266119 0.010547129 0.010280442 0.011419865
000020 dd a8 15 3a b8 77 14 bb 1a e2 b0 3b d6 2a 1d bc
       0.00057090615 -0.0022654366 0.005398047 -0.009592732
000030 8f 0a 66 bc d5 69 c2 bb 8f d2 12 3c 62 10 1a bb
       -0.014040603 -0.0059330263 0.008961334 -0.00235083
000040 f8 dd ac bb 1a 4d fe 3b 9a a5 f2 3b 73 0c 66 bb
       -0.005275484 0.007760656 0.007404995 -0.0035102635
000050 d4 22 2a bc 47 78 30 bc 1a 08 2c 3c 8f 2d 29 bc
       -0.01038428 -0.010770864 0.010499978 -0.010325803
000060 22 87 fd 3b 10 6d 35 bb 94 5b 5a bc b9 40 55 3c
       0.0077370564 -0.0027683415 -0.013327498 0.013015919
000070 31 0e 8e 3b d6 c3 ab 3a 25 f5 5a bc ea a7 77 3b
       0.004335188 0.0013104628 -0.013364111 0.0037789294
000080 58 01 4e bc cb e8 69 3b 96 32 1e 3c 6f fd 59 bc
       -0.012573563 0.0035691734 0.009655615 -0.013305052
000090 65 bb 96 bc 0b db 92 3b a7 53 24 3c dc 99 e2 3b
       -0.018399904 0.0044816784 0.01002971 0.006915314
0000a0 80 8a 21 3b 12 11 0c 3c 92 28 00 bc 83 dc 97 3b
       0.0024649203 0.008548992 -0.007822173 0.0046344413
0000b0 4e 16 cc ba dd 05 95 3b 77 ea 45 bc 7e 0a 28 3b
       -0.0015570612 0.004547818 -0.012079827 0.002564102
0000c0 84 7a 33 bc af 7e 5d 3c f6 9a ad bb c3 f6 40 bc
       -0.010954503 0.013518973 -0.005298014 -0.011777583
0000d0 5f 88 9b 3b 58 a9 6a 3b 57 19 4e bb 20 e5 04 3c
       0.0047464813 0.0035806503 -0.003144821 0.008111268
0000e0 6c 22 13 bc 92 2b d4 3b 78 69 1a bb dd ad 0c bc
       -0.008980375 0.0064749205 -0.00235614 -0.008586374
0000f0 93 1c c4 bb 92 62 4f bc 35 ee 08 bc a4 dc 15 bc
       -0.0059848516 -0.012657778 -0.008357574 -0.009146843
000100 6b 7d 8b bb 9d 12 32 bc 5e f0 05 bc 53 3a 86 3b
       -0.0042568943 -0.010868696 -0.008174984 0.0040963083
000110 dd 13 42 bc a5 b0 ed 3b c6 29 09 bc b5 7e c6 3a
       -0.011845556 0.0072537237 -0.008371776 0.0015143963
000120 ca d8 4d 3b 42 41 fa 39 d8 9e 87 3b e9 a8 2f 3c
       0.0031409734 0.00047732337 0.0041388087 0.010721424
000130 f7 ea bf 3b 91 c1 c3 3b 94 f5 28 3c c0 f6 9b bb
       0.0058568674 0.0059740026 0.010312457 -0.0047596395
000140 af 2d 30 bc 9c e9 87 bc 3e 8e ba bb 9e d1 a4 bb
       -0.010753079 -0.016590886 -0.005693226 -0.005029871
000150 ba a2 1d ba 1a 95 d2 bb e3 ea 0c bc 81 c3 cb bc
       -0.0006013323 -0.0064264657 -0.008600923 -0.024873497
000160 ec 92 b2 ba df 7c 95 bb 0f 74 ad 3b a0 53 61 bb
       -0.0013624108 -0.004562005 0.0052933763 -0.003438212
000170 6c 52 72 bb 59 02 28 3a 35 84 90 bc 79 39 dc 3b
       -0.0036975397 0.0006409041 -0.017641166 0.0067207185
000180 44 4c 76 bc c1 2f 7f 3b 15 08 7a bb 07 33 26 3c
       -0.015032832 0.0038938376 -0.003815179 0.010144002
000190 01 11 41 3c ab 71 d6 bb 75 fc 44 bb 4b 17 59 3b
       0.011783839 -0.006544312 -0.0030057703 0.0033125456
0001a0 f7 9a 5b bc 28 79 33 bc d3 b9 c3 bb 91 16 3e 3b
       -0.013403646 -0.010954179 -0.0059730797 0.002900515
0001b0 d0 e8 d6 3b 67 ff b7 3b 31 f9 8a 3b 7b a5 0f bb
       0.006558515 0.005615163 0.0042411317 -0.0021918702
0001c0 63 f2 e0 bb 07 f6 5e bc d7 b6 5c 3c f2 1b 28 3b
       -0.0068648322 -0.013608462 0.013471327 0.0025651422
0001d0 b2 d5 4b 3c eb 9f 22 ba 24 7b 2a bc 39 e5 ae ba
       0.012441086 -0.0006203639 -0.010405336 -0.001334346
0001e0 9c 8e 49 bc ab c7 7b 3b d1 7d 1e 3c c0 83 36 3c
       -0.012302067 0.0038418572 0.009673552 0.01113981
0001f0 67 91 dc 3b 6c d4 39 ba 94 04 09 3c 99 b1 cf bb
       0.0067312005 -0.0007088843 0.008362908 -0.00633831
000200 a9 34 4d bb d0 f9 1b bc 68 57 2d bc 81 1d 40 bc
       -0.0031311905 -0.009520009 -0.010579921 -0.011725784
000210 ce 8c bf bb 5f aa 56 3c f5 80 b0 ba d0 55 3e 3b
       -0.0058456426 0.013102143 -0.0013466167 0.0029042847
000220 6d 4a 4e 3b 39 54 3d bc c2 25 44 bc e5 e4 e8 3b
       0.0031477467 -0.011555725 -0.011971893 0.0071073645
000230 f1 3d bf 3b 79 fd fb 3a 0c 25 97 b9 0d 4e 57 3b
       0.0058362414 0.0019225321 -0.00028828566 0.0032852918
000240 dc f2 8b 3a c7 57 5b 3a c9 17 30 bc 6a 0c 7f bb
       0.0010677236 0.0008367267 -0.010747858 -0.0038917311
000250 d0 ff 9f 3b 17 8d 04 3b b4 9b 9a 37 53 4f c0 3a
       0.00488279 0.0020225698 1.8430736e-05 0.0014672078
000260 15 57 56 3c 05 68 0f 3c 93 a4 b5 3b 04 96 26 3c
       0.013082285 0.0087528275 0.0055433004 0.010167602
000270 1d c7 cd 3b 3b 98 a6 3a 64 ca ff bb 1f e5 6f 3b
       0.0062798397 0.0012710163 -0.0078061093 0.0036605073
000280 dc 50 3e 3c 0f 1a 08 bb 90 6d 0a 3b 0e 81 73 bb
       0.011615958 -0.0020767485 0.0021122433 -0.003715578
000290 ff 03 18 bc 09 e1 05 bc 0a 3e 36 3c 5b 6f f5 3b
       -0.0092782965 -0.008171328 0.01112319 0.0074900812
0002a0 8c 28 e4 3b 0f 48 41 3b 80 6d 1f 3c 30 8c a6 bb
       0.0069628414 0.0029492413 0.009730697 -0.0050826296
0002b0 02 f8 53 3b 1f 54 38 bb ca 5d 59 bc 08 df d0 3a
       0.003234387 -0.0028126312 -0.01326699 0.0015935609
0002c0 11 e0 a9 3b 52 4a eb bb 5f 09 22 bc 5c 7f bb 38
       0.0051841815 -0.0071804905 -0.00988993 8.9405774e-05
0002d0 16 ad 21 39 39 d2 f5 3b 7a d8 b5 bb 89 ca 30 bc
       0.00015418636 0.007501867 -0.0055494877 -0.010790476
0002e0 71 cb 25 bc aa 81 2b 3c 8e 9e 16 3c d8 57 c9 3b
       -0.010119305 0.010467926 0.009193076 0.006144505
0002f0 f0 f8 ba bb dc 46 69 3c 29 97 2d bc 91 41 68 3c
       -0.005705945 0.014238086 -0.010595121 0.0141757885
000300 68 5b 67 3c b1 e3 09 bc 49 5d 06 bc 9d 74 bf 3b
       0.014120914 -0.008416102 -0.008200952 0.005842759
000310 88 ef d4 bb 08 d5 c4 3b 80 e1 7e 3b 0a 6f 00 3c
       -0.006498281 0.0060068406 0.0038891733 0.007838974
000320 2a e4 ed 3b 79 a1 b1 bb 4a 19 40 3c 47 b3 a3 3b
       0.0072598653 -0.0054208604 0.011724779 0.0049957368
000330 f4 a1 d9 3b c8 52 d7 bb 3f fa 71 bc 28 e4 4a 3c
       0.006641621 -0.0065711476 -0.014769136 0.012383498
000340 e4 e1 86 3b 99 e4 85 bb 67 b1 3c 3c 97 37 3a 3c
       0.0041162837 -0.004086089 0.011516905 0.011365793
000350 c9 75 71 bb 14 5c 09 3c 1a 66 ad bb 2f 4b 40 3b
       -0.0036843887 0.00838377 -0.0052917125 0.0029341688
000360 6f 05 a6 bc 34 a7 91 3b 2a ec 26 ba c0 53 55 bc
       -0.020266263 0.004444981 -0.00063675886 -0.013020456
000370 cb 0a d1 3b 16 6b 22 bc 3a ac 7b bc bc 27 4b bc
       0.0063794605 -0.009913227 -0.015360886 -0.01239961
000380 27 4d b2 bb ba bc 9b 3b 78 5c a0 ba a3 c1 55 3b
       -0.005441326 0.0047527226 -0.0012234589 0.0032616637
000390 22 8e 0e 3c 6a d9 f7 ba 00 e7 6d bb 5b fe 3b 3c
       0.008700879 -0.0018909399 -0.0036301017 0.011474217
0003a0 5d a3 86 3a 8d be d5 bb 11 4f 12 bb c7 b8 27 3c
       0.0010272075 -0.0065229596 -0.002232496 0.010236925
0003b0 2b 91 99 bb 35 95 10 3c da 47 8f 39 9d c9 37 bc
       -0.004686495 0.008824636 0.0002732862 -0.011217502
0003c0 78 0e 58 bb 37 89 28 3c 31 e0 c5 bb 02 36 27 3c
       -0.0032967608 0.010286621 -0.0060386886 0.010205748
0003d0 6e 2f b3 bb 65 62 92 ba cb c5 60 bc 0a 3d 0d 3c
       -0.0054683005 -0.001116824 -0.0137190325 0.00862051
0003e0 7d ba 38 3c 35 e0 53 3c 25 49 18 bc 07 c6 e7 3b
       0.011274931 0.012931873 -0.009294783 0.0070731672
0003f0 09 20 59 bc aa c1 a8 39 45 29 b9 39 c0 79 2b bc
       -0.013252267 0.00032187748 0.00035316698 -0.010466039

weight f4 [32, 32, 3, 3]
000000 7b e9 92 bc 56 dc 87 bb ed 13 63 bc 3d 23 3f bb
       -0.017933598 -0.004146139 -0.013859731 -0.002916529
000010 a3 7f 99 bb 6f 80 c4 3b 7a 4b 0f bb bb 86 53 bc
       -0.004684405 0.005996756 -0.0021865056 -0.01291054
000020 71 56 a7 b9 20 0f 52 bb 1c 1d 92 bb ab b5 39 3c
       -0.00031917126 -0.0032052472 -0.0044590365 0.011334817
000030 8c a7 94 38 63 56 d3 3a 55 63 f0 bb 63 10 1c 3b
       7.088398e-05 0.0016123768 -0.00733606 0.0023813478
000040 a1 56 df 3b f5 98 00 bc 2b e7 99 3b d9 8b 7d bc
       0.006815747 -0.007848968 0.004696747 -0.015475237
000050 c6 a5 67 bc 56 48 ac 3b 3a db 3a 3b 09 10 aa 3b
       -0.014138645 0.0052576466 0.0028512017 0.0051899
000060 0c 32 b5 39 6c 1f 2f bc 68 f4 48 bc 25 af c3 bb
       0.00034560298 -0.010688644 -0.012265302 -0.0059718066
000070 7e 98 6d bc a1 1c c6 ba 21 cb 25 bc f5 06 3b 3c
       -0.014501689 -0.0015114733 -0.0101192305 0.011415233
000080 32 bc 21 3c 3f db 65 bc 1d 5f 49 ba 7e cd 48 bc
       0.009871529 -0.014029323 -0.00076817145 -0.012256024
000090 9f 1d b7 bb 28 0b f0 bb 5b d3 e1 bb 30 56 f6 bb
       -0.005588248 -0.0073255487 -0.0068916506 -0.0075175986
0000a0 28 64 f4 3a 50 54 e7 3b 5b ae 60 bc 41 8c c4 bb
       0.0018645572 0.0070596114 -0.013713445 -0.005998165
0000b0 7b aa a5 bb 01 55 10 3c ee 8a 6a 3b 1b da 88 b9
       -0.0050557232 0.008809329 0.0035788375 -0.00026102443
0000c0 a7 0c 43 bc 91 5e 14 bc a7 f7 41 bc 98 79 7e bb
       -0.011904872 -0.0090557495 -0.01183883 -0.00388298
0000d0 9f ea 79 bb 62 8f 61 3c c3 91 3e bc 19 44 22 bc
       -0.003813423 0.013767095 -0.011631432 -0.009903931
0000e0 c6 46 b0 bb 6c ea a1 b9 44 db 1c 3c 9d de f7 bb
       -0.0053795306 -0.0003088297 0.009573761 -0.0075643794
0000f0 86 17 1b bc 04 ff 9d bb 5b 96 24 3c 1d 35 4e 3b
       -0.009466058 -0.00482166 0.010045613 0.0031464763
000100 f2 b6 12 3c 5e 14 ae bb a9 71 e7 3a cd 85 d8 3b
       0.00895475 -0.0053124866 0.0017657775 0.006607747
000110 4f 27 86 bb 37 17 3c bc 96 73 48 ba 10 bb 5b bc
       -0.0040940414 -0.011480144 -0.0007646618 -0.013411298
000120 28 23 3b bc 8c 48 a9 ba 0f 66 a3 3b 29 36 c0 3a
       -0.011421956 -0.0012915297 0.0049865316 0.0014664578
000130 91 a2 43 bc a9 e6 80 3b c9 f4 7d bb 74 37 e5 3b
       -0.011940614 0.003933747 -0.003875064 0.006995136
000140 29 3e b9 ba 14 7a 5e bc b9 5d a7 3a 2f 20 f1 39
       -0.0014132905 -0.01357891 0.001276902 0.0004599108
000150 51 b9 d9 bb 4c 81 2a bb e7 18 cf bb 06 eb 04 bc
       -0.006644406 -0.0026017008 -0.0063201073 -0.008112675
000160 32 ec 84 3a 57 d7 11 bc 6d c9 61 3b bf c5 62 3a
       0.0010141192 -0.008901439 0.0034452335 0.0008650682
000170 00 69 cd b9 92 9c 7f bc 5f e3 0e 3c fe 69 71 3c
       -0.00039178878 -0.015601294 0.008721202 0.014734743
000180 e9 d2 0b bc bf cd 38 bc fe 35 21 bc f5 3c 70 3a
       -0.008534172 -0.011279522 -0.009839533 0.0009164357
000190 15 0d 87 bc fc a3 0e 3c 52 1a 49 bc e2 f6 1d 3a
       -0.01648573 0.008706089 -0.012274342 0.0006025863
0001a0 ac 88 21 bc 32 2c 51 bc 8b 12 ed 3b 27 a7 5e 3c
       -0.009859245 -0.012766885 0.0072348765 0.013589657
0001b0 9c 4d 77 bc 10 dc 51 3a b3 63 59 bc 4c de ef bb
       -0.015094187 0.0008005509 -0.013268399 -0.007320201
0001c0 9c bd 99 bb 7b cf 1a 3c dc 3c 9d 3b 89 6b ea bb
       -0.0046917927 0.009448881 0.004798515 -0.0071539325
0001d0 34 d5 2c bc 98 d8 04 3c 0a 02 fc 39 ca e7 36 bc
       -0.010548878 0.008108281 0.00048066705 -0.011163661
0001e0 d2 81 2d bc 05 91 4c bc 02 68 09 3c 9d e6 ed bb
       -0.010590034 -0.012485747 0.008386614 -0.0072601573
0001f0 81 26 e8 bb dc 29 4f bc 95 d8 dc 3b 90 dc d2 ba
       -0.007084668 -0.012644257 0.006739686 -0.0016087461
000200 3b 65 02 3c d6 55 13 bc be bc 37 3b 44 54 d7 bb
       0.007958706 -0.008992633 0.0028036083 -0.0065713245
000210 b3 e7 03 bb 0a 73 1f bc 89 11 f2 ba ce 89 2d 3a
       -0.0020127117 -0.009732017 -0.0018468361 0.0006619961
000220 f7 03 bc bb 8a 7f e2 3b df b5 e1 3a 72 87 09 bc
       -0.0057377773 0.0069121765 0.001722034 -0.008394109
000230 eb 49 30 3b a8 39 0f bc 55 18 21 bc 0d 1c 57 bc
       0.0026899527 -0.008741774 -0.009832461 -0.013129246
000240 95 7b 4d 3c d6 4e 33 3c f7 e4 4c bc 83 27 1c bc
       0.012541671 0.010944089 -0.012505761 -0.009530905
000250 e9 95 28 3c 94 64 03 3c 0c 01 12 bc ee b6 82 bb
       0.010289648 0.008019585 -0.008911382 -0.003989092
000260 4b 16 11 3c 47 b0 e7 3b 62 54 bd 3b 46 eb 0f bc
       0.008855413 0.0070705744 0.0057778815 -0.008784121
000270 76 b4 06 bc 32 ef 50 bc 71 51 1f bc cf d3 ef 3b
       -0.008221736 -0.012752341 -0.009724007 0.0073189507
000280 88 86 b6 3b 0a b6 a2 ba a1 d0 87 3b f1 c7 55 b9
       0.0055702366 -0.0012413871 0.0041447436 -0.00020387747
000290 9f 48 1b 3c 9d e9 8b 3b ef b6 82 3b 13 a7 9f 3b
       0.009477763 0.004269792 0.0039890925 0.0048722117
0002a0 c8 de e8 3b 73 bb 46 bb 71 06 df bb e1 7e c8 bb
       0.0071066357 -0.003032413 -0.006806188 -0.006118641
0002b0 54 59 a0 bc d9 34 39 bc 33 b3 be bb 3f e3 87 bc
       -0.019573845 -0.011304104 -0.005819702 -0.016587852
0002c0 2f 71 86 bb 71 7a f1 bb 76 10 67 bb 2f d5 1a bc
       -0.004102848 -0.0073693325 -0.0035257614 -0.009450241
0002d0 63 89 27 3c a4 fe 03 bc 8c 6d d1 ba 22 2d b0 3b
       0.010225627 -0.0080563165 -0.0015978082 0.005376474
0002e0 93 a2 25 bc 47 bb 89 bb 52 ac 1a 3c 14 41 0e bc
       -0.0101095615 -0.0042032334 0.009440498 -0.008682508
0002f0 7e 87 f9 3b 7d a5 6d 3a e7 57 34 bc 1f 5b 63 bb
       0.007615029 0.0009065492 -0.011007286 -0.0034691764
000300 fb d7 1f 3c 4f e3 aa bb 7a 7c 85 3b 01 6c 08 3b
       0.009756084 -0.0052150856 0.0040736767 0.0020816328
000310 b1 b6 37 bc d8 f1 4c bc 55 05 0e 3c e4 9f 03 bb
       -0.011212991 -0.012508832 0.008668263 -0.0020084316
000320 e9 99 3b bb 6b 2a 46 3c 6b f1 7e 3b 25 23 9e 3a
       -0.0028625673 0.012095074 0.003890122 0.0012064917
000330 70 48 e8 ba 10 36 dd bb 56 e0 e8 39 e7 83 ab ba
       -0.0017721783 -0.0067508295 0.00044417632 -0.0013085575
000340 95 e2 56 bc 3c 64 a5 bc 13 a9 dc ba 28 c6 a5 bb
       -0.013115545 -0.020189397 -0.0016835056 -0.0050590225
000350 36 61 7f bc da 20 a3 bb 52 84 5f bb 2e dc a6 bc
       -0.015587142 -0.0049782814 -0.0034105969 -0.020368662
000360 3f ca 6b ba 19 f0 fa bb 12 4e 34 3c 1a 9a b5 b9
       -0.00089946756 -0.0076580164 0.011004942 -0.00034637825
000370 c6 e7 17 3b 79 26 81 3c ff c4 6d 3b 22 da fc bb
       0.002317892 0.015765416 0.003628075 -0.007716433
000380 3f 81 c9 3b 4a 73 13 3b bb c0 09 ba 73 3c 37 3c
       0.0061494405 0.0022499138 -0.00052548543 0.011183846
000390 97 a7 14 bb 9a 5e 23 3c e0 a5 68 bc a5 68 20 3c
       -0.00226829 0.009971285 -0.014199704 0.009790574
0003a0 62 3b 13 bc c0 19 0b 3c 35 ba f8 ba eb bc c3 bb
       -0.008986326 0.008490026 -0.0018976392 -0.0059734485
0003b0 51 f8 19 3c cd 1b c9 3b 61 19 17 bc 6c a2 28 3a
       0.009397582 0.0061373473 -0.009222359 0.0006432894
0003c0 74 3d 6f bb 43 52 5b 3c 4c 23 0a bc 2a 79 f1 bb
       -0.0036505135 0.013386312 -0.008431267 -0.00736918
0003d0 8d 3d b9 bc 78 3e 88 39 01 bb b9 bc 4a 4d ff bc
       -0.022612358 0.00025986484 -0.022672178 -0.031164784
0003e0 52 8a 79 bc 10 23 0a bd fc b8 2f bd 30 29 0f bd
       -0.015230732 -0.033724844 -0.042901024 -0.03495139
0003f0 53 af 0f bc b7 0a 40 3c b8 97 9a bb cc e0 07 b8
       -0.008769828 0.011721305 -0.0047177933 -3.2395867e-05

weight f4 [32, 32, 3, 3]
000000 f5 fe 81 3b ab a8 ca b9 5e 56 b4 ba ce 36 3d 3c
       0.003967161 -0.0003865411 -0.001375865 0.011548711
000010 19 84 4d bb 03 a5 ba 3c 56 8d f8 3b c9 5a 7a 3c
       -0.0031359254 0.022783762 0.007585208 0.015280434
000020 88 ce fa ba e4 06 56 bc 66 f9 01 bc e6 04 59 3b
       -0.0019135037 -0.013063166 -0.007932996 0.0033114492
000030 b5 eb ec bb 10 33 5a 3c b4 54 1e 3c 63 13 28 3c
       -0.007230247 0.013317838 0.0096637495 0.010258528
000040 22 1d d1 3b 7f 6a b2 bb ad 4c 13 bc cb b1 2d bb
       0.0063816467 -0.005444824 -0.008990449 -0.0026503678
000050 11 ec 12 bb 03 99 f9 ba b0 67 e2 bb a1 ca 4b 3c
       -0.0022418539 -0.0019042793 -0.006909333 0.012438447
000060 c8 b5 3f 3c c4 ac af ba 40 54 82 3b dc 8f e7 bc
       0.011701055 -0.0013402929 0.0039773285 -0.02826684
000070 38 14 bf bc 15 04 05 bd fd b7 99 bc c0 7e ce bc
       -0.02332507 -0.032474596 -0.01876449 -0.025206923
000080 6e d5 a1 bc c2 43 57 bc ae 6b e6 bc f3 9d 65 bc
       -0.019755092 -0.013138713 -0.028127518 -0.014014709
000090 20 88 83 3b 5f 1a d0 bb 11 fd 92 ba 24 73 39 bc
       0.00401403 -0.0063508 -0.0011214336 -0.011318956
0000a0 0b ba 29 3c d9 49 8a bb 3a 96 17 bb 6e 62 06 3b
       0.0103592975 -0.004220229 -0.0023130313 0.0020505446
0000b0 8b fa f5 bb 11 fd ac bc b0 a2 01 bc 7e 57 12 bd
       -0.0075066737 -0.021116765 -0.007912323 -0.03572797
0000c0 88 92 20 3b b7 d2 27 bc a5 7b d9 bc f1 e5 d4 3b
       0.0024501402 -0.010243109 -0.026548216 0.0064971377
0000d0 04 83 11 bc 9a f8 ac bc ac 0e 60 bc da a3 a3 bb
       -0.008881334 -0.021114636 -0.013675373 -0.004993898
0000e0 64 30 f2 bb 2e 4f 7d bb 35 7a 68 bc 25 26 f5 bb
       -0.0073910225 -0.003865193 -0.014189293 -0.007481354
0000f0 3f 46 8d b9 ba c8 21 bc 47 43 33 bb 76 11 90 3a
       -0.00026945953 -0.009874517 -0.0027353333 0.0010991532
000100 3e 60 cc 3c 3b d8 aa 3c 72 54 2e 3a 1e 43 98 3c
       0.024948236 0.02085506 0.00066501566 0.018586691
000110 23 96 85 bb 34 70 8d 3c 6d 23 8b 3c b6 32 46 ba
       -0.0040767356 0.017265417 0.016984666 -0.0007560657
000120 f0 ad c0 bb e7 5a bf bb ef 88 e5 bc 7c 7a 32 ba
       -0.00588011 -0.005839694 -0.028019397 -0.0006808413
000130 3c 4b f0 bb b8 dc 59 bc 2c 71 d1 39 a5 ab db bb
       -0.0073331874 -0.013297252 0.00039947906 -0.006703811
000140 c6 e4 a1 bc 76 87 51 3b 49 a3 e1 3a b5 08 ee 3b
       -0.019762408 0.003197161 0.00172148 0.0072642216
000150 ee 11 ff 3b 8d cf 02 3b 21 48 b3 3b 94 39 18 3c
       0.00778412 0.0019960136 0.005471245 0.009291071
000160 f0 bf 63 3c 98 63 6c 3c bb 37 ce 3a 66 68 50 3c
       0.013900742 0.014428042 0.0015733162 0.012720203
000170 b9 91 21 bc 9b 95 8d 39 7b 30 a9 bc ca 65 37 bc
       -0.009861403 0.0002700508 -0.020653 -0.011193702
000180 34 b5 6c bc 8d 44 bd ba 3c f7 9d 3b d6 53 d7 3a
       -0.014447499 -0.0014439985 0.0048207324 0.0016428183
000190 06 fe 0d 3b a4 5b 78 bc 18 b7 08 bb 85 8d 96 3b
       0.0021666302 -0.015158568 -0.0020861086 0.004594507
0001a0 a1 8e a7 bc 8a 94 e2 bb 89 59 20 bc db d7 2c bb
       -0.020453753 -0.00691468 -0.009786972 -0.0026373777
0001b0 05 50 39 3c bc af 00 3c 11 3f 4f 3b 7e eb 82 3c
       0.011310582 0.007854398 0.0031623284 0.015981432
0001c0 4e e5 88 3b 9d e6 47 bc 8f 0c 32 bc 15 92 fe bb
       0.004177726 -0.012200979 -0.010867252 -0.007768879
0001d0 db 0f 5f 3c 52 87 73 bc 82 db 74 bb 2d 2c cf bc
       0.01361462 -0.014863806 -0.0037362282 -0.02528962
0001e0 25 70 4d bc ae b0 b2 bb 4a 9c 84 bc 10 67 be bc
       -0.012538944 -0.0054531908 -0.016187806 -0.023242503
0001f0 6b fd b1 bc 41 c6 56 bc 1c 30 7c 3c f3 df 44 3c
       -0.021727284 -0.013108791 0.01539233 0.012016284
000200 5e 13 20 3c 2e a0 cd 3c 74 07 3e 3c c6 13 72 bb
       0.0097702425 0.025100794 0.011598457 -0.0036938055
000210 f8 77 13 bb 05 96 b5 ba 9a 37 6e bc a4 d2 a1 3b
       -0.0022501927 -0.0013853913 -0.014539624 0.0049384404
000220 82 79 2e ba 80 fe d2 bc 04 0e 1e 3c ec 48 44 bc
       -0.00066556793 -0.02575612 0.009646896 -0.011980277
000230 a8 d5 01 bd 50 78 9a bc e1 1c 15 bd f0 a0 e1 bc
       -0.0316979 -0.018856198 -0.036404494 -0.027542561
000240 4b b4 20 3c 5c 73 03 bc 34 50 8a 3b 14 5e 09 3b
       0.00980861 -0.008023109 0.0042209867 0.0020960616
000250 57 1c 47 3b d4 e7 e7 3b f2 df 52 bc 9d 50 36 3c
       0.0030381882 0.0070771966 -0.012870776 0.011127618
000260 d6 7f 16 ba fa 2e 23 bc f7 8e 24 3c 63 08 79 38
       -0.0005741095 -0.009959931 0.010043851 5.9374037e-05
000270 1a 77 c7 3b 1b 0f c4 3a d5 d0 4b 3c c7 af e1 ba
       0.006087196 0.0014958115 0.012439926 -0.0017218523
000280 27 b3 40 3c 85 dc 3c 3a 85 b2 14 bc ff f8 94 bb
       0.011761463 0.0007204491 -0.0090757655 -0.004546284
000290 6d 24 25 bb a1 ca 2c 3c 0b 47 42 3b 27 5d 6e 3c
       -0.0025198713 0.010546357 0.0029644396 0.014548576
0002a0 c1 ad 81 3c 2c fd 91 3c 02 80 4a 3c 50 98 14 bc
       0.015829923 0.017820917 0.012359621 -0.009069517
0002b0 bf 25 02 bc b6 a3 5c 3b 55 d4 35 3c 9d b4 37 bc
       -0.00794357 0.0033666915 0.011097987 -0.011212495
0002c0 32 3e 2d bc 52 ef 0c 3c 95 f8 9d 3b a8 c0 a3 3b
       -0.010573911 0.00860198 0.004820893 0.0049973316
0002d0 43 89 5d bc 85 d3 6a bc 11 37 e7 3b 7f fd 86 3b
       -0.013521495 -0.014332657 0.007056125 0.0041195746
0002e0 b6 5f 7a bb 84 03 cd 3b 2c 54 45 3c fa 98 1c bc
       -0.003820402 0.0062565226 0.012043994 -0.009557957
0002f0 db 8c 87 3b 3b 86 8a 3c 08 20 9d bb d1 64 6a 3c
       0.0041366643 0.01690971 -0.004795078 0.014306263
000300 a1 f6 a2 3c d3 aa 6c 3c 3c 31 05 ba 55 31 09 bb
       0.019892992 0.014445025 -0.0005080884 -0.0020933945
000310 dd 57 d8 bb 34 62 0d bc d5 f1 54 3c 56 de cc 3b
       -0.006602271 -0.0086293705 0.01299711 0.0062520904
000320 6f 20 47 bc 61 ab 33 3b 86 3e 54 bb 3a 41 04 bb
       -0.012153729 0.0027415382 -0.00323859 -0.002018048
000330 46 fb a9 3b 1b 98 45 bc 5b fb 0b bb aa 6e 76 3b
       0.005187425 -0.012060191 -0.0021359536 0.0037602582
000340 2e 49 ee bb 9b 58 02 3c 4d ed 8d 38 88 64 66 3b
       -0.0072719073 0.0079556955 6.767605e-05 0.0035155136
000350 32 32 28 bc c5 e0 62 3c af 44 ea 3b 4f 37 a0 bb
       -0.010265874 0.013847535 0.007149301 -0.004889406
000360 c4 0e d4 bb 26 d0 ba ba 8f 34 86 bc 8e 5a 3b bc
       -0.0064714868 -0.0014252707 -0.016382484 -0.011435164
000370 c8 0e e9 bc a4 5c 48 bd 9d be 7b bc 77 4e 0c bd
       -0.028449431 -0.048916474 -0.01536527 -0.034254517
000380 1b 60 41 bd ae ac 83 3c 77 b3 da 3b c2 78 68 3c
       -0.047210794 0.016073551 0.006674226 0.014188947
000390 df bb e8 b8 ab 36 28 3c 00 93 96 bb 3c 52 28 3c
       -0.00011097616 0.01026694 -0.0045951605 0.010273512
0003a0 6f 72 3c bb ba 01 70 3c 4f b0 80 bb ab 14 3f bc
       -0.0028754731 0.014648849 -0.0039272676 -0.0116626425
0003b0 b9 31 d3 bb e3 45 d2 bb 42 ea 16 3b 3b 23 b9 bb
       -0.0064451364 -0.0064170226 0.0023027812 -0.0056499518
0003c0 08 27 e2 3b c4 c2 9d bb 8e a6 ea 3a 8f 68 14 bc
       0.0069016255 -0.0048144776 0.001790242 -0.009058132
0003d0 58 65 c3 bb fc a7 97 3b f6 e4 24 bc e2 4a 72 bb
       -0.005963009 0.0046281796 -0.010064354 -0.0036970903
0003e0 94 ad ca bb d1 af b7 3a 70 10 fc bb c7 1e cd bc
       -0.006185243 0.0014014189 -0.007692389 -0.02503909
0003f0 ab cc f3 39 97 2a a4 3b bb 1a 33 3c 5b 23 33 3b
       0.0004650106 0.00500996 0.010931666 0.0027334306

weight f4 [32, 32, 3, 3]
000000 ee 15 6a bc 2f 0a b6 3a 84 f1 17 3c b2 fd 53 bc
       -0.014287455 0.0013888533 0.00927389 -0.012938904
000010 71 41 52 3c 16 60 39 bb b8 b4 27 bc 3e 69 a1 ba
       0.012832985 -0.0028286031 -0.010235958 -0.001231469
000020 81 ba c9 3c 95 db 98 39 ee 53 14 bb 35 a8 f4 bb
       0.024625065 0.000291553 -0.0022633034 -0.007466341
000030 25 c8 f3 ba c5 9a f4 3b 6c b1 86 3b 37 71 96 bb
       -0.0018599076 0.007464739 0.004110506 -0.004591133
000040 9c 9e a8 3a 97 ba 09 bc 18 8c aa 3b d3 ce 50 bc
       0.0012864652 -0.008406303 0.0052046888 -0.012744623
000050 6b 97 1e 3c 5d d5 c2 bb 41 77 54 3a bd 47 32 3c
       0.009679656 -0.005945845 0.00081049284 0.010881362
000060 e6 3c 4d bc ac ea 2b 3b 92 c0 55 ba 8c 53 75 3a
       -0.012526726 0.0026232405 -0.00081540004 0.0009358458
000070 e8 8a 0c bc aa 01 2a 3c 2d 56 86 ba 61 90 aa bb
       -0.00857804 0.010376373 -0.0010249071 -0.0052051996
000080 b6 3d f4 3b f1 15 20 3a 6b 38 18 3c 51 5e f1 3b
       0.0074536456 0.0006106785 0.009290795 0.0073659797
000090 71 cc 19 bc 8b 18 d7 38 8a 00 19 bc 37 ee 31 3c
       -0.009387122 0.000102565704 -0.009338507 0.0108600175
0000a0 5d 5a 6e 3c 2d f7 71 bc 83 95 b0 3a 17 9e 0f bb
       0.0145479115 -0.014768404 0.0013472292 -0.0021914297
0000b0 58 c9 61 bb e3 22 2b 3c 28 74 28 bc 47 86 23 bb
       -0.0034452286 0.010445329 -0.0102816 -0.0024951862
0000c0 80 cc 3b bc 87 91 aa 3b 76 6a 95 3b e8 42 31 bc
       -0.011462331 0.0052053365 0.0045598103 -0.010819174
0000d0 95 d1 72 3b 18 0f f2 bb 5c de 47 bd 74 38 36 bd
       0.003705119 -0.007387053 -0.048796043 -0.04448743
0000e0 ee 54 76 bd 7a 87 27 bd 69 5e 1c bd 88 9b 6a bd
       -0.06013959 -0.040900685 -0.038175974 -0.057277232
0000f0 c6 ae 9c bc 27 ee 39 bd f6 28 67 bd c7 03 26 3c
       -0.019126307 -0.045393135 -0.056435548 0.0101327365
000100 94 be c1 3c b9 15 a8 3c c3 09 a6 3c 25 bd 06 3c
       0.023650445 0.02051817 0.020268327 0.0082238065
000110 5b ba 82 bb 99 5d 9a 3c 19 ec 7c 3b ed c5 a0 bb
       -0.0039895005 0.018843459 0.0038592874 -0.004906407
000120 ea 05 ca 3b ff df dc 3b 55 c1 b3 3b ca b5 ff 3b
       0.006165256 0.0067405696 0.0054856935 0.0078036534
000130 47 4e 56 b9 6a 59 17 3c 0b f6 74 bc 1f 2d 62 bc
       -0.00020437791 0.009237627 -0.014951239 -0.013804703
000140 f2 84 41 bb 09 0a 69 bb da e7 04 bc f2 18 51 3b
       -0.0029528704 -0.003555896 -0.008111918 0.0031905738
000150 22 02 78 bc f2 cf 00 3b 79 da 20 bc b1 e0 1a 3c
       -0.015137227 0.0019655195 -0.009817713 0.009452985
000160 b7 40 e8 ba 6e d5 4a bc 8e f5 6e 3c ab 8a 5f bb
       -0.0017719482 -0.012379987 0.014584912 -0.0034109752
000170 c6 0f 87 39 03 f3 89 3c dc ea af 3b 24 4f 04 3a
       0.0002576096 0.01683951 0.0053685736 0.0005047193
000180 9d cd bd bb d8 67 1b bc 9b e0 17 3b f0 9d d0 bb
       -0.0057923333 -0.0094852075 0.0023174647 -0.006366484
000190 9d 3b 49 bb 2d 5b bf b9 35 f0 66 3a c4 1e 06 3c
       -0.0030705698 -0.0003649829 0.00088095973 0.008186046
0001a0 92 a1 bc bb 55 c6 4e 3c 82 53 a7 bb 68 9a cc ba
       -0.0057565654 0.012620528 -0.0051063905 -0.0015609981
0001b0 df ef 3d bd 41 13 53 bc 65 40 16 bd d3 e5 61 bc
       -0.046371337 -0.012883008 -0.036682505 -0.0137877045
0001c0 7c 7f eb bc 9b 12 58 bd 5b 65 aa bb 2a 6b 26 bd
       -0.028747313 -0.05275212 -0.005200071 -0.040629543
0001d0 02 64 45 bd 07 06 e9 ba 3b 19 7f 3b 5b c1 85 3c
       -0.048191078 -0.0017778286 0.003892495 0.01632755
0001e0 92 1f d6 3b 0b db 9e 3b 2b 8f 3a 3a 5e 45 50 3b
       0.006534525 0.0048478893 0.00071166706 0.0031779627
0001f0 00 cd c7 3b 91 da aa 3c 3b 05 3f bb 8e c4 27 3a
       0.006097436 0.020856174 -0.0029147405 0.00063998334
000200 0b cc a3 bb 6e cb 4e bc dd 68 b2 bb 8a ff 53 bc
       -0.004998689 -0.012621744 -0.0054446296 -0.012939343
000210 53 97 02 b9 29 cb 14 bc 52 28 97 bb aa 5a c7 3b
       -0.00012454139 -0.00908164 -0.004612961 0.006083806
000220 8d 6b 9c 3c 4a ec a4 3b 9a a2 28 3c e0 43 b3 3c
       0.019094253 0.0050330507 0.0102926735 0.021882951
000230 5d de b5 3b 03 52 04 3b 00 15 0f 3c 32 73 38 3b
       0.0055501894 0.0020190484 0.008733034 0.0028144834
000240 15 fe 0e bc 55 cf 41 bc 80 1f 2a bc c1 75 2f 3b
       -0.00872757 -0.011829217 -0.010383487 0.0026773068
000250 ed 95 ca 3b 9b 7e c1 ba 87 cd 07 bc ec 39 0e bc
       0.0061824233 -0.0014762463 -0.008288748 -0.008680802
000260 42 ad 80 bc c5 bb 1f bc 83 a1 fc bb 6d d0 e3 3b
       -0.015707616 -0.009749358 -0.0077096834 0.0069523365
000270 fe 36 27 3c e5 23 41 3c 6b eb 22 3c d7 39 01 bc
       0.010205982 0.011788343 0.009943823 -0.007887325
000280 40 18 2b 3c 42 4a b4 ba c9 68 4f 3b 54 06 15 ba
       0.010442793 -0.0013755041 0.003164815 -0.0005684842
000290 fb 73 72 3c 4f 10 67 3b 21 4e 64 3c 3c c5 52 3a
       0.01479816 0.0035257523 0.013934643 0.00080402545
0002a0 5d 92 32 bc 91 b5 84 3a 94 7a 34 3c cc 1a 3f bc
       -0.010899154 0.0010124912 0.011015553 -0.011664104
0002b0 89 9c f9 3b 46 32 08 bc 58 a8 86 ba 38 a0 f3 3a
       0.0076175374 -0.008312767 -0.0010273559 0.0018587178
0002c0 dc 72 33 bc 2f c7 e2 bb c0 d0 09 3b eb 91 0e bc
       -0.010952678 -0.006920717 0.0021028966 -0.008701782
0002d0 ce 78 0f 3c 6a 22 8f 3c 1e db e9 3b 44 5c 89 3a
       0.008756829 0.017472465 0.0071367165 0.0010479768
0002e0 3a f2 d2 b9 36 bf ff 3b 7c 74 10 3c 34 f0 23 3c
       -0.00040234794 0.0078047765 0.008816835 0.010005999
0002f0 3d 53 8b 3c 39 3e 7a bc 89 97 d7 bb 5e b9 1a bb
       0.017007465 -0.015273624 -0.0065793437 -0.0023609023
000300 ff b6 a8 bb f3 05 e1 ba 9a 9e 0c 3b 4e 73 5f bc
       -0.005148768 -0.0017167911 0.0021456839 -0.013638331
000310 90 bb bf 3a 8e 4d e8 bb 99 19 1d bb 27 09 e1 bb
       0.0014628042 -0.0070893234 -0.0023971556 -0.006867546
000320 58 69 d9 bb e0 08 15 39 20 9c 4c 3a 3c f6 61 3b
       -0.0066348724 0.00014213054 0.0007805247 0.0034479043
000330 b0 98 24 bb cd ea 6b bc 6f 10 90 bc 77 b7 da 3b
       -0.0025115423 -0.014399243 -0.017585961 0.0066747027
000340 a2 7e 5a 3c 9d f9 26 3c d9 28 89 37 bd 59 3d 3c
       0.013335856 0.010191348 1.6350694e-05 0.01155704
000350 a9 f2 44 3b 35 19 34 bc df 66 33 bc e0 51 39 bb
       0.0030051863 -0.010992338 -0.010949819 -0.002827756
000360 d0 ea d6 3b 11 84 06 3c 28 ab 15 bc 00 57 19 bc
       0.0065587536 0.008210198 -0.009135045 -0.009359121
000370 0c b6 50 bc b0 03 1c 3c ba a1 36 3b 6d 52 d4 3b
       -0.012738716 0.009522364 0.0027867393 0.0064795525
000380 7e d3 3f 3b ad 61 a6 36 3f e4 fb 3a 24 2c a1 bc
       0.0029270346 4.9585565e-06 0.0019217803 -0.019674368
000390 92 32 a3 3b 64 f0 d0 bb 6c c1 2c bc a2 f7 95 3b
       0.0049803937 -0.006376313 -0.010544162 0.0045766393
0003a0 86 0e 19 39 7a 66 a3 3b b5 7e 46 bd e5 6e 36 bd
       0.00014596627 0.0049865814 -0.04846068 -0.04453935
0003b0 fd 27 11 bd 70 5f c9 bc f4 1b 33 bd a6 13 4b bd
       -0.035438526 -0.024581641 -0.04372783 -0.049579285
0003c0 0e ab d6 ba d0 e0 45 bd 0e 8c 86 bd d5 45 28 3c
       -0.0016377883 -0.0483101 -0.06569682 0.0102705555
0003d0 ee f1 f6 bb c6 04 10 ba 73 e5 b5 3a 8b 2b eb bb
       -0.0075361645 -0.00054938754 0.0013877585 -0.0071768216
0003e0 80 55 2f 3c 65 20 08 bb 99 ad 80 bb a9 80 87 ba
       0.010701537 -0.0020771262 -0.0039269445 -0.0010338026
0003f0 78 12 16 bc 10 e4 02 3c b2 7e 52 bb 68 21 15 bc
       -0.009159677 0.007988945 -0.0032118973 -0.009102203
