checkpoint/model_epoch_100.pth (torch, 683929 bytes, 20 tensors)

weight f4 [32, 32, 3, 3]
0.033226423 0.00017217426 -0.024356138 0.019462911 -0.0506617 0.04506296 0.006528291 0.032086622
0.010740039 0.10758694 0.038253523 0.08751595 0.024039604 0.06966083 0.09831034 0.0060697994
-0.1198307 -0.11462943 -0.026797524 0.1643536 0.054808035 -0.027946027 -0.06901496 0.016275357
-0.067695044 0.10475496 -0.0015702203 0.04505287 0.08533745 0.074286975 -0.033284076 0.0950604
0.018461376 -0.022246944 0.05927053 -0.06399722 0.014725242 0.08378968 0.053463574 -0.04598186
-0.018581403 -0.008614924 0.09464595 -0.033846144 0.011067776 -0.07932224 0.09626133 0.02332113
0.03301257 0.005054334 -0.079406306 0.02387469 0.06896088 -0.08330646 0.06173801 0.01664941
0.06637834 -0.0784317 0.06483529 0.06460373 -0.069315225 -0.025277758 0.072502635 -0.08317959
-0.023616865 0.033449262 -0.043759402 0.075158395 -0.053230613 0.026174948 0.05860613 0.0987752
0.029831702 -0.01916178 0.08633255 0.02293876 0.06218203 -0.003168888 -0.044619713 0.027489234
-0.0879695 0.02580561 0.1220485 -0.06257253 -0.096046194 -0.07160623 -0.03950828 0.07255279
0.08002288 0.15977573 0.08517257 -0.07470188 -0.037535504 -0.021670768 -0.033317253 -0.08019545
0.05435927 -0.089327835 -0.009461021 -0.019319484 0.06332306 -0.083470434 0.09040784 -0.08160317
0.081089854 -0.04200736 -0.04061908 0.108866945 0.06472533 0.043460894 -0.016775388 -0.078253634
-0.04315724 0.05274292 0.0022967008 -0.10520809 0.02745596 -0.09118967 -0.095195115 0.01919022
-0.07162712 -0.07915594 0.10716121 0.025454886 -0.042313207 -0.031007867 -0.032518942 0.07312533
0.054761693 -0.092503466 0.0075489273 -0.07879832 -0.021830587 -0.05519245 0.028456928 0.016351081
0.068428345 -0.047810398 -0.09724701 0.062681146 -0.0040477947 -0.09356258 -0.036100354 0.020962851
-0.09669857 -0.056258302 -0.048353195 0.08358085 0.086768605 0.07821212 0.054343127 0.041790754
0.07562701 0.037027914 0.021317651 -0.08127544 -0.0027877004 -0.001699798 -0.08994975 -0.015751915
0.073055185 -0.03682324 -0.023795616 0.07933961 -0.024027793 0.044607792 0.087779 0.04406303
-0.049007334 -0.027042 0.023167074 -0.02599516 -0.07748833 -0.099690415 0.06325618 -0.0025628884
0.050150927 0.007935643 -0.09575568 -0.04530018 0.031766906 0.120306715 0.09488939 -0.00073722884
0.072486505 0.026100973 -0.058781136 -0.055485357 0.03930427 0.015714379 0.06124084 -0.066100165
0.06979859 -0.03999911 0.08075835 0.06488485 -0.019482812 -0.040927842 0.056447342 -0.021017533
0.023704343 0.098821715 -0.017859133 0.019283464 -0.08188092 -0.03118874 -0.024549257 -0.063469015
-0.015567162 -0.005198999 0.07677404 0.030444458 0.018958308 0.070632555 0.080905825 0.083551645
0.010829666 0.010082964 0.063330054 -0.05032002 -0.045391053 0.0095898425 0.09839351 -0.05161323
-0.028662158 -0.07578865 0.0032809223 0.12016889 0.06491872 0.07789253 -0.13106075 -0.058919854
0.014041136 -0.03573592 -0.10550822 0.064492464 -0.06394025 0.00065044453 -0.080013566 -0.011185946
0.014101867 -0.09140999 0.06278591 -0.011480333 0.13890286 0.07441679 -0.016545592 -0.018308563
-0.03919173 -0.0028526164 0.009318273 0.041311145 0.076961435 -0.0024341643 -0.018248102 0.015677232
00000000: 6e18 083d ad89 3439 8686 c7bc af70 9f3c
00000010: a582 4fbd f093 383d 46eb d53b 436d 033d
00000020: fdf6 2f3c 8b56 dc3d baaf 1c3d 903b b33d
00000030: b4ee c43c 56aa 8e3d ee56 c93d 2be5 c63b
00000040: cc69 f5bd d6c2 eabd 7b86 dbbc 4f4c 283e
00000050: 647e 603d 11ef e4bc b757 8dbd e653 853c
00000060: b3a3 8abd c589 d63d dacf cdba 5c89 383d
00000070: 67c5 ae3d c523 983d e254 08bd 07af c23d
00000080: 503c 973c 393f b6bc a8c5 723d f910 83bd
00000090: 2442 713c ec99 ab3d 9ffc 5a3d 7a57 3cbd
000000a0: 0738 98bc 9c25 0dbc bcd5 c13d 41a2 0abd
000000b0: 9e55 353c b373 a2bd a924 c53d f40b bf3c
000000c0: 3038 073d d49e a53b c69f a2bd db94 c33c
000000d0: 5d3b 8d3d 949c aabd ffe0 7c3d 5864 883c
000000e0: 5ef1 873d cda0 a0bd 5dc8 843d f64e 843d
000000f0: 24f5 8dbd 4d13 cfbc 437c 943d 105a aabd
00000100: 2878 c1bc 1802 093d 0f3d 33bd a5ec 993d
00000110: 5808 5abd d86c d63c fb0c 703d a74a ca3d
00000120: 9d61 f43c 2af9 9cbc 1fcf b03d 11ea bb3c
00000130: 96b2 7e3d 1ead 4fbb 29c3 36bd 1a31 e13c
00000140: 5a29 b4bd 4966 d33c 90f4 f93d 0726 80bd
00000150: deb3 c4bd 4aa6 92bd 6fd3 21bd 8f96 943d
00000160: 09e3 a33d 409c 233e f56e ae3d 4dfd 98bd
00000170: d4be 19bd e586 b1bc ac77 08bd 833d a4bd
00000180: d3a7 5e3d 83f1 b6bd 6602 1bbc e543 9ebc
00000190: 85af 813d 8cf2 aabd bf27 b93d 901f a7bd
000001a0: 7012 a63d e90f 2cbd 3160 26bd a2f5 de3d
000001b0: b78e 843d 0d04 323d 8a6c 89bc 7143 a0bd
000001c0: a5c5 30bd f608 583d 3f84 163b 5777 d7bd
000001d0: 52eb e03c a6c1 babd a8f5 c2bd cf34 9d3c
000001e0: 3db1 92bd 821c a2bd 5677 db3d c486 d03c
000001f0: 9d50 2dbd 3604 febc 9532 05bd bcc2 953d
00000200: cc4d 603d 7572 bdbd fe5c f73b 0361 a1bd
00000210: 0fd6 b2bc 7a11 62bd 811e e93c b4f2 853c
00000220: 2924 8c3d d6d4 43bd 7129 c7bd f95e 803d
00000230: 5da3 84bb bd9d bfbd f7dd 13bd 49ba ab3c
00000240: e609 c6bd 1b6f 66bd 000e 46bd 702c ab3d
00000250: bdb3 b13d ad2d a03d e696 5e3d c82c 2b3d
00000260: 55e2 9a3d 95aa 173d 5ba2 ae3c bd73 a6bd
00000270: dab1 36bb c2cb deba 9337 b8bd 290a 81bc
00000280: f59d 953d f7d3 16bd 06ef c2bc ce7c a23d
00000290: efd5 c4bc a9b6 363d 7ac5 b33d 707b 343d
000002a0: eabb 48bd 2f87 ddbc e0c8 bd3c cdf3 d4bc
000002b0: 34b2 9ebd 7d2a ccbd 758c 813d 22f6 27bb
000002c0: 0f6b 4d3d 8004 023c 8e1b c4bd ae8c 39bd
000002d0: 041e 023d 5e63 f63d 5e55 c23d 9742 41ba
000002e0: ce73 943d b5d1 d53c 7dc4 70bd 9d44 63bd
000002f0: 84fd 203d 71bb 803c add7 7a3d 865f 87bd
00000300: 90f2 8e3d 1bd6 23bd a264 a53d 59e2 843d
00000310: 6b9a 9fbc f4a3 27bd 5435 673d f62c acbc
00000320: 9c2f c23c 0a63 ca3d 514d 92bc 5bf8 9d3c
00000330: 2fb1 a7bd 877f ffbc 861b c9bc 0bfc 81bd
00000340: 690d 7fbc 5d5c aabb b53b 9d3d a866 f93c
00000350: 744e 9b3c cda7 903d f4b1 a53d 201d ab3d
00000360: e96e 313c 0433 253c 30b3 813d 5e1c 4ebd
00000370: f8eb 39bd b71e 1d3c 8982 c93d 6568 53bd
00000380: e7cc eabc 1437 9bbd be04 573b 1b1b f63d
00000390: 1bf4 843d 1e86 9f3d ca34 06be f255 71bd
000003a0: cb0c 663c d45f 12bd b214 d8bd a014 843d
000003b0: 1bf3 82bd 9882 2a3a 27de a3bd 4245 37bc
000003c0: 840b 673c 2935 bbbd e695 803d 0218 3cbc
000003d0: 8d3c 0e3e d467 983d 9f8a 87bc d7fb 95bc
000003e0: 8287 20bd f6f2 3abb abab 183c e035 293d
000003f0: f59d 9d3d 8086 1fbb 0b7d 95bc 8a6d 803c

weight f4 [32, 32, 3, 3]
0.077080086 -0.039598852 -0.051275373 -0.06609752 0.08737031 0.022249866 -0.13109744 0.05691796
-0.07380893 -0.026080526 0.032366864 -0.07318186 0.07622716 -0.0813879 -0.005722515 -0.10689406
0.10775229 0.050087642 0.11691918 -0.051352814 -0.09231743 0.075411655 0.08951999 0.09867114
0.0012781202 0.021056294 0.17261277 0.02077227 0.10144735 -0.045650452 -0.09598096 -0.01246367
-0.03889988 -0.028355496 -0.07130416 -0.063913755 0.07980111 -0.017941613 -0.046753775 0.062322754
0.066289164 0.08620867 0.022633756 -0.07721187 -0.08335051 0.08605409 -0.08892186 0.010408433
-0.064374246 0.039790303 0.14246453 -0.010371552 -0.02163055 0.09667936 0.028584223 0.08137894
0.052335024 -0.05303283 -0.03272296 -0.059047032 0.032227214 -0.11975837 -0.031476505 -0.03042085
-0.038992457 0.095615566 -0.032640897 -0.018266926 0.01947083 0.030956164 -0.00087918545 -0.043563124
-0.018328404 -0.061652068 0.07545424 -0.09668079 -0.048575103 -0.05866528 0.027217941 -0.04271665
-0.04848167 -0.09730398 -0.050253473 0.08967215 0.06481867 0.07399926 -0.0071151853 -0.09533588
0.046699278 -0.09326257 0.12538518 -0.095700845 0.030371057 -0.058789484 -0.031337027 0.023229621
-0.007066748 0.11878622 0.08498631 -0.0982249 0.08836189 0.09606338 0.061238356 0.014995032
0.064593114 0.08500913 -0.026719606 0.0053425566 0.037498876 0.082011655 0.0034913775 -0.020529723
-0.05797749 -0.04331222 -0.090155505 -0.04106964 -0.03398657 0.08834115 0.06313731 -0.06187171
-0.041413963 0.054650906 -0.051621947 0.046609644 -0.033930443 -0.10738348 0.0014461814 -0.07889691
6.057095e-05 -0.03602167 0.020005718 0.04313121 0.052006964 -0.052245766 0.09029036 -0.030898837
0.018706376 -0.031247241 0.0043410105 0.07424612 -0.008622388 -0.043193992 -0.07088351 -0.018599914
0.050695688 0.04038321 -0.0064125215 -0.0112486705 -0.07864498 -0.057809945 -0.072125785 -0.050715823
0.11338234 -0.054455284 0.077676095 -0.005878826 -0.024998577 0.013430249 0.014604315 -0.043209966
0.0012984294 -0.028336797 0.06274342 -0.04946442 -0.05268605 -0.040683992 0.041361164 -0.068447426
0.036670033 0.01829182 0.1076097 -0.00916403 0.10876473 -0.034321602 0.055182718 -0.025431171
0.021574112 0.09829036 0.028049124 -0.0850535 0.05322512 0.016444774 0.030118227 0.07743954
-0.09976153 -0.042125005 -0.07188058 0.07719115 -0.041235365 0.03302314 -0.084739655 -0.03166351
0.09667213 -0.0025376226 0.04903829 -0.045093276 0.006639381 -0.021899223 0.056607552 -0.030835679
0.066138186 -0.008362056 -0.04727726 0.068556875 -0.08594538 0.013411446 0.08403283 0.022425143
-0.046856616 0.0934023 0.014791247 -0.07375501 -0.05771854 0.0020722798 0.054476198 0.07880562
0.06488473 0.01421481 0.0071009956 -0.019686101 -0.042968098 0.06759625 0.025683573 -0.105012774
-0.091622606 0.0138561325 0.0645795 0.041990932 0.049429297 0.0024072435 0.09612219 0.00290531
-0.08006614 -0.076427296 0.09865223 0.06435285 0.07672643 0.035924364 0.08716791 0.073973864
-0.0878195 0.09580319 -0.0031256315 -0.12229611 -0.026343234 0.10936198 0.06775036 0.10737698
0.062640876 -0.0541387 -0.091205604 0.016321024 0.024184931 0.09967037 0.03521918 -0.069263816
00000000: 2adc 9d3d 6832 22bd 2006 52bd 235e 87bd
00000010: 35ef b23d 5a45 b63c 683e 06be cf22 693d
00000020: 2329 97bd d4a6 d5bc 1e93 043d 5fe0 95bd
00000030: fc1c 9c3d b3ae a6bd ef83 bbbb 46eb dabd
00000040: 3cad dc3d b328 4d3d 5373 ef3d 5457 52bd
00000050: ec10 bdbd 6d71 9a3d 4256 b73d 1814 ca3d
00000060: 9986 a73a 407e ac3c 67c1 303e 9c2a aa3c
00000070: a1c3 cf3d f8fb 3abd aa91 c4bd 6c34 4cbc
00000080: 7b55 1fbd c949 e8bc ea07 92bd 37e5 82bd
00000090: c46e a33d 4afa 92bc e380 3fbd 2546 7f3d
000000a0: 9dc2 873d 2c8e b03d 6d6a b93c 4221 9ebd
000000b0: acb3 aabd 203d b03d aa1c b6bd 2288 2a3c
000000c0: a5d6 83bd 28fb 223d 39e2 113e 71ed 29bc
000000d0: 8d32 b1bc d4ff c53d 7629 ea3c 00aa a63d
000000e0: 405d 563d f438 59bd 8308 06bd 4ddb 71bd
000000f0: af00 043d e043 f5bd 82ed 00bd 2535 f9bc
00000100: 8eb6 1fbd 18d2 c33d 76b2 05bd 85a4 95bc
00000110: 4a81 9f3c c897 fd3c 2379 66ba 3f6f 32bd
00000120: 7325 96bc e186 7cbd c187 9a3d 9400 c6bd
00000130: b0f6 46bd 014b 70bd 29f8 de3c a7f7 2ebd
00000140: b794 46bd 4f47 c7bd 96d6 4dbd 08a6 b73d
00000150: a7bf 843d ed8c 973d 8026 e9bb 753f c3bd
00000160: be47 3f3d 7200 bfbd f964 003e cefe c3bd
00000170: b9cc f83c 3ecd 70bd 415b 00bd 0c4c be3c
00000180: 2e90 e7bb 3146 f33d 4d0d ae3d 232a c9bd
00000190: 14f7 b43d e1bc c43d 12d5 7a3d b9ad 753c
000001a0: 6549 843d 4419 ae3d 13e3 dabc 9d10 af3b
000001b0: 6c98 193d baf5 a73d 98cf 643b f32d a8bc
000001c0: ce79 6dbd 2868 31bd 73a3 b8bd a438 28bd
000001d0: 8035 0bbd 34ec b43d 224e 813d 316d 7dbd
000001e0: b0a1 29bd a1d9 5f3d 8971 53bd c1e9 3e3d
000001f0: a6fa 0abd dfeb dbbd cc8d bd3a b494 a1bd
00000200: 900d 7e38 758b 13bd 08e3 a33c 5aaa 303d
00000210: 4105 553d a8ff 55bd 27ea b83d 8f1f fdbc
00000220: 1d3e 993c 37fa ffbc 093f 8e3b 5a0e 983d
00000230: eb44 0dbc 2fec 30bd 602b 91bd d95e 98bc
00000240: 48a6 4f3d dd68 253d 2120 d2bb 584c 38bc
00000250: 9f10 a1bd 1fca 6cbd afb6 93bd 65bb 4fbd
00000260: 0035 e83d 810c 5fbd a514 9f3d 2ba3 c0bb
00000270: d1c9 ccbc 8c0a 5c3c f046 6f3c effc 30bd
00000280: 1030 aa3a 9222 e8bc 9f7f 803d 349b 4abd
00000290: 54cd 57bd 42a4 26bd 536a 293d 2a2e 8cbd
000002a0: 5133 163d bad8 953c 7962 dc3d ba24 16bc
000002b0: 0bc0 de3d cf94 0cbd 4607 623d 0855 d0bc
000002c0: 31bc b03c 754c c93d 47c7 e53c 8830 aebd
000002d0: 9502 5a3d 31b7 863c 80ba f63c 9f98 9e3d
000002e0: c64f ccbd 458b 2cbd 2036 93bd 6516 9e3d
000002f0: 6ae6 28bd 4643 073d fc8b adbd 99b1 01bd
00000300: 0afc c53d 3e4e 26bb 60dc 483d bab3 38bd
00000310: 2a8f d93b 0066 b3bc 52dd 673d 1b9b fcbc
00000320: 7573 873d 0101 09bc cda5 41bd 8c67 8c3d
00000330: 2204 b0bd aebb 5b3c 6819 ac3d efb4 b73c
00000340: b9ec 3fbd b449 bf3d fd56 723c de0c 97bd
00000350: 476a 6cbd 16cf 073b 6f22 5f3d d764 a13d
00000360: 49e2 843d 3ce5 683c 78af e83b bf44 a1bc
00000370: 51ff 2fbd e76f 8a3d 5b66 d23c f010 d7bd
00000380: a2a4 bbbd d504 633c 4242 843d affe 2b3d
00000390: 6076 4a3d d8c2 1d3b b6db c43d 0367 3e3b
000003a0: b7f9 a3bd ea85 9cbd 2e0a ca3d 6dcb 833d
000003b0: bf22 9d3d 6d25 133d 1785 b23d 9c7f 973d
000003c0: b6da b3bd 7634 c43d 65d7 4cbb 6276 fabd
000003d0: c4cd d7bc 2cf9 df3d b3c0 8a3d 76e8 db3d
000003e0: dc49 803d 8bc0 5dbd 01ca babd abb3 853c
000003f0: 7a1f c63c fb1f cc3d fd41 103d 30da 8dbd

weight f4 [32, 32, 3, 3]
0.089335464 -0.05814923 0.019447297 -0.049583964 0.08693087 0.07256123 -0.007652192 0.0012576517
0.033445757 0.10188854 0.13182326 -0.05622471 -0.04046255 -0.009981106 -0.031714432 -0.08708334
0.059043765 0.1081115 -0.037297167 0.08012388 0.0064405217 -0.051844165 0.003761632 0.006716059
-0.1017485 -0.05096105 -0.032690834 -0.07117486 0.005367291 0.039331626 0.020323632 -0.075938754
-0.046299186 0.041879624 -0.115113884 0.0068338355 -0.018932104 0.15115426 -0.04402455 0.07908441
-0.046904832 -0.056638487 0.033806685 -0.09786966 -0.087980196 -0.066522814 -0.034430727 -0.07842887
0.11408515 0.03486607 0.086103536 0.029521527 -0.016220665 0.07010593 0.10330011 -0.06204879
-0.06575067 0.056639675 0.07074416 0.0500158 0.029936936 0.060085498 0.03403453 -0.0428826
0.046782203 -0.08986378 0.08472543 -0.045401514 0.08694467 -0.07375565 -0.018624643 0.039903075
0.029931195 0.13032404 0.063514724 0.06349651 -0.03885975 -0.08580317 -0.038068738 -0.112186834
-0.10037666 -0.031298194 -0.060533106 -0.09784559 0.0069949804 0.0237189 0.035642028 0.092579715
-0.095912695 0.012298351 0.07739976 0.029770827 -0.089603834 0.09236048 0.10207292 0.10988122
-0.073137544 -0.092673 -0.080334775 -0.039326813 -0.030173874 -0.025374308 -0.033954926 0.03560925
-0.074156694 -0.009597406 -0.09843371 0.008942408 0.061274566 0.10832886 -0.040332932 -0.038960177
-0.030545248 0.0803808 -0.059323724 -0.0541522 0.040194534 -0.016794117 -0.036387455 -0.10188093
-0.049898244 -0.089558356 -0.033032846 0.079804145 -0.037602276 0.05993459 -0.03480861 0.07796031
0.045154694 -0.062181853 -0.0028218173 -0.06628013 0.014032239 -0.0635663 0.07809618 0.04148441
-0.040009715 -0.088036664 0.014640954 -0.050291736 0.06022035 0.0001731892 -0.017600533 0.030068627
-0.052090205 0.11163056 0.08012791 -0.055780973 -0.06020358 0.1138902 -0.032001834 0.07371109
-0.0056390893 0.01824585 -0.010085272 -0.11231914 -0.005335601 0.020311005 0.038017407 0.055808783
-0.10476412 -0.061507784 0.012745827 0.10008151 0.0063972 0.12347103 -0.06765069 -0.04832276
0.023393404 -0.0858488 -0.020951621 0.02264783 0.04327312 -0.0050720093 0.052858412 -0.058802474
0.042194653 0.037553202 -0.04189424 -0.0042772037 0.034553844 0.07586307 -0.0964082 0.049605977
-0.06251749 0.07712473 -0.073026344 -0.058020506 -0.07728464 -0.009819305 -0.08757005 0.113027476
0.10112642 0.037825324 -0.03022183 -0.06971615 -0.095062256 0.074519284 -0.0063569783 -0.0088214455
0.070988216 -0.098563604 -0.09471573 0.028359985 -0.0463062 0.008290319 0.0060849455 -0.014909676
-0.09165126 -0.074773766 -0.00692578 -0.064790376 0.024909232 0.023569264 -0.056741208 -0.0022002978
0.15510023 0.013850539 0.082360454 0.019801736 0.06045085 0.02542418 -0.021004397 -0.081169814
-0.038694788 -0.064202756 0.080830626 -0.07887106 -0.08993161 -0.02354542 -0.09214353 -0.038304366
0.061083764 0.04428156 -0.08264901 0.03907099 0.082230814 -0.080545396 0.04710399 -0.0781954
-0.0313485 -0.06879083 -0.065838486 -0.086979434 0.06094423 0.042885 0.0028482447 -0.098170236
-0.011802084 -0.06470299 0.081072204 -0.0082481755 -0.014116914 -0.04178985 0.061324704 -0.021106998
00000000: 83f5 b63d e32d 6ebd f04f 9f3c 8e18 4bbd
00000010: d008 b23d fb9a 943d 3dbf fabb cad7 a43a
00000020: 6bfe 083d f0aa d03d adfc 063e e24b 66bd
00000030: 0fbc 25bd cb87 23bc fee6 01bd c058 b2bd
00000040: e0d7 713d 9069 dd3d eac4 18bd fd17 a43d
00000050: 030b d33b 8c5a 54bd b685 763b 6312 dc3b
00000060: 8461 d0bd 89bc 50bd d3e6 05bd 20c4 91bd
00000070: 1ae0 af3b 331a 213d bf7d a63c c785 9bbd
00000080: 37a4 3dbd f889 2b3d d4c0 ebbd 5eee df3b
00000090: 8017 9bbc 2fc8 1a3e 1653 34bd 02f7 a13d
000000a0: 481f 40bd c2fd 67bd e178 0a3d e36f c8bd
000000b0: f62e b4bd 1d3d 88bd 3c07 0dbd 519f a0bd
000000c0: 7aa5 e93d b9cf 0e3d 0d57 b03d 21d7 f13c
000000d0: 33e1 84bc b393 8f3d 028f d33d df26 7ebd
000000e0: 4aa8 86bd 01ff 673d 50e2 903d 5edd 4c3d
000000f0: 4e3e f53c 361c 763d cb67 0b3d aaa5 2fbd
00000100: b29e 3f3d 800a b8bd 8784 ad3d f0f6 39bd
00000110: 0c10 b23d 340d 97bd b592 98bc 6871 233d
00000120: 4432 f53c aa73 053e 0214 823d 750a 823d
00000130: 672b 1fbd 93b9 afbd f7ed 1bbd 36c2 e5bd
00000140: 4792 cdbd 8932 00bd 90f1 77bd 4563 c8bd
00000150: 2636 e53b 234e c23c 60fd 113d 6f9a bd3d
00000160: e06d c4bd 067f 493c c483 9e3d f3e1 f33c
00000170: 3782 b7bd 7e27 bd3d 9b0b d13d 6809 e13d
00000180: 23c9 95bd 58cb bdbd 8f86 a4bd 2715 21bd
00000190: 332f f7bc c8dd cfbc 5214 0bbd 01db 113d
000001a0: 77df 97bd 703e 1dbc 9d97 c9bd 2d83 123c
000001b0: 0afb 7a3d 85db dd3d 2534 25bd b594 1fbd
000001c0: 073a fabc b09e a43d 6ffd 72bd b3ce 5dbd
000001d0: 06a3 243d d193 89bc 030b 15bd f3a6 d0bd
000001e0: 1a62 4cbd 5f6a b7bd 734d 07bd 5b70 a33d
000001f0: d804 1abd f97d 753d 7993 0ebd a8a9 9f3d
00000200: 21f4 383d 66b2 7ebd 3dee 38bb e0bd 87bd
00000210: 7ae7 653c 0c2f 82bd e4f0 9f3d 8feb 293d
00000220: 3ae1 23bd 914c b4bd 9de0 6f3c b5fe 4dbd
00000230: 9da9 763d 1f9a 3539 fe2e 90bc 7b52 f63c
00000240: 8a5c 55bd 909e e43d 1a1a a43d 977a 64bd
00000250: 0798 76bd 443f e93d 5b14 03bd d7f5 963d
00000260: 1cc8 b8bb 5278 953c b23c 25bc 9407 e6bd
00000270: 44d6 aebb 4463 a63c 24b8 1b3d c097 643d
00000280: 928e d6bd 96ef 7bbd e0d3 503c 89f7 cc3d
00000290: 9a9f d13b 61de fc3d 728c 8abd 16ee 45bd
000002a0: 86a3 bf3c 7fd1 afbd bca2 abbc f187 b93c
000002b0: 283f 313d 1933 a6bb 1082 583d ddda 70bd
000002c0: 4dd4 2c3d 63d1 193d 4b99 2bbd c927 8cbb
000002d0: 5588 0d3d 195e 9b3d aa71 c5bd a32f 4b3d
000002e0: 2b09 80bd 92f3 9d3d d68e 95bd e9a6 6dbd
000002f0: 6947 9ebd 26e1 20bc ed57 b3bd f37a e73d
00000300: 5e1b cf3d baee 1a3d c593 f7bc 57c7 8ebd
00000310: 00b0 c2bd 919d 983d 334e d0bb d387 10bc
00000320: 4562 913d b7db c9bd 52fa c1bd 3353 e83c
00000330: 92ab 3dbd 1ed4 073c 3964 c73b b747 74bc
00000340: a8b3 bbbd fd22 99bd a7f1 e2bb d1b0 84bd
00000350: 720e cc3c 5414 c13c 7869 68bd df32 10bb
00000360: 98d2 1e3e 5fed 623c 99ac a83d 4037 a23c
00000370: 4f9b 773d 5f46 d03c 6a11 acbc 5c3c a6bd
00000380: 6d7e 1ebd bc7c 83bd 878a a53d 2687 a1bd
00000390: 102e b8bd 53e2 c0bc bfb5 bcbd 0ae5 1cbd
000003a0: f832 7a3d 9560 353d e243 a9bd e708 203d
000003b0: a168 a83d fcf4 a4bd 1df0 403d e924 a0bd
000003c0: 4967 00bd 35e2 8cbd 54d6 86bd 4622 b2bd
000003d0: a8a0 793d 2fa8 2f3d 9ea9 3a3b 7a0d c9bd
000003e0: 875d 41bc 0083 84bd 2f09 a63d 5b23 07bc
000003f0: a14a 67bc d52b 2bbd 9d2f 7b3d 95e8 acbc

weight f4 [32, 32, 3, 3]
0.032615557 0.018033968 0.010830363 -0.002534019 0.021705844 0.0060674152 -0.042013437 -0.024655504
0.06113116 0.022867542 -0.044825844 -0.11125536 -0.006449609 0.04051627 -0.05957241 0.047158796
-0.028131424 -0.017249856 -0.0013721979 -0.02948464 0.008581813 0.11050333 -0.11176629 0.05813396
0.04805468 -0.010101608 0.011986362 -0.0639057 0.018946037 -0.08086039 0.052928466 0.07690503
-0.0374205 -0.011868326 -0.013075421 0.02901665 0.05344105 -0.11061517 -0.0035276522 0.014694382
0.036483396 -0.057479523 -0.07618235 -0.055909064 -0.123127304 -0.045440692 -0.10265791 -0.009706272
0.10125626 -0.07056976 -0.10350612 0.0030351405 -0.10087381 0.01551029 -0.052572917 -0.006682641
-0.026622172 0.030254776 -0.039306715 -0.022591602 0.06567328 0.13641496 0.14465252 0.015373507
0.037478402 0.047484655 -0.06513003 0.1555636 -0.0002569027 -0.024995446 0.034466505 -0.035624098
0.04230478 -0.001238207 -0.060683347 0.03235727 0.14259343 0.09146621 -0.06292571 0.08947696
0.15125734 0.057428047 0.028160963 -0.058097225 0.059699085 0.18116589 -0.009829783 -0.09099414
0.1441573 0.090055965 0.027824834 0.011738212 0.06810371 0.043204878 0.011819814 -0.08721035
-0.095326595 -0.11582835 -0.026173346 0.03356337 0.0027965372 0.044033993 0.00474928 0.034669586
0.025108144 0.08116868 -0.06459864 0.029650014 -0.098699346 -0.1435455 -0.1006178 -0.057055615
0.09422361 0.048500866 -0.03384638 0.020842094 0.06885766 0.06349611 -0.0946866 0.01189348
0.035328716 -0.08515779 -0.04416347 0.13425131 0.147193 0.15546648 -0.018438946 -0.037952326
-0.0130551085 0.09149743 0.0632219 -0.060407616 0.05906385 -0.07010949 0.07118885 0.013769101
-0.0144158695 0.05106322 0.08452329 0.037474055 0.03341193 0.021201292 -0.0462814 0.058331437
-0.0012258571 0.14939041 0.08905988 0.08777494 -0.08632207 -0.11573655 0.15009351 0.035174713
0.048721977 0.047426607 0.079273894 -0.07331661 0.00013034992 -0.025573045 0.0813347 -0.058934238
-0.0785933 0.07747666 0.03205607 0.052538726 0.062247075 -0.016808288 0.018897748 0.11893221
-0.054260507 -0.070976324 0.015011197 -0.008693411 0.026392814 0.07307158 0.024943486 0.03256051
-0.0503074 -0.0030245678 0.107279524 -0.111354895 0.0049549714 0.092417076 0.086998984 -0.06272277
0.066284 -0.02506219 -0.042534817 0.10112809 0.0013090859 0.030608768 -0.05607816 0.1089383
-0.08297342 0.034124013 -0.066835746 -0.06891962 -0.0944153 -0.06610579 0.09854848 -0.08303304
-0.05179367 0.005737433 0.1470549 -0.018547323 0.055721942 -0.0590187 0.08537122 -0.047142293
0.090734325 -0.07468543 0.07379652 0.20679785 0.012557387 0.03181455 -0.04043638 -0.09771558
-0.08076964 0.066766754 0.039194953 0.013903246 -0.06656867 -0.009614254 0.044001207 -0.02764373
0.037510615 0.0660316 0.00267063 -0.011314514 -0.009986796 -0.097770594 -0.04876364 0.097069025
-0.072779655 -0.011691399 -0.0523444 0.07682554 0.00053501775 0.092983186 0.0480346 0.021394301
0.060938623 0.012363895 -0.036685333 -0.011035942 0.025224416 0.074104875 0.09155894 -0.027162591
-0.056064554 0.08648299 -0.016182575 0.0800495 0.0919261 0.05363503 -0.09151786 0.04217385
00000000: e497 053d f9bb 933c d671 313c c911 26bb
00000010: 74d0 b13c 2bd1 c63b 4816 2cbd 57fa c9bc
00000020: ab64 7a3d b654 bb3c 4e9b 37bd dad9 e3bd
00000030: 3e57 d3bb 63f4 253d 3302 74bd 9529 413d
00000040: df73 e6bc 924f 8dbc 52db b3ba c689 f1bc
00000050: bc9a 0c3c 924f e23d bae5 e4bd e01d 6e3d
00000060: fcd4 443d 3781 25bc 7262 443c fee0 82bd
00000070: b834 9b3c 229a a5bd 85cb 583d 6280 9d3d
00000080: 3d46 19bd 5e73 42bc 4a3a 56bc 53b4 ed3c
00000090: 01e5 5a3d 358a e2bd 2f30 67bb b5c0 703c
000000a0: 9d6f 153d a66f 6bbd 7e05 9cbd e700 65bd
000000b0: 2b2a fcbd 0520 3abd 4f3e d2bd 0e07 1fbc
000000c0: 715f cf3d e186 90bd 04fb d3bd 35e9 463b
000000d0: ee96 cebd df1e 7e3c b356 57bd 0efa dabb
000000e0: be16 dabc ddd8 f73c 1400 21bd 0612 b9bc
000000f0: b67f 863d 5db0 0b3e ca1f 143e 29e1 7b3c
00000100: f482 193d 457f 423d e562 85bd 104c 1f3e
00000110: e6b0 86b9 40c3 ccbc c02c 0d3d 93ea 11bd
00000120: c747 2d3d 554b a2ba 1a8f 78bd 0f89 043d
00000130: 0304 123e a352 bb3d 32df 80bd b23f b73d
00000140: 34e3 1a3e ac39 6b3d d2b1 e63c 5bf7 6dbd
00000150: 0787 743d 8d83 393e 190d 21bc 235b babd
00000160: f99d 133e 436f b83d e8f0 e33c a151 403c
00000170: f579 8b3d 99f7 303d e5a7 413c 579b b2bd
00000180: 973a c3bd 6a37 edbd 7c69 d6bc bf79 093d
00000190: 1c46 373b fd5c 343d d99f 9b3b b201 0e3d
000001a0: 98af cd3c c43b a63d 4b4c 84bd 96e4 f23c
000001b0: e222 cabd 97fd 12be b510 cebd 26b3 69bd
000001c0: 4ff8 c03d d8a8 463d 80a2 0abd 0abd aa3c
000001d0: 3f05 8d3d 400a 823d 0ceb c1bd dfdc 423c
000001e0: d8b4 103d 3567 aebd c1e4 34bd 2d79 093e
000001f0: c3b9 163e 9b32 1f3e 460d 97bc e673 1bbd
00000200: 18e5 55bc 0163 bb3d 7c7a 813d fa6d 77bd
00000210: f0ec 713d 9095 8fbd 76cb 913d cc97 613c
00000220: 8a30 6cbc ab27 513d 8c1a ad3d 657e 193d
00000230: f3da 083d 55ae ad3c 9191 3dbd f2ec 6e3d
00000240: f0ac a0ba cdf9 183e 0765 b63d 59c3 b33d
00000250: a0c9 b0bd 4907 edbd 1db2 193e 5c13 103d
00000260: b290 473d 6742 423d 5a5a a23d 0527 96bd
00000270: 8aae 0839 907e d1bc cf92 a63d 0765 71bd
00000280: 86f5 a0bd 15ac 9e3d 3a4d 033d d932 573d
00000290: caf6 7e3d 89b1 89bc 73cf 9a3c bb92 f33d
000002a0: 4440 5ebd 095c 91bd 86f1 753c cf6e 0ebc
000002b0: be35 d83c 8da6 953d 4856 cc3c 2b5e 053d
000002c0: 220f 4ebd d437 46bb 5eb5 db3d 090e e4bd
000002d0: 505d a23b 2a45 bd3d 862c b23d cc74 80bd
000002e0: e8bf 873d 394f cdbc fd38 2ebd 3e1c cf3d
000002f0: a295 ab3a 3dbf fa3c 36b2 65bd 0b1b df3d
00000300: f8ed a9bd 9fc5 0b3d 2ee1 88bd bb25 8dbd
00000310: cf5c c1bd 7962 87bd c9d3 c93d 3a0d aabd
00000320: 9925 54bd 1401 bc3b 8f95 163e 8ef0 97bc
00000330: b13c 643d 98bd 71bd 1bd7 ae3d 4718 41bd
00000340: ebd2 b93d adf4 98bd a122 973d d1c2 533e
00000350: 80bd 4d3c f94f 023d 9ea0 25bd 1b1f c8bd
00000360: 8e6a a5bd 02bd 883d e38a 203d 71ca 633c
00000370: 2855 88bd 1b85 1dbc 9c3a 343d 1b75 e2bc
00000380: bba4 193d 933b 873d bd05 2f3b 8360 39bc
00000390: a99f 23bc f33b c8bd 62bc 47bd 20cc c63d
000003a0: 800d 95bd 488d 3fbc 1567 56bd b556 9d3d
000003b0: 6f40 0c3a f86d be3d eebf 443d 1a43 af3c
000003c0: c79a 793d ef91 4a3c 5c43 16bd 18d0 34bc
000003d0: 6fa3 ce3c 4cc4 973d 4183 bb3d 1584 debc
000003e0: f2a3 65bd fe1d b13d 5291 84bc fef0 a33d
000003f0: c043 bc3d 68b0 5b3d b76d bbbd 7dbe 2c3d

weight f4 [32, 32, 3, 3]
-0.0861262 0.024671372 -0.12778175 -0.108384624 -0.0029372266 0.007029313 0.006537603 0.07037721
-0.027606796 0.07686977 -0.008108789 0.05797248 0.044362716 -0.037778832 0.014749937 0.07158287
-0.04088086 -0.07635219 0.057781328 -0.07703031 -0.025587246 0.009623353 -0.09326789 -0.022784706
-0.064129114 -0.047558736 0.08978827 0.009790276 -0.05059232 -0.033618957 -0.011483572 -0.10191112
-0.09681314 -0.0622115 -0.12363841 -0.01448213 -0.070549585 -0.060184594 -0.08554195 0.035895325
-0.058156267 0.0007892568 -0.0552889 0.046877705 0.03146065 -0.047549296 0.08626808 -0.046779826
-0.020262828 -0.093759455 0.015703617 0.09110049 -0.020846922 0.015575763 -0.031709526 -0.054880157
-0.044243902 -0.05438401 -0.025629956 0.035052635 -0.0552747 -0.029831901 0.0014964826 0.035698883
-0.026989372 0.06529811 0.013742143 -0.071232095 -0.04597259 0.052094962 0.06301213 0.029972456
-0.0077263587 -0.04393117 0.076977514 0.040057156 -0.0478543 -0.05613148 0.03923892 0.054210868
0.037620734 0.061874352 0.034588933 -0.032989897 0.09477258 0.045258325 -0.050454143 -0.058987368
0.049545545 -0.0085275285 0.06872685 0.04002811 -0.10625213 0.019800304 0.01778904 -0.056839082
0.097982936 0.09680352 0.08545852 0.013804924 -0.019014286 -0.016413972 0.03205891 0.089889646
-0.01283523 -0.03399844 0.0077067604 -0.076383136 -5.558772e-05 0.08735826 -0.026093088 -0.06782805
0.055636562 0.052280188 -0.01644079 0.059344318 0.08167775 -0.013224078 0.10433454 -0.0037785089
0.051481538 0.08215882 -0.05712297 -0.03843656 0.083782285 0.055027843 0.092581965 -0.0657851
0.07727231 -0.017516473 0.028527953 0.08073014 0.09334654 0.051956203 0.0683597 0.05718565
-0.03711032 -0.03629229 -0.05124159 -0.053188697 -0.061172485 0.03999275 0.027151942 0.030440878
-0.04391621 0.0035103972 -0.06638301 -0.0036962915 -0.08530087 -0.08403112 0.003932612 0.040825944
0.05986596 0.061218258 -0.055021387 -0.028197093 -0.07301442 -0.072124705 -0.0076507702 -0.097314306
-0.054970298 -0.051169727 0.050882008 -0.015585348 -0.028002674 0.10476802 0.098633386 0.04704201
0.020746542 -0.009521529 0.014279386 0.062036484 -0.004703534 -0.051954985 -0.056517147 -0.036982276
0.062994845 -0.057561256 0.07303516 0.027479874 0.024779903 -0.008888945 0.08901364 0.07221497
-0.05736222 -0.098276496 -0.04990486 -0.035248414 -0.008778711 0.022879178 -0.07274977 0.016434807
0.025082909 -0.038539354 -0.04793156 0.058671895 0.024260994 -0.005223589 -0.007466715 0.08229936
-0.059363395 -0.044847384 -0.08017135 -0.07492667 -0.04188918 -0.036798894 0.05621058 0.0544368
-0.092076845 0.01857878 0.025704056 0.01621156 -0.0022386536 0.034630466 -0.011556831 0.030798014
-0.09002868 -0.048932083 0.0729427 -0.059638314 0.024505101 0.012606835 -0.047978774 -0.030705886
0.097013496 0.02003024 -0.07703848 -0.0950504 0.07703913 0.016686598 -0.07620392 0.010809868
0.035182957 0.024148822 -0.009298676 0.09371851 -0.029749407 0.02614409 -0.011566509 0.00789008
-0.009186727 0.08700363 0.082616955 0.013354051 -0.07891661 0.06808197 -0.015923612 0.07682388
0.06536935 0.051938083 0.09178891 0.034227062 -0.0567416 0.036169194 -0.024668526 -0.020907775
00000000: ef62 b0bd 9e1b ca3c 38d9 02be c2f8 ddbd
00000010: 7c7e 40bb 2756 e63b 6439 d63b ed21 903d
00000020: a627 e2bc e66d 9d3d bada 04bc 8d74 6d3d
00000030: aeb5 353d fabd 1abd b8a9 713c 0a9a 923d
00000040: b072 27bd 895e 9cbd 1dac 6c3d 11c2 9dbd
00000050: 589c d1bc 45ab 1d3c 3c03 bfbd fea6 babc
00000060: 2056 83bd f3cc 42bd eae2 b73d 6567 203c
00000070: e439 4fbd 08b4 09bd 9825 3cbc c7b6 d0bd
00000080: f845 c6bd 7cd1 7ebd 2236 fdbd 7546 6dbc
00000090: 4d7c 90bd 1f84 76bd 9e30 afbd fa06 133d
000000a0: 4435 6ebd 21e6 4e3a 9d76 62bd d602 403d
000000b0: e2dc 003d 0dc3 42bd 52ad b03d 349c 3fbd
000000c0: 3bfe a5bc f504 c0bd dfa4 803c e592 ba3d
000000d0: 2ac7 aabc 7c31 7f3c d9e1 01bd 04ca 60bd
000000e0: 1839 35bd c5c1 5ebd eaf5 d1bc 5a93 0f3d
000000f0: b967 62bd 0862 f4bc a025 c43a fe38 123d
00000100: d118 ddbc 04bb 853d ba26 613c 22e2 91bd
00000110: c14d 3cbd 8761 553d 810c 813d cc88 f53c
00000120: 652d fdbb 2cf1 33bd 63a6 9d3d f912 243d
00000130: df02 44bd 1fea 65bd fdb8 203d 370c 5e3d
00000140: 3318 1a3d f66f 7d3d 20ad 0d3d 6a20 07bd
00000150: 2018 c23d cb60 393d 01a9 4ebd bd9c 71bd
00000160: 45f0 4a3d 0cb7 0bbc aac0 8c3d 84f4 233d
00000170: b79a d9bd 3f34 a23c 52ba 913c 19d0 68bd
00000180: 47ab c83d ed40 c63d e004 af3d 0c2e 623c
00000190: d9c3 9bbc 9876 86bc 3450 033d 1018 b83d
000001a0: db4a 52bc f341 0bbd fe88 fc3b c36e 9cbd
000001b0: dc26 69b8 e3e8 b23d 2cc1 d5bc 6fe9 8abd
000001c0: 2ae3 633d c023 563d d6ae 86bc 0713 733d
000001d0: aa46 a73d cea9 58bc 59ad d53d dca0 77bb
000001e0: 4ede 523d e242 a83d c7f9 69bd a86f 1dbd
000001f0: 0c96 ab3d e064 613d 9d9b bd3d 57ba 86bd
00000200: f240 9e3d b57e 8fbc 74b3 e93c d855 a53d
00000210: 792c bf3d 07d0 543d 2c00 8c3d 803b 6a3d
00000220: fe00 18bd 39a7 14bd b4e2 51bd 64dc 59bd
00000230: 0090 7abd 70cf 233d c06d de3c 265f f93c
00000240: 7ce1 33bd b10e 663b d1f3 87bd 7b3d 72bb
00000250: 39b2 aebd 8218 acbd 24dd 803b 1b39 273d
00000260: 0236 753d ffbf 7a3d 1b5e 61bd 97fd e6bc
00000270: 9688 95bd 1eb6 93bd 50b3 fabb b94c c7bd
00000280: 8928 61bd 5997 51bd a769 503d b059 7fbc
00000290: dd65 e5bc 9e90 d63d 4d00 ca3d 1faf 403d
000002a0: a7f4 a93c 3000 1cbc 16f4 693c f819 7e3d
000002b0: 1a20 9abb c0ce 54bd 867e 67bd ba7a 17bd
000002c0: 7103 813d 5ac5 6bbd 7593 953d 791d e13c
000002d0: 39ff ca3c f0a2 11bc c94c b63d 71e5 933d
000002e0: a6f4 6abd 3045 c9bd 0a69 4cbd a460 10bd
000002f0: 95d4 0fbc 1d6d bb3c d5fd 94bd 4aa2 863c
00000300: ac7a cd3c 71db 1dbd e253 44bd f151 703d
00000310: febe c63c a42a abbb 58ab f4bb 918c a83d
00000320: 0827 73bd e4b1 37bd e030 a4bd 2773 99bd
00000330: fd93 2bbd 70ba 16bd 113d 663d 1ff9 5e3d
00000340: c992 bcbd 8732 983c 5091 d23c 1bce 843c
00000350: 60b6 12bb add8 0d3d dd58 3dbc 1e4c fc3c
00000360: f560 b8bd 026d 48bd fb62 953d 4e47 74bd
00000370: ecbe c83c e68c 4e3c 6485 44bd e98a fbbc
00000380: 03af c63d 7516 a43c 5ac6 9dbd c9a9 c2bd
00000390: b1c6 9d3d 55b2 883c cd10 9cbd df1b 313c
000003a0: 011c 103d c0d3 c53c 7959 18bc 7def bf3d
000003b0: 07b5 f3bc 212c d63c 7481 3dbc 6545 013c
000003c0: ed83 16bc f62e b23d 1433 a93d f3ca 5a3c
000003d0: 089f a1bd 8f6e 8b3d 3c72 82bc d755 9d3d
000003e0: 5ee0 853d 07bd 543d d3fb bb3d ad31 0c3d
000003f0: e169 68bd 2626 143d a615 cabc c846 abbc

weight f4 [32, 32, 3, 3]
0.056916498 0.027041255 -0.04103154 0.021366494 0.011037946 0.0060275276 0.044300437 0.055053517
-0.06199949 0.08787768 -0.012303523 -0.038644683 0.040758967 0.08701373 0.03927 0.013062242
-0.048903476 0.121287264 0.11238695 -0.011721656 -0.077942885 0.0909838 0.06394997 -0.06637758
0.06581548 0.035554428 0.0815977 -0.019252487 0.11884174 -0.048327632 0.0132077485 0.09889422
0.030065635 0.057177585 -0.02487699 0.046607155 -0.05546156 -0.017076446 -0.0328544 -0.09406847
0.049271237 -0.00746378 0.029443298 -0.045761287 0.066910945 0.045502078 0.06553529 -0.02378392
-0.057586804 0.015646642 0.082761414 -0.08720666 -0.008794519 0.05386797 0.038079944 -0.03200584
-0.0752211 0.07955258 -0.08172854 -0.07846649 0.03559878 -0.065569796 -0.013755653 0.037192136
-0.05922358 0.017331816 -0.11807623 -0.07068769 -0.030565029 0.07879056 0.04468095 -0.0034481725
-0.0056573898 -0.012508916 0.028856095 -0.039889112 -0.0650957 0.0065620877 -0.07746635 -0.07695341
0.07477851 0.08947559 0.006573084 0.02159697 -0.056372542 -0.06255426 0.01756167 -0.0066196923
-0.020290177 0.06154396 -0.09372641 0.09612535 -0.09275376 -0.027402923 -0.012073043 -0.024733385
0.091730595 0.08299446 -0.087072305 -0.0026563867 0.019115418 0.014062756 -0.019151758 0.089857526
-0.06690336 0.048173938 0.00491984 0.050512996 0.017397296 0.09126247 0.047012445 -0.07779305
-0.043653373 0.049048282 0.09625382 0.013239812 -0.03803753 0.006706805 0.016218841 -0.0834349
-0.004323949 -0.016447755 0.016683767 0.00862156 0.08985052 -0.031923637 0.027647706 0.060783904
-0.07189686 0.027347362 -0.0723306 -0.051749885 -0.07622924 0.092719644 0.039317142 -0.0055610733
0.16753833 0.14330582 -0.028875431 -0.047604688 0.0828326 -0.0065330537 -0.14573981 -0.034326907
0.07767525 -0.090123914 0.046584506 -0.042727187 -0.0032984493 0.022229524 0.055724036 -0.07657722
0.03805898 -0.04725471 -0.0942619 -0.059067294 0.03006556 -0.0983726 0.09427462 0.07288879
-0.04012067 0.08093409 -0.07397173 -0.03369033 0.057172738 0.05430319 0.035706833 0.0077687097
0.025644364 0.065667644 0.07577065 -0.028028103 -0.16327839 -0.07582477 -0.0937096 0.06513228
0.009062833 0.08595751 0.039337333 0.07872443 -0.032048527 0.08371479 -0.08281497 -0.04659067
-0.06155561 0.013440191 0.03187382 0.07616367 0.034638163 0.1554437 0.021725604 0.058409348
-0.04772192 -0.028266612 0.06369762 -0.032158323 -0.0025953955 0.01460168 -0.044672746 0.06487385
-3.6959747e-05 -0.055397384 -0.04615152 0.02267508 0.1479244 0.06869343 0.10558867 -0.013509157
-0.08257824 0.061309867 -0.09612172 0.096541025 -0.06478786 -0.015514717 0.038418923 -0.041340265
-0.0027300552 0.15262723 -0.04732425 0.052599672 -0.07329037 0.063242406 0.099404655 0.11276476
0.017654087 0.13439362 0.104822665 -0.015993748 -0.06480156 -0.10028118 0.026796715 -0.10457563
-0.037718665 -0.03466159 0.058997076 0.07263584 -0.02833581 0.08555215 0.07659994 -0.05771822
0.040216397 -0.046084195 0.019253863 0.023286661 0.0070964484 -0.04025937 -0.07180557 0.0071168942
-0.036871895 0.10698183 0.02174468 -0.005475261 0.011459727 -0.009014675 -0.074182294 -0.010184088
00000000: 4621 693d 9f85 dd3c b010 28bd c908 af3c
00000010: 80d8 343c 9182 c53b 6074 353d cc7f 613d
00000020: 2df3 7dbd 37f9 b33d b794 49bc e349 1ebd
00000030: e0f2 263d 4134 b23d 94d9 203d 0403 563c
00000040: 034f 48bd 7565 f83d 212b e63d 300c 40bc
00000050: 85a0 9fbd b755 ba3d 34f8 823d f8f0 87bd
00000060: 44ca 863d 85a1 113d b21c a73d 64b7 9dbc
00000070: 4c63 f33d 32f3 45bd 5065 583c 0e89 ca3d
00000080: 354c f63c 0b33 6a3d d4ca cbbc 25e7 3e3d
00000090: a92b 63bd e7e3 8bbc 5692 06bd f8a6 c0bd
000000a0: a3d0 493d ba92 f4bb 1233 f13c 3070 3bbd
000000b0: 9b08 893d 6360 3a3d 5e37 863d 7fd6 c2bc
000000c0: 24e0 6bbd 632d 803c d17e a93d 6899 b2bd
000000d0: e316 10bc a9a4 5c3d b7f9 1b3d 8e18 03bd
000000e0: 850d 9abd 77ec a23d 4b61 a7bd 0ab3 a0bd
000000f0: 07d0 113d 7549 86bd 645f 61bc c856 183d
00000100: 6d94 72bd 74fb 8d3c f3d1 f1bd b5c4 90bd
00000110: 8363 fabc f25c a13d 5f03 373d bcfa 61bb
00000120: a061 b9bb 32f2 4cbc 9e63 ec3c c462 23bd
00000130: e550 85bd c806 d73b ada6 9ebd c099 9dbd
00000140: 7a25 993d fa3e b73d 0663 d73b 21ec b03c
00000150: e5e6 66bd 731c 80bd 7edd 8f3c 01ea d8bb
00000160: 9637 a6bc 8515 7c3d a2f3 bfbd 5edd c43d
00000170: aff5 bdbd 187c e0bc 03ce 45bc ab9d cabc
00000180: 40dd bb3d 00f9 a93d f752 b2bd c616 2ebb
00000190: f097 9c3c 7967 663c 26e4 9cbc 3907 b83d
000001a0: a104 89bd 0952 453d 9c36 a13b b7e6 4e3d
000001b0: c684 8e3c d1e7 ba3d 1f90 403d f651 9fbd
000001c0: e1cd 32bd dae6 483d b920 c53d cceb 583c
000001d0: 3ecd 1bbd c2c4 db3b 60dd 843c ebdf aabd
000001e0: eaaf 8dbb 71bd 86bc 65ac 883c 7241 0d3c
000001f0: 8d03 b83d 5cc2 02bd 717d e23c 8bf8 783d
00000200: a93e 93bd 9307 e03c 1122 94bd b0f7 53bd
00000210: 131e 9cbd cce3 bd3d 030b 213d aa39 b6bb
00000220: 2b8f 2b3e c3be 123e 2b8c ecbc 22fd 42bd
00000230: 23a4 a93d 3a13 d6bb d13c 15be 5f9a 0cbd
00000240: 3414 9f3d e392 b8bd 65cf 3e3d b402 2fbd
00000250: cc2a 58bb b11a b63c e33e 643d 84d4 9cbd
00000260: bce3 1b3d 288e 41bd 620c c1bd 8cf0 71bd
00000270: 0d4c f63c 9377 c9bd 0d13 c13d b846 953d
00000280: 9255 24bd c6c0 a53d 7e7e 97bd dffe 09bd
00000290: f62d 6a3d 066d 5e3d 5441 123d a990 fe3b
000002a0: 2114 d23c c27c 863d a42d 9b3d 319b e5bc
000002b0: 7332 27be 044a 9bbd d2ea bfbd 1364 853d
000002c0: 477c 143c 7e0a b03d 2f20 213d 463a a13d
000002d0: 5145 03bd a972 ab3d e59a a9bd dcd5 3ebd
000002e0: bc21 7cbd 3f34 5c3c 1f8e 023d b3fb 9b3d
000002f0: bfe0 0d3d a22c 1f3e e5f9 b13c a43e 6f3d
00000300: 0f78 43bd 628f e7bc e673 823d 72b8 03bd
00000310: 8317 2abb e33b 6f3c c5fa 36bd 95dc 843d
00000320: 3a05 1bb8 5ee8 62bd 6009 3dbd 17c1 b93c
00000330: 7e79 173e 24af 8c3d df3e d83d 8355 5dbc
00000340: c81e a9bd 0e20 7b3d 77db c4bd 4db7 c53d
00000350: 7faf 84bd 7131 7ebc 295d 1d3d 6954 29bd
00000360: baea 32bb 504a 1c3e 13d7 41bd c172 573d
00000370: 4319 96bd 3c85 813d ab94 cb3d 36f1 e63d
00000380: 4e9f 903c 7b9e 093e 44ad d63d 5205 83bc
00000390: aeb6 84bd 3860 cdbd c984 db3c bf2b d6bd
000003a0: e37e 1abd 50f9 0dbd eba6 713d 19c2 943d
000003b0: 8020 e8bc f735 af3d 6ee0 9c3d f169 6cbd
000003c0: f3b9 243d c8c2 3cbd 47ba 9d3c abc3 be3c
000003d0: 5389 e83b 02e7 24bd cc0e 93bd d634 e93b
000003e0: fc06 17bd 4a19 db3d e621 b23c d169 b3bb
000003f0: 94c1 3b3c 4ab2 13bc e3ec 97bd 29db 26bc

weight f4 [32, 32, 3, 3]
-0.025941718 0.027938534 -0.117598936 -0.016458247 0.052127205 -0.063162915 0.0011687849 -0.06844975
-0.09802759 0.030987727 -0.062099583 0.017151648 0.06757658 -0.033076838 0.07906482 0.043969113
0.09554078 0.016412392 -0.036961276 -0.00037502247 0.0014016264 -0.015211646 -0.09537561 -0.06947793
0.027205586 -0.015505465 0.07403879 0.06681439 0.06554423 0.072176255 -0.02687122 0.012974528
0.01078591 -0.08511175 0.090681545 -0.045950606 0.070253454 0.08718359 0.043830566 0.06219701
-0.017927447 -0.04023666 -0.046804458 -0.04349687 -0.040783018 -0.052871477 0.03616978 0.08796433
-0.05498419 0.02947432 0.009355138 0.09230398 -0.03278844 0.0677472 0.07244765 -0.043809716
-0.047455825 0.0528072 0.031017447 0.09089787 -0.09622233 0.060948364 -0.05505941 0.038732696
-0.01407267 0.07110543 -0.049728297 0.018399717 -0.06863114 0.05359536 0.032481264 0.043211132
0.01881982 0.111075915 -0.088995695 0.006091917 -0.018781578 0.049474187 -0.06405175 -0.075087175
0.027017191 0.013577678 0.071188316 0.052694168 -0.040240206 -0.0885984 -0.013567063 0.038507093
0.0044918847 -0.029771201 0.00656 -0.116185494 0.07703844 0.10311229 0.08264941 0.08958223
-0.096975565 -0.101862796 0.025442818 -0.0909219 -0.07103623 0.03865766 0.09642016 -0.042584453
0.015266032 0.07978459 -0.05407481 0.069675885 0.04446758 0.024202354 0.07811023 0.04410487
-0.017265834 -0.08074709 -0.025792561 -0.0820667 -0.071383506 0.08597479 -0.040597085 -0.09964938
0.039170597 0.030998234 0.09530768 -0.09215724 -0.035463233 -0.031002317 0.1015929 0.06289544
-0.092695504 0.039921302 -0.06131028 -0.0773646 -0.1075721 -0.054301802 0.15446566 -0.015959278
0.08864634 0.059613574 -0.08705369 -0.016509818 0.06257166 -0.007138547 -0.021967586 0.09428919
0.029755875 -0.0013326588 0.045821376 0.023754954 0.06497776 -0.06285088 0.09484778 0.0023409724
0.0020594012 0.09045444 0.032019548 -0.040405057 0.08985925 0.0359594 -0.066031024 0.03727515
0.026043808 0.08449667 -0.06891574 0.09626864 -0.0712891 0.120382756 -0.09095068 -0.012266872
0.10542709 0.14075048 0.18187812 0.021552565 0.014257342 0.023751896 0.10379859 -0.09867473
-0.07168778 0.054519195 0.08598469 0.007819861 -0.056146722 0.01469207 0.11623533 0.015012522
0.07322423 0.0063929805 0.035684407 0.07402646 0.010684542 0.03885025 -0.017272232 -0.07063168
-0.012471977 0.0911581 -0.13139193 0.0032969147 -0.08708608 -0.12303374 -0.08576543 -0.063060015
-0.00039958543 -0.027669929 0.06626076 0.038132824 -0.061670855 -0.05240429 0.07862641 0.09546387
-0.051557515 -0.077143945 0.09648555 -0.032349907 -0.046548806 -0.005456697 0.08516539 0.012899883
0.06890237 0.017228695 0.046484333 0.075937696 -0.010539518 0.055611603 -0.058043044 0.018770853
0.0807925 -0.058039624 0.069700085 0.12173864 0.04245819 0.011918513 0.006389327 0.07115346
0.00014520486 -0.051138014 -0.115801975 -0.07256688 -0.045335077 -0.008901123 -0.111575596 -0.00040893984
0.0438012 -0.05569088 -0.09892146 0.03188925 -0.018380815 -0.0071364054 -0.045561865 0.02497835
0.006685438 -0.021816317 -0.07619603 -0.039419997 -0.011362619 -0.06311641 -0.0062343995 0.0470004
00000000: ba83 d4bc 5adf e43c b6d7 f0bd 72d3 86bc
00000010: 5683 553d 8f5b 81bd ea31 993a 622f 8cbd
00000020: b0c2 c8bd f9d9 fd3c 225c 7ebd 9d81 8c3c
00000030: 9765 8a3d 947b 07bd bdec a13d f518 343d
00000040: e2aa c33d 4873 863c b564 17bd aa9e c4b9
00000050: c7b6 b73a 453a 79bc 4a54 c3bd 724a 8ebd
00000060: 40de de3c a20a 7ebc a6a1 973d fcd5 883d
00000070: 0e3c 863d 25d1 933d 0821 dcbc 1d93 543c
00000080: 63b7 303c 124f aebd 3fb7 b93d b436 3cbd
00000090: 0be1 8f3d 4f8d b23d ae87 333d 4bc2 7e3d
000000a0: 95dc 92bc 32cf 24bd 08b6 3fbd c629 32bd
000000b0: 180c 27bd c38f 58bd c326 143d a526 b43d
000000c0: 1a37 61bd 2174 f13c 4b46 193c de09 bd3d
000000d0: 2c4d 06bd 0bbf 8a3d 6f5f 943d d171 33bd
000000e0: 0a61 42bd 5d4c 583d 4d18 fe3c aa28 ba3d
000000f0: 3710 c5bd fea4 793d fa85 61bd 2da6 1e3d
00000100: 0e91 66bc b99f 913d e6af 4bbd 01bb 963c
00000110: 7c8e 8cbd cf86 5b3d 130b 053d 28fe 303d
00000120: 062c 9a3c c57b e33d 6043 b6bd b49e c73b
00000130: d3db 99bc 72a5 4a3d 902d 83bd 4ec7 99bd
00000140: 2853 dd3c e974 5e3c 2ecb 913d d7d5 573d
00000150: ead2 24bd 1473 b5bd 6348 5ebc 9db9 1d3d
00000160: a930 933b bce2 f3bc 45f5 d63b a9f2 edbd
00000170: 54c6 9d3d 892c d33d 1844 a93d e376 b73d
00000180: 209b c6bd 719d d0bd 756d d03c 4335 babd
00000190: 717b 91bd 7f57 1e3d ef77 c53d 096d 2ebd
000001a0: 611e 7a3c 1a66 a33d 8c7d 5dbd 3bb2 8e3d
000001b0: a323 363d 0444 c63c 42f8 9f3d 4fa7 343d
000001c0: 1471 8dbc bb5e a5bd ec4a d3bc 9612 a8bd
000001d0: 8431 92bd 8d13 b03d 2149 26bd f914 ccbd
000001e0: 5971 203d 02f0 fd3c ac30 c33d efbc bcbd
000001f0: e541 11bd 92f8 fdbc f00f d03d 53cf 803d
00000200: 24d7 bdbd 8584 233d 7d20 7bbd 5571 9ebd
00000210: c34e dcbd 916b 5ebd 3f2c 1e3e 08bd 82bc
00000220: 368c b53d 5d2d 743d 3449 b2bd 993f 87bc
00000230: 9225 803d 79ea e9bb 5ef5 b3bc b11a c13d
00000240: 98c2 f33c 9cac aeba 32af 3b3d c099 c23c
00000250: 0f13 853d f6b7 80bd 8e3f c23d 006b 193b
00000260: 05f7 063b 2d40 b93d ee26 033d c67f 25bd
00000270: 2008 b83d 2a4a 133d 463b 87bd d4ad 183d
00000280: d359 d53c 970c ad3d b223 8dbd 7e28 c53d
00000290: 0500 92bd 3c8b f63d 5a44 babd fefa 48bc
000002a0: 28ea d73d e520 103e 423e 3a3e 018f b03c
000002b0: a097 693c 5693 c23c 5b94 d43d fa15 cabd
000002c0: 0bd1 92bd 854f 5f3d be18 b03d e01e 003c
000002d0: 1bfa 65bd 02b7 703c ca0c ee3d 15f7 753c
000002e0: 96f6 953d 357c d13b d029 123d 2f9b 973d
000002f0: 380e 2f3c 7121 1f3d 7f7e 8dbc 58a7 90bd
00000300: 4357 4cbc 19b1 ba3d 9b8b 06be 0d11 583b
00000310: 305a b2bd 1df9 fbbd c9a5 afbd 9c25 81bd
00000320: 737f d1b9 0cac e2bc b9b3 873d 2a31 1c3d
00000330: 949a 7cbd e1a5 56bd e206 a13d 9082 c33d
00000340: f92d 53bd a5fd 9dbd 379a c53d 5681 04bd
00000350: f6a9 3ebd 18ce b2bb 316b ae3d 085a 533c
00000360: b01c 8d3d 3123 8d3c 5b66 3e3d 3985 9b3d
00000370: f1ad 2cbc fec8 633d 8bbe 6dbd 55c5 993c
00000380: 8a76 a53d f5ba 6dbd ebbe 8e3d 1c52 f93d
00000390: a4e8 2d3d de45 433c 8f5d d13b e8b8 913d
000003a0: 2242 1839 1876 51bd 9629 edbd f29d 94bd
000003b0: 46b1 39bd 04d6 11bc bf81 e4bd fa66 d6b9
000003c0: e368 333d 1f1c 64bd 5697 cabd 4d9e 023d
000003d0: 5d93 96bc 82d8 e9bb 149f 3abd 669f cc3c
000003e0: 8511 db3b 22b8 b2bc aa0c 9cbd dd76 21bd
000003f0: 472a 3abc 2d43 81bd ef49 ccbb 7e83 403d
