onnx/VDSR_post_hpo.onnx (onnx, 768779 bytes, 20 tensors)

learned_0 f4 [32, 32, 3, 3]
000000 07 1e 01 80 1c b3 00 00 ac 18 01 80 8e b1 01 00
       -1.02607e-40 6.4252e-41 -1.00686e-40 1.5553e-40
000010 d2 4b 01 80 ea 91 00 80 b4 07 01 80 9c 29 00 80
       -1.19035e-40 -5.2344e-41 -9.4599e-41 -1.4927e-41
000020 c6 21 01 00 82 5b 71 0e 61 76 8e 0e 19 d1 1e 0e
       1.03951e-40 2.9749603e-30 3.5119697e-30 1.957568e-30
000030 fc 2e 73 0d 4a 03 3b 0d 97 b1 28 8e c3 1b 3e 8e
       7.493671e-31 5.7627783e-31 -2.0793105e-30 -2.3432675e-30
000040 f0 ca 7f 8e 2f 9c b8 8e 3f e9 00 00 d9 7c 00 00
       -3.1528888e-30 -4.55099e-30 8.3673e-41 4.4787e-41
000050 1b b0 01 80 91 a4 01 00 5f 4d 00 00 0c 59 00 00
       -1.5501e-40 1.50871e-40 2.7756e-41 3.1944e-41
000060 ee e1 01 00 60 34 00 00 00 f1 00 00 a9 98 05 aa
       1.72884e-40 1.8789e-41 8.6455e-41 -1.1865738e-13
000070 a0 87 4a 2a 9f cc cf 2a 55 72 6c aa 23 af 6c 2a
       1.7988258e-13 3.691257e-13 -2.1000678e-13 2.1021773e-13
000080 6a 00 df 2a b9 79 ba a8 d0 64 41 2a 38 90 fa 29
       3.9613045e-13 -2.0702937e-14 1.717682e-13 1.1127248e-13
000090 5a e4 bb a8 38 f9 c5 a8 36 76 14 a8 b0 ba 03 a8
       -2.0860202e-14 -2.1979475e-14 -8.241283e-15 -7.312442e-15
0000a0 e7 b8 f2 a6 68 9b 30 27 8c 92 99 28 11 57 e1 28
       -1.6842241e-15 2.4509152e-15 1.7049967e-14 2.5017777e-14
0000b0 e9 3a 87 28 d3 8c 01 00 f5 a5 00 00 e7 29 00 00
       1.5013559e-14 1.42354e-40 5.9534e-41 1.5032e-41
0000c0 ef 8d 01 00 52 ea 00 80 60 3d 00 80 6d 37 02 00
       1.42752e-40 -8.4058e-41 -2.2017e-41 2.03554e-40
0000d0 83 41 01 80 d4 ef 01 80 f6 eb 79 b1 85 12 c9 31
       -1.15337e-40 -1.7787e-40 -3.6368397e-09 5.8519753e-09
0000e0 42 40 48 32 f1 19 fd b1 59 6d be 31 99 3e 40 32
       1.1656143e-08 -7.3662183e-09 5.542159e-09 1.1190104e-08
0000f0 5b 4a 38 b1 b7 e5 54 31 47 ed fd 30 8b f7 23 b1
       -2.681779e-09 3.0980638e-09 1.8475611e-09 -2.3860334e-09
000100 72 19 43 32 4d 94 a0 32 46 75 36 b2 8b 34 f7 31
       1.13562795e-08 1.869389e-08 -1.0620459e-08 7.1946196e-09
000110 3e c7 66 32 41 11 05 b2 0b d7 65 b0 1a 7e 37 b1
       1.3433064e-08 -7.745542e-09 -8.361531e-10 -2.6701685e-09
000120 eb da c2 06 3b fb e5 06 db 28 80 06 e9 7d c4 05
       7.329636e-35 8.6509376e-35 4.820828e-35 1.8478004e-35
000130 bb eb 96 05 dc 39 88 86 26 6d 99 86 97 78 ce 86
       1.4192526e-35 -5.124253e-35 -5.771258e-35 -7.766578e-35
000140 94 06 15 87 36 8e 9c b0 a1 0e ed 30 5b 42 72 31
       -1.1211447e-34 -1.1390913e-09 1.7248177e-09 3.5253354e-09
000150 f2 60 10 b1 87 83 01 31 7b 2b 7b 31 a5 aa e1 af
       -2.1009865e-09 1.8846735e-09 3.6550023e-09 -4.1048512e-10
000160 02 01 c1 30 a3 66 78 30 e4 0e 0f b1 9d 47 02 32
       1.4042885e-09 9.036773e-10 -2.0817703e-09 7.583279e-09
000170 a3 5e 5e 32 b3 36 02 b2 bc 47 ae 31 75 cd 28 32
       1.2943619e-08 -7.579433e-09 5.0722218e-09 9.8256026e-09
000180 f6 8e af b1 44 f0 8a ae 66 06 a6 b0 40 f5 0d b3
       -5.109423e-09 -6.318193e-11 -1.2079908e-09 -3.3052174e-08
000190 6d 47 19 b3 6f f4 70 b2 41 1d 47 b2 26 e4 83 b1
       -3.568805e-08 -1.4025416e-08 -1.1589976e-08 -3.8385393e-09
0001a0 18 33 0a 31 8d 0c ec 32 4b 62 2a 33 13 4f c8 32
       2.0110686e-09 2.7479723e-08 3.9670606e-08 2.3319023e-08
0001b0 42 28 74 00 bd 95 6b 00 26 6f 62 00 f7 f9 6e 00
       1.066736e-38 9.880114e-39 9.039751e-39 1.0191575e-38
0001c0 0f a8 6b 00 a7 06 61 00 88 10 6d 00 37 2a 6a 00
       9.886686e-39 8.91043e-39 1.0016e-38 9.749706e-39
0001d0 f3 a4 63 00 c2 d5 1c a7 f5 12 6d 27 c1 17 f5 27
       9.150887e-39 -2.1765227e-15 3.2900634e-15 6.8026914e-15
0001e0 c8 41 7e a7 52 a6 9b 27 69 1e 0b 28 f0 c7 c2 25
       -3.5285241e-15 4.3201467e-15 7.722644e-15 3.3789118e-16
0001f0 23 45 8f 27 47 24 39 27 d3 cd 01 80 d2 d9 00 80
       3.976543e-15 2.5693573e-15 -1.65671e-40 -7.8139e-41
000200 3f 1f 02 00 54 03 02 80 78 b4 01 80 9d 19 00 00
       1.9488e-40 -1.84865e-40 -1.56575e-40 9.188e-42
000210 24 0a 01 00 00 3f 01 00 88 87 00 00 f2 46 00 00
       9.5473e-41 1.14436e-40 4.862e-41 2.545e-41
000220 a1 2e 00 00 bb 7a 01 80 77 32 02 80 3c 69 01 80
       1.6727e-41 -1.35863e-40 -2.01774e-40 -1.29586e-40
000230 4a f9 01 80 cc 48 00 80 7c 90 00 80 a0 4a 01 00
       -1.81264e-40 -2.6115e-41 -5.1831e-41 1.18606e-40
000240 ce 20 0d 1d ec b1 26 1d 9d fe b9 1c e8 ed 0d 1c
       1.8678154e-21 2.20619e-21 1.2308089e-21 4.6960473e-22
000250 53 14 db 1b ca 20 c5 9c 7d 72 de 9c 8a 97 15 9d
       3.6243645e-22 -1.3044842e-21 -1.4720322e-21 -1.979833e-21
000260 f6 ee 57 9d 21 90 a4 b2 f3 49 ad b2 90 c5 01 b2
       -2.8578553e-21 -1.9157655e-08 -2.0173479e-08 -7.553709e-09
000270 88 c5 e6 b1 17 65 d2 b0 c5 59 1c 31 7c 78 86 32
       -6.7163377e-09 -1.5308242e-09 2.2752016e-09 1.5654443e-08
000280 00 62 c5 32 4e fd 6c 32 79 d7 f2 a8 1b ca ff a8
       2.2978384e-08 1.3794603e-08 -2.6960844e-14 -2.8398336e-14
000290 2d a9 3f a8 a7 47 2a a8 2b 09 1c a7 83 7c 65 27
       -1.0639314e-14 -9.452433e-15 -2.165432e-15 3.1847632e-15
0002a0 dd 77 c6 28 9d a2 11 29 59 d2 ae 28 b6 01 37 b3
       2.2034398e-14 3.2337512e-14 1.9409104e-14 -4.2609564e-08
0002b0 cc cb 40 b3 05 84 90 b2 8c 53 80 b2 ac ec 6b b1
       -4.4888836e-08 -1.6823842e-08 -1.4939154e-08 -3.4331533e-09
0002c0 0e 68 ac 31 a4 92 15 33 4b 7d 5b 33 d5 b9 03 33
       5.0176885e-09 3.4825135e-08 5.1103864e-08 3.0669828e-08
0002d0 f5 1d f0 a0 3c 46 92 21 ea 46 04 22 a3 68 a3 a1
       -4.0677405e-19 9.911936e-19 1.7926877e-18 -1.1073007e-18
0002e0 e2 82 5b 21 30 b7 db 21 ce b2 3b a1 45 83 2b 20
       7.437331e-19 1.4888507e-18 -6.359471e-19 1.4527697e-19
0002f0 2b 23 24 9e 01 48 00 00 d5 c1 01 00 fc 28 00 80
       -8.68936e-21 2.583e-41 1.6137e-40 -1.4702e-41
000300 5f 95 00 00 c9 a7 00 80 e8 86 01 80 f7 00 02 00
       5.3584e-41 -6.019e-41 -1.40231e-40 1.84017e-40
000310 37 57 00 00 73 d2 01 80 82 31 04 02 f2 01 1a 02
       3.1287e-41 -1.6733e-40 9.712036e-38 1.1314691e-37
000320 da b6 b5 01 10 ad 29 01 93 83 0e 01 9f 53 91 81
       6.675128e-38 3.1164564e-38 2.617568e-38 -5.338458e-38
000330 cb a4 a1 81 8b d9 e2 81 ad f6 29 82 95 db 1c b2
       -5.9378526e-38 -8.333145e-38 -1.2486952e-37 -9.130322e-09
000340 97 80 6d 32 f3 5f f3 32 b6 28 8d b2 db 2a 87 32
       1.3824454e-08 2.8332556e-08 -1.6433074e-08 1.5735557e-08
000350 1c d9 00 33 bd d1 1b b1 09 9b 55 32 a9 24 0a 32
       2.9999782e-08 -2.267469e-09 1.2433483e-08 8.040993e-09
000360 94 ea d6 b1 46 ed 2c 32 bf 36 ac 32 1b ac 59 b2
       -6.254888e-09 1.0065667e-08 2.0048331e-08 -1.2670195e-08
000370 5e c0 23 32 4b 51 a5 32 14 8f 9e b1 f9 01 b7 31
       9.531588e-09 1.9245496e-08 -4.6146713e-09 5.3262252e-09
000380 69 40 5a 31 71 13 95 b2 7d 2a 9d b2 d3 fe eb b1
       3.1759788e-09 -1.7354724e-08 -1.8296527e-08 -6.8683703e-09
000390 e2 09 d1 b1 aa a6 c2 b0 b7 77 0a 31 96 c9 73 32
       -6.083824e-09 -1.4162727e-09 2.0149693e-09 1.4190297e-08
0003a0 d1 c8 b2 32 26 79 56 32 cd 06 ce b1 2b 68 1c 32
       2.0813248e-08 1.2483985e-08 -5.9961622e-09 9.10408e-09
0003b0 43 9f 9f 32 1b 74 3f b2 ef ea 28 32 c0 7f a4 32
       1.858246e-08 -1.1144063e-08 9.832305e-09 1.9150207e-08
0003c0 a0 eb 20 b1 9a 5b f7 31 55 d0 9e 31 34 61 6f b1
       -2.3417002e-09 7.19906e-09 4.62209e-09 -3.483433e-09
0003d0 de e9 bb 31 af d2 3c 32 83 49 ec b1 18 73 b8 31
       5.469004e-09 1.0990944e-08 -6.8768613e-09 5.3681894e-09
0003e0 fe e8 38 32 d2 85 19 b1 7c 11 61 31 6d 84 0a 31
       1.0763186e-08 -2.2340498e-09 3.2751748e-09 2.0156918e-09
0003f0 51 fe f0 b1 ad 8a 36 32 4b c0 bb 32 c1 4e 50 b2
       -7.0138317e-09 1.06253255e-08 2.185711e-08 -1.21251e-08

learned_1 f4 [32, 32, 3, 3]
000000 e0 82 40 25 ab 5c 69 a6 e2 6c 70 a6 4f 39 9f 27
       1.6697688e-16 -8.09637e-16 -8.341429e-16 4.41935e-15
000010 42 ba b4 26 6c 81 2e a7 58 26 c7 27 a1 6a 2b 27
       1.2540494e-15 -2.421751e-15 5.5275168e-15 2.378882e-15
000020 59 e5 12 a7 f6 7e 91 ab 43 86 ff 2b 65 87 4e 2c
       -2.03859e-15 -1.0338108e-12 1.8156105e-12 2.934952e-12
000030 70 9e 38 ac 97 17 93 2b bc a9 61 2c 68 58 e3 ab
       -2.6235923e-12 1.0451526e-12 3.2068645e-12 -1.6153858e-12
000040 95 7c d5 2a cb 20 c8 2b 48 55 6e ae 40 ff df 2e
       3.7922847e-13 1.4219957e-12 -5.419068e-11 1.01862074e-10
000050 66 82 53 2f 83 5a 34 af 29 de 63 2e 94 d0 7e 2f
       1.9236665e-10 -1.6403061e-10 5.1811142e-11 2.3175267e-10
000060 15 0f 0b af 0d ea 4e 2d 22 ac 22 2f ed fd 3e 2f
       -1.2647335e-10 1.1761714e-11 1.4794968e-10 1.7370612e-10
000070 2a 1e 83 b0 34 30 85 b0 ed 77 b0 31 0b 4d c8 30
       -9.540078e-10 -9.690724e-10 5.135908e-09 1.4573812e-09
000080 01 80 41 b1 1a 5e dd 31 b4 fc 3e 31 39 f6 22 b1
       -2.8157958e-09 6.4426446e-09 2.7792284e-09 -2.3714064e-09
000090 ee 32 01 80 e5 37 00 00 ba 3e 00 00 8e da 00 00
       -1.10106e-40 2.0051e-41 2.2502e-41 7.8403e-41
0000a0 30 f1 01 00 e9 1e 02 80 74 73 01 00 e5 f3 01 00
       1.78357e-40 -1.9476e-40 1.33252e-40 1.79328e-40
0000b0 50 ad 00 80 19 c4 73 2d a0 53 bd ae da e7 bd ae
       -6.2173e-41 1.3856493e-11 -8.60958e-11 -8.63591e-11
0000c0 b4 df fb 2f e8 fe 0e 2f 1e 21 8a af 45 66 1e 30
       4.5815585e-10 1.3005386e-10 -2.5125585e-10 5.76254e-10
0000d0 07 f2 88 2f 94 d1 68 af 19 26 60 2b b0 4f a3 ac
       2.4910227e-10 -2.1174734e-10 7.963366e-13 -4.6415857e-12
0000e0 68 df a4 ac 9e 8e da 2d c6 24 f8 2c 4b ad 6f ad
       -4.6859634e-12 2.4847065e-11 7.0526666e-12 -1.3624056e-11
0000f0 30 43 09 2e b4 1a 6d 2d 8f eb 49 ad ff 11 1a ae
       3.1209868e-11 1.34778196e-11 -1.1477832e-11 -3.503153e-11
000100 c7 3e ad ad ca 92 ae 2b ff dc 36 2e 1e 94 c7 2d
       -1.9695702e-11 1.2404186e-12 4.1578293e-11 2.2689458e-11
000110 94 db 99 ad c2 4c c2 2e f0 95 77 2e 97 2d a6 ad
       -1.7491598e-11 8.8357335e-11 5.629447e-11 -1.8892261e-11
000120 00 96 8f 2c 32 f8 a6 ad 56 ec ac ad ef bb e4 2e
       4.080958e-12 -1.8982236e-11 -1.965909e-11 1.0401623e-10
000130 2b bd 01 2e 04 b6 7a ae 36 e2 0e 2f ff be 75 2e
       2.949922e-11 -5.700508e-11 1.2995191e-10 5.587619e-11
000140 76 f3 52 ae 24 4c 39 8d 98 27 e3 0e 74 96 03 0f
       -4.796471e-11 -5.7099177e-31 5.5997948e-30 6.487775e-30
000150 51 7c c9 8e ba 10 83 0e be 7c 0c 0f 10 af a7 8e
       -4.9670038e-30 3.23101e-30 6.9265574e-30 -4.1337258e-30
000160 68 23 f0 0c fd 01 5b 0e 5e 92 60 b1 e9 0d 38 31
       3.6999164e-31 2.6994791e-30 -3.267949e-09 2.678343e-09
000170 49 71 e5 31 9e e9 fe b1 bc 79 12 30 fa cf 07 32
       6.677656e-09 -7.418932e-09 5.3287486e-10 7.905323e-09
000180 c0 35 b3 b1 80 3f 52 b0 44 b8 97 31 6a 7d 27 2e
       -5.2156963e-09 -7.6487794e-10 4.415627e-09 3.8082794e-11
000190 91 14 6c af 07 2e 6f af 4f 79 9e 30 ce e5 b3 2f
       -2.1471382e-10 -2.1753276e-10 1.1530491e-09 3.2723196e-10
0001a0 7b c8 2d b0 76 e9 c6 30 76 b2 2b 30 ca 5e 12 b0
       -6.3221933e-10 1.447275e-09 6.2463046e-10 -5.3249194e-10
0001b0 c0 54 01 00 eb 00 01 00 a7 0c 02 80 09 d7 00 80
       1.22238e-40 9.2165e-41 -1.8821e-40 -7.714e-41
0001c0 97 73 01 00 a7 9d 00 80 76 54 00 80 3b a7 00 80
       1.33301e-40 -5.6555e-41 -3.0299e-41 -5.9991e-41
0001d0 85 1f 00 00 06 a4 2d a5 ce d8 c7 24 43 af 94 25
       1.1307e-41 -1.5060931e-16 8.6669774e-17 2.579267e-16
0001e0 1b f3 75 a5 72 09 b9 24 e3 9b b8 25 69 56 c5 a4
       -2.133273e-16 8.024696e-17 3.2024545e-16 -8.5581516e-17
0001f0 09 6a c3 24 0c 72 78 25 c3 38 00 80 2b df 01 00
       8.47474e-17 2.1549212e-16 -2.0362e-41 1.71893e-40
000200 0d 4c 00 00 98 1b 01 00 f0 65 00 80 a7 87 00 80
       2.7282e-41 1.01734e-40 -3.6568e-41 -4.8663e-41
000210 fb 6f 00 80 0d 2f 00 80 9f 42 00 80 f0 1e f1 ae
       -4.0171e-41 -1.6879e-41 -2.3899e-41 -1.0964907e-10
000220 af dd 52 30 e6 53 7b 30 b6 e6 42 b0 87 43 f6 2f
       7.6712586e-10 9.1432495e-10 -7.090465e-10 4.479512e-10
000230 4f 79 86 30 fb cf 1b b0 1b fb 92 2e 44 ee d3 2f
       9.784261e-10 -5.668423e-10 6.6839166e-11 3.8549974e-10
000240 b2 14 7e b0 25 2c de 31 f2 66 04 32 90 59 cd b1
       -9.243407e-10 6.466069e-09 7.706818e-09 -5.9764673e-09
000250 d2 bc 81 31 26 af 0d 32 1c 29 a4 b1 47 e9 1a 30
       3.7758605e-09 8.247104e-09 -4.777702e-09 5.635638e-10
000260 f8 4a 5f 31 6b 8e e4 2d 2f 4b 14 af d0 8f 17 af
       3.2493386e-09 2.5983845e-11 -1.3487232e-10 -1.3784462e-10
000270 56 e0 48 30 18 13 64 2f 24 2f dc af b9 aa 7b 30
       7.3078377e-10 2.0743263e-10 -4.0051262e-10 9.155588e-10
000280 be ec d8 2f be 6a b9 af b9 c6 41 2d 96 5c 8c ae
       3.9458387e-10 -3.372715e-10 1.1014905e-11 -6.3829095e-11
000290 32 ca 8d ae cb e8 bb 2f 35 4b d5 2e f2 16 4e af
       -6.447855e-11 3.418051e-10 9.699478e-11 -1.8743743e-10
0002a0 66 ff eb 2f 2b ca 4b 2f 35 9c 2d af d8 b9 8f af
       4.2927722e-10 1.8534567e-10 -1.5789754e-10 -2.6143598e-10
0002b0 f3 98 08 30 11 9b 80 30 b5 76 5a b0 ec 45 8c 2f
       4.9693866e-10 9.357298e-10 -7.947663e-10 2.5515534e-10
0002c0 64 20 9b 30 55 61 28 b0 eb c8 85 2e df 77 46 30
       1.128694e-09 -6.125636e-10 6.08383e-11 7.220233e-10
0002d0 57 9f 00 00 5d 4a 01 80 cb 52 00 00 c4 7d 00 80
       5.716e-41 -1.18512e-40 2.97e-41 -4.5116e-41
0002e0 ce 01 00 80 81 58 00 80 8c 97 01 80 10 31 00 80
       -6.47e-43 -3.1749e-41 -1.462e-40 -1.76e-41
0002f0 9b 38 01 80 eb 6f 0f 8e 8c 8a 05 10 5e 22 17 10
       -1.12142e-40 -1.7679997e-30 2.6336358e-29 2.9805975e-29
000300 f9 49 e5 8f 38 22 98 0f d6 20 21 10 e3 f8 c5 8f
       -2.2609637e-29 1.5001538e-29 3.1776947e-29 -1.9521567e-29
000310 ce 13 c6 0d db 3d 79 0f c8 60 01 80 36 59 00 00
       1.220746e-30 1.2288561e-29 -1.26554e-40 3.2003e-41
000320 e4 31 00 80 79 4b 00 00 08 14 00 00 06 17 01 00
       -1.7897e-41 2.7074e-41 7.186e-42 1.00095e-40
000330 43 62 01 80 9e 11 00 80 f8 d5 00 80 8b 77 22 af
       -1.27085e-40 -6.32e-42 -7.6758e-41 -1.4776284e-10
000340 0f e4 8a 2f 8d ee 05 30 9c 3f dd af dc 17 27 2f
       2.52641e-10 4.872412e-10 -4.0244863e-10 1.5197038e-10
000350 dc ef 25 30 f3 0f 9e af df 81 9c 2e d2 78 dd 2f
       6.036751e-10 -2.8751365e-10 7.1171284e-11 4.0285514e-10
000360 3c a2 a0 2c c4 c4 df ad 6f f3 e2 ad 99 6b 16 2f
       4.565485e-12 -2.5439546e-11 -2.5801332e-11 1.3680647e-10
000370 ef c7 2a 2e 52 ed a4 ae c6 c1 3c 2f bd e6 a2 2e
       3.88311e-11 -7.500013e-11 1.7167343e-10 7.4078944e-11
000380 08 ec 8a ae 89 d1 6e a7 76 0f d3 28 07 4d fb 28
       -6.317441e-11 -3.3142724e-15 2.3432411e-14 2.7900003e-14
000390 ba c8 c2 a8 96 66 76 28 0f 73 06 29 66 f0 9b a8
       -2.1625378e-14 1.3677988e-14 2.9853774e-14 -1.7312713e-14
0003a0 e7 e9 11 27 86 d0 53 28 29 81 bd 2d f1 4e f9 ae
       2.024959e-15 1.1758069e-14 2.1544171e-11 -1.1337232e-10
0003b0 b9 65 fe ae 7e 82 28 30 57 41 3f 2f b6 be b8 af
       -1.1568652e-10 6.1303485e-10 1.7394562e-10 -3.3604913e-10
0003c0 93 2d 53 30 7b 0d b6 2f 15 91 9b af fd ce f5 2e
       7.682612e-10 3.3115186e-10 -2.8297423e-10 1.11780786e-10
0003d0 15 9d 26 b0 f6 75 29 b0 3f 94 60 31 e4 ee 7e 30
       -6.0613675e-10 -6.1649474e-10 3.2680558e-09 9.2744146e-10
0003e0 96 3a f6 b0 30 d2 8c 31 66 ef f2 30 9b 60 cf b0
       -1.7915507e-09 4.098432e-09 1.7675859e-09 -1.5088689e-09
0003f0 9e d7 00 80 0f d6 01 80 f5 84 01 00 d5 08 00 80
       -7.7349e-41 -1.68625e-40 1.39531e-40 -3.168e-42

learned_2 f4 [32, 32, 3, 3]
000000 0e 6d 19 b0 6a ea db 30 a4 b9 37 31 ab 5d f5 b0
       -5.581605e-10 1.6000972e-09 2.673553e-09 -1.7852718e-09
000010 8f 34 83 30 1d 70 3d 31 ac d2 d0 b0 1d 89 89 af
       9.546443e-10 2.7566849e-09 -1.5193868e-09 -2.501758e-10
000020 4f 8e 5d 30 f5 bc 3a b5 0a 8a 03 36 a6 35 5c 36
       8.0601564e-10 -6.956537e-07 1.960087e-06 3.2813782e-06
000030 0e a4 13 b6 45 06 9d 35 91 2d 63 36 6f 56 fb b5
       -2.20002e-06 1.1699236e-06 3.385216e-06 -1.8726113e-06
000040 ab 7a a6 b4 c8 c7 84 35 2a d0 21 bb 38 e1 f0 3b
       -3.1009162e-07 9.89291e-07 -0.0024690726 0.007351067
000050 6a 51 48 3c 21 bb 04 bc 69 55 8f 3b 34 3e 4e 3c
       0.012226442 -0.008101256 0.0043741954 0.012588073
000060 47 35 e2 bb 2b de 94 ba 73 18 71 3b 12 0d 01 80
       -0.006903324 -0.0011357715 0.0036788255 -9.6524e-41
000070 a4 2f 01 00 18 e9 00 80 56 2d 00 80 a4 42 02 00
       1.08926e-40 -8.3618e-41 -1.6263e-41 2.07577e-40
000080 8a 74 02 00 48 68 00 80 bc 94 00 80 9b 0c 02 00
       2.25477e-40 -3.7409e-41 -5.3356e-41 1.88193e-40
000090 40 12 f3 ba 9e 08 ae 3b 28 69 11 3c 2b 3d c2 bb
       -0.0018544868 0.005311086 0.008875169 -0.005927702
0000a0 ea ab 4f 3b e0 ef 15 3c e9 4e a5 bb 56 cb 59 ba
       0.0031688162 0.009151429 -0.005044807 -0.00083081925
0000b0 fd 5a 2f 3b 49 51 01 80 e8 0b 01 00 80 fb 01 80
       0.0026757114 -1.20995e-40 9.6107e-41 -1.82057e-40
0000c0 a4 20 01 80 22 52 01 00 fc c8 00 80 07 da 01 00
       -1.03545e-40 1.21299e-40 -7.21e-41 1.70049e-40
0000d0 fb df 00 80 0d 29 01 80 ee 3a f5 80 fb ce 6b 80
       -8.0349e-41 -1.06562e-40 -2.2520837e-38 -9.900649e-39
0000e0 3a d2 08 80 c5 c6 02 82 88 95 c0 81 db f1 e8 80
       -8.10099e-40 -9.607936e-38 -7.074423e-38 -2.1392597e-38
0000f0 7b e7 18 82 07 ed f2 81 82 ee 07 81 6b 5a b4 b7
       -1.1233628e-37 -8.923688e-38 -2.4966705e-38 -2.1499776e-05
000100 e6 44 be b7 c3 18 c1 b6 e3 fa f1 b5 94 6b 42 36
       -2.2681848e-05 -5.754731e-06 -1.8028917e-06 2.8970871e-06
000110 7f de f8 36 9e c3 cb 37 bf 47 fc 37 e1 2e 88 37
       7.416878e-06 2.4290577e-05 3.007415e-05 1.6234293e-05
000120 9f 5f 03 bd be 9d 0a bd e8 a4 0c bc fe bf 2f bb
       -0.032073613 -0.03384184 -0.008584239 -0.0026817317
000130 07 d9 8d 3b 37 66 35 3c 26 81 14 3d 7e d7 37 3d
       0.00432885 0.011071733 0.036255978 0.044883244
000140 9a 78 c6 3c bc f9 19 ac 20 71 da 2c e0 b8 36 2d
       0.02422743 -2.1881238e-12 6.208492e-12 1.0386553e-11
000150 21 91 f4 ac 60 67 82 2c 04 7a 3c 2d bf 17 d0 ac
       -6.9510096e-12 3.706299e-12 1.0713656e-11 -5.914352e-12
000160 2c 33 89 ab 89 70 5c 2c c9 f1 81 ad e5 c8 38 2e
       -9.748639e-13 3.132635e-12 -1.4772976e-11 4.2015186e-11
000170 2b 86 9a 2e b9 b7 4e ae f3 98 dc 2d 78 60 9f 2e
       7.026942e-11 -4.7002156e-11 2.5079027e-11 7.247619e-11
000180 20 e5 2f ae b5 db e7 ac 59 67 ba 2d 29 3f 89 b9
       -3.9993897e-11 -6.5898073e-12 2.1191647e-11 -0.00026177734
000190 63 db 41 3a bc 36 a2 3a 79 65 59 ba 0a 5f e7 39
       0.0007395057 0.0012375931 -0.00082930137 0.00044130563
0001a0 01 54 a7 3a 95 0f 39 ba 4a 29 f5 b8 ed 95 c3 39
       0.0012766124 -0.0007059512 -0.00011690201 0.00037305002
0001b0 9b 38 9b bb f9 d9 68 3c 06 73 c1 3c 7f fe 7f bc
       -0.0047369725 0.014212125 0.023614418 -0.015624641
0001c0 04 74 0a 3c 53 1a c7 3c c1 3d 5a bc 50 d2 0f bb
       0.008450512 0.024304545 -0.013320387 -0.0021945424
0001d0 9c ab e8 3b 3b d9 00 80 eb 78 01 80 b5 c5 01 80
       0.0071005356 -7.7928e-41 -1.35213e-40 -1.6276e-40
0001e0 0c a7 00 00 ea ea 01 00 8d 2f 02 00 aa 60 01 00
       5.9925e-41 1.76107e-40 2.00729e-40 1.26512e-40
0001f0 9f de 00 00 a9 26 02 00 67 33 02 00 1b 02 00 80
       7.9861e-41 1.9754e-40 2.0211e-40 -7.55e-43
000200 15 2a 01 00 08 0c 01 00 94 29 01 00 9d d8 00 80
       1.06932e-40 9.6151e-41 1.06751e-40 -7.7706e-41
000210 71 7f 01 00 d4 9f 01 80 67 70 01 00 75 8f 2d ae
       1.37553e-40 -1.49171e-40 1.32158e-40 -3.946306e-11
000220 41 60 02 2f 3b 9a 58 2f d3 41 0f af 52 0f 9b 2e
       1.1857627e-10 1.9699879e-10 -1.302916e-10 7.0513054e-11
000230 4f ee 5e 2f f1 39 f4 ae 2a b5 a0 ad 95 48 82 2e
       2.0275447e-10 -1.1106128e-10 -1.8270347e-11 5.924609e-11
000240 32 a1 70 b7 9e c3 2e 38 46 bf 91 38 fe 26 42 b8
       -1.4342646e-05 4.1667015e-05 6.949766e-05 -4.628952e-05
000250 78 44 d0 37 2e 30 96 38 0d 5e 25 b8 59 4e da b6
       2.4827415e-05 7.1615315e-05 -3.9426657e-05 -6.506027e-06
000260 ba 8c af 37 0d e5 5a b4 35 f2 66 b4 0d 56 6a b3
       2.0927157e-05 -2.038616e-07 -2.1508534e-07 -5.4560633e-08
000270 4c a0 92 b2 5d 2d ec 32 63 16 97 33 09 61 77 34
       -1.7069532e-08 2.7494645e-08 7.0355576e-08 2.3038969e-07
000280 5f 21 99 34 ff 51 25 34 ee 8e e7 b5 14 ff a3 36
       2.8522751e-07 1.5396652e-07 -1.7252439e-06 4.8874736e-06
000290 bb 2d 09 37 b3 bd b7 b6 51 af 43 36 8d 7c 0d 37
       8.176484e-06 -5.475909e-06 2.9159312e-06 8.433254e-06
0002a0 7f 6e 9c b6 b8 47 4f b5 1e 5e 25 36 a7 d1 e0 b5
       -4.6620257e-06 -7.7217874e-07 2.46417e-06 -1.6750317e-06
0002b0 9f cc 9f 36 26 9c 05 37 b5 d0 b2 b6 5f a5 3e 36
       4.7623903e-06 7.963774e-06 -5.32911e-06 2.8408465e-06
0002c0 4d c9 09 37 bf 3e 98 b6 16 9b 49 b5 8b 0a 21 36
       8.212705e-06 -4.5372576e-06 -7.5104015e-07 2.3997006e-06
0002d0 63 21 8c b6 80 a4 46 37 2b 29 a6 37 fa 7a 5e b7
       -4.176212e-06 1.184002e-05 1.9807912e-05 -1.3260864e-05
0002e0 30 19 ed 36 0b 63 ab 37 b4 5a 3d b7 f9 46 fa b5
       7.0660826e-06 2.0430909e-05 -1.1286396e-05 -1.8647107e-06
0002f0 84 63 c8 36 80 a7 43 ba e4 d6 0a 3b 4c 36 68 3b
       5.9720496e-06 -0.0007463619 0.0021185214 0.0035432754
000300 6f 73 1b bb 27 a5 a5 3a c5 7b 6f 3b c9 5a 04 bb
       -0.0023719927 0.001263772 0.0036542278 -0.0020195714
000310 50 5e af b9 bb f1 8b 3a 8e bc 26 b9 27 47 2f b9
       -0.0003344887 0.00106769 -0.00015901236 -0.00016715807
000320 5c dc 32 b8 58 4e 6f b7 bc a8 ac 37 5e 51 62 38
       -4.2643733e-05 -1.4263751e-05 2.058257e-05 5.3958378e-05
000330 f2 02 3a 39 43 e9 66 39 9b 72 f9 38 e9 a9 05 ba
       0.0001773944 0.00022021406 0.00011894592 -0.0005098866
000340 2f 35 0d ba 15 f7 0e b9 4b 81 2e b8 ef 4e 92 38
       -0.0005386648 -0.0001363422 -4.1605246e-05 6.976525e-05
000350 c5 a9 39 39 56 c4 17 3a 20 b5 3b 3a ef 9b ca 39
       0.00017706219 0.0005789449 0.00071604736 0.00038644622
000360 b4 ac c4 ba d4 cc 8d 3b 51 b6 ec 3b e8 ea 9d bb
       -0.0015005083 0.004327396 0.0072238822 -0.004819263
000370 33 08 29 3b e5 fa f3 3b 67 7f 86 bb cb db 31 ba
       0.002579224 0.0074456804 -0.004104543 -0.0006784766
000380 26 91 0e 3b ab f9 1d bb ff 08 e3 3b 7b 95 3d 3c
       0.0021753996 -0.0024105113 0.0069285627 0.011571283
000390 2e 20 fd bb c0 5a 87 3b 6b 6f 43 3c 8d 8c d7 bb
       -0.0077247834 0.0041306913 0.01192842 -0.0065780343
0003a0 7c 79 8e ba 8f 70 64 3b 40 f7 49 ba 4b fc 54 ba
       -0.0010869945 0.003485713 -0.00077043846 -0.0008124753
0003b0 9b 49 58 b9 94 7f 88 b8 bc c6 d8 38 91 15 8b 39
       -0.00020626785 -6.5087486e-05 0.000103367 0.00026528214
0003c0 ae de 63 3a dc 19 8d 3a 18 57 18 3a 8b ea 01 00
       0.00086925447 0.0010765153 0.0005811318 1.75974e-40
0003d0 93 61 01 80 02 5e 00 80 fc c2 00 80 1a 0b 01 00
       -1.26839e-40 -3.3724e-41 -6.9947e-41 9.5818e-41
0003e0 27 72 00 00 0d 10 02 80 b8 1b 00 80 11 a4 01 80
       4.095e-41 -1.89429e-40 -9.944e-42 -1.50691e-40
0003f0 49 7b 56 8f 32 26 2f 10 c5 2e 8d 10 65 06 3f 90
       -1.05747585e-29 3.454209e-29 5.5686754e-29 -3.7673034e-29

learned_3 f4 [32, 32, 3, 3]
000000 e9 43 b4 39 ee ff a9 bb e4 54 be bb d7 2d 19 ba
       0.00034382872 -0.00518798 -0.0058084596 -0.00058433175
000010 3f 29 d5 b9 37 ed ae 3a 5e d0 91 3a f3 7e c4 3b
       -0.00040657257 0.0013345842 0.001112472 0.005996579
000020 02 96 08 3c 54 4f c8 39 da c1 bc bb 3b 56 d3 bb
       0.008336546 0.00038206077 -0.0057604136 -0.0064494885
000030 9f 0f 2a ba 3d ad ec b9 60 3d c2 3a ae e6 a1 3a
       -0.0006487313 -0.000451425 0.0014819317 0.0012352073
000040 a5 2e da 3b 68 a9 17 3c 66 45 29 39 93 6a 1f bb
       0.0066583925 0.009256698 0.00016142949 -0.0024324998
000050 6d 7d 32 bb 5f 9c 8f b9 99 e5 47 b9 d5 0a 24 3a
       -0.0027235404 -0.0002739159 -0.0001906365 0.00062577176
000060 c9 bb 08 3a 04 45 38 3b bb 16 80 3b 94 00 1c 38
       0.00052159705 0.0028117308 0.0039089597 3.7193837e-05
000070 f9 4b 03 38 a2 2b c1 37 de 7a f9 36 0e 2d c5 b7
       3.130359e-05 2.3027711e-05 7.435082e-06 -2.350521e-05
000080 02 2c e9 b7 3a b4 56 b7 f3 d4 36 b8 a0 82 24 b8
       -2.7796257e-05 -1.2797356e-05 -4.3590506e-05 -3.92223e-05
000090 b2 76 96 3a 64 bf 8d bc a6 b4 9e bc 76 62 ff ba
       0.0011479466 -0.017303176 -0.01937325 -0.00194843
0000a0 6e b4 b1 ba 5d de 91 3b e4 2b 73 3b 29 d9 a3 3c
       -0.00135578 0.0044515566 0.0037105018 0.020001011
0000b0 11 c9 e3 3c 36 f4 0c 3a 20 c1 04 bc 03 a3 14 bc
       0.027805837 0.00053769664 -0.008102685 -0.009072068
0000c0 4d 22 6f ba af 4f 26 ba 8c a6 08 3b 59 c3 e3 3a
       -0.00091222377 -0.0006344271 0.0020851223 0.0017376944
0000d0 6b 76 19 3c a1 58 55 3c 05 76 22 3a 34 47 19 bc
       0.009366612 0.013021619 0.0006197396 -0.009355355
0000e0 a5 9b 2b bc 09 25 8a ba c7 56 40 ba 43 ad 1d 3b
       -0.01047412 -0.0010539602 -0.00073371496 0.002405957
0000f0 71 75 03 3b 96 27 31 3c dd 48 76 3c fb ba 3d 34
       0.0020059014 0.010812661 0.01503202 1.767002e-07
000100 95 bd 32 b6 4c 1f 48 b6 2a 08 a1 b4 64 3c 60 b4
       -2.6634418e-06 -2.982054e-06 -2.9994527e-07 -2.0883596e-07
000110 55 e4 37 35 50 4e 19 35 84 98 4e 36 9a 9b 8f 36
       6.850508e-07 5.71109e-07 3.0785168e-06 4.2798465e-06
000120 c9 90 71 33 ec bf 4d 33 ac f6 17 33 e0 93 4f 32
       5.6243866e-08 4.7904834e-08 3.5381774e-08 1.2082609e-08
000130 b4 40 0e b3 1b 30 2a b3 0b 46 9f b2 68 9b 88 b3
       -3.31208e-08 -3.962496e-08 -1.8541888e-08 -6.361262e-08
000140 4f 76 74 b3 18 e4 30 17 53 e7 16 17 eb 12 df 16
       -5.6918278e-08 5.715656e-25 4.8759586e-25 3.6039532e-25
000150 8c 52 19 16 b3 4c ce 96 8f 29 f7 96 00 fd 67 96
       1.2385289e-25 -3.33295e-25 -3.993123e-25 -1.8739864e-25
000160 fd 15 47 97 26 f8 31 97 08 87 fe 37 20 88 ef b9
       -6.432812e-25 -5.750499e-25 3.0342038e-05 -0.00045687053
000170 41 19 06 ba 26 be 57 b8 58 29 16 b8 75 7e f6 38
       -0.00051154575 -5.1437084e-05 -3.580129e-05 0.000117537485
000180 a4 75 cd 38 27 71 0a 3a a9 77 40 3a 26 65 b0 39
       9.797074e-05 0.0005281143 0.00073420495 0.00033644697
000190 31 1a a6 bb 53 fa b9 bb 7e 9f 15 ba 37 50 d0 b9
       -0.00506904 -0.005675593 -0.0005707665 -0.00039732616
0001a0 98 e7 aa 3a f4 78 8e 3a 11 ff bf 3b ae 75 05 3c
       0.0013038991 0.0010869787 0.0058592637 0.008145733
0001b0 f1 29 27 29 09 8a 0e 29 65 ac d2 28 97 49 10 28
       3.7117827e-14 3.165006e-14 2.3389448e-14 8.009563e-15
0001c0 33 08 c4 a8 2d b8 ea a8 f4 e0 5b a8 a0 bc 3c a9
       -2.1763927e-14 -2.6059092e-14 -1.2205721e-14 -4.1907992e-14
0001d0 a7 da 28 a9 97 31 c8 39 27 47 bc bb 4f d0 d2 bb
       -3.7493144e-14 0.0003818392 -0.0057457867 -0.0064335237
0001e0 d7 7f 29 ba 5d b6 eb b9 28 d9 c1 3a 75 88 a1 3a
       -0.0006465888 -0.00044958564 0.0014789449 0.0012323993
0001f0 41 ab d9 3b 95 4d 17 3c 34 6d 5c 38 7f 9f 4d ba
       0.0066427295 0.009234806 5.255379e-05 -0.0007843896
000200 14 48 66 ba d6 68 b8 b8 eb 09 7f b8 c0 67 54 39
       -0.0008784544 -8.793331e-05 -6.0805974e-05 0.00020256545
000210 1f ae 30 39 0f f6 6d 3a 86 65 a5 3a 17 d6 01 80
       0.00016849533 0.0009077498 0.0012618757 -1.68636e-40
000220 37 ab 01 80 5d 3d 01 00 6c f6 00 80 f1 a3 00 80
       -1.53256e-40 1.13848e-40 -8.84e-41 -5.8811e-41
000230 4a 3a 02 80 0e a2 01 00 43 3d 00 80 e6 81 01 00
       -2.04581e-40 1.4997e-40 -2.1977e-41 1.38434e-40
000240 c8 fd 1d 3a cd ca 14 bc 2b 98 26 bc 9f 05 86 ba
       0.0006026891 -0.009081555 -0.010168116 -0.0010225064
000250 99 81 3a ba c8 20 19 3b 61 44 ff 3a 99 fe 2b 3c
       -0.00071146485 0.0023365486 0.0019475335 0.0104977125
000260 68 1c 6f 3c ed f2 16 37 8a 89 04 b9 b4 b2 14 b9
       0.014594175 8.997257e-06 -0.00012639738 -0.00014180952
000270 a4 3d 67 b7 54 7c 1a b7 5c b9 0b 38 0e 10 e6 37
       -1.3783025e-05 -9.208063e-06 3.3312812e-05 2.7425613e-05
000280 ef 6b 1a 39 05 91 56 39 c8 3e 00 00 4a 99 00 00
       0.00014726793 0.00020462654 2.2522e-41 5.499e-41
000290 f9 71 00 80 06 85 00 80 be 81 01 80 0e d7 01 00
       -4.0886e-41 -4.772e-41 -1.38378e-40 1.68983e-40
0002a0 25 34 02 80 ce 62 00 00 4e f1 00 80 51 bb 00 00
       -2.02377e-40 3.5444e-41 -8.6564e-41 6.7196e-41
0002b0 62 3f 02 00 4d f9 01 00 01 1c 00 00 42 cb 01 00
       2.06408e-40 1.81268e-40 1.0046e-41 1.6475e-40
0002c0 59 3f 01 00 78 51 01 80 e6 6a 01 80 9f 43 01 80
       1.1456e-40 -1.21061e-40 -1.30183e-40 -1.16093e-40
0002d0 3f 75 00 00 fc d8 00 80 5d 6f 00 00 12 d5 00 00
       4.206e-41 -7.784e-41 3.995e-41 7.6435e-41
0002e0 c7 1d 02 80 6c e1 00 80 33 11 00 80 c0 fc 01 00
       -1.94353e-40 -8.0866e-41 -6.17e-42 1.82505e-40
0002f0 78 8c 01 80 af d5 12 38 ae 4f 0a ba a8 db 1a ba
       -1.42226e-40 3.500812e-05 -0.00052761554 -0.0005907365
000300 d7 2a 79 b8 ab 51 2d b8 9e 5b 0e 39 77 49 ed 38
       -5.9406124e-05 -4.1322473e-05 0.00013576305 0.000113147245
000310 c9 e1 1f 3a 6a 45 5e 3a 6a ee 01 00 e5 46 00 00
       0.0006099013 0.00084789714 1.77362e-40 2.5432e-41
000320 5f 65 01 00 ea e9 00 80 35 0a 02 00 d3 10 00 00
       1.282e-40 -8.3913e-41 1.87333e-40 6.035e-42
000330 d9 1c 01 00 05 b7 01 00 d5 25 01 00 96 36 17 38
       1.02184e-40 1.5749e-40 1.05407e-40 3.6052043e-05
000340 31 f9 fd 37 19 b6 ba 37 31 2b ee 36 fc ba c1 b7
       3.0275989e-05 2.2257724e-05 7.097981e-06 -2.3094464e-05
000350 18 9a e4 b7 93 eb 51 b7 99 7c 32 b8 50 c7 20 b8
       -2.7251474e-05 -1.251222e-05 -4.2554548e-05 -3.8332597e-05
000360 44 a4 31 36 c0 53 27 b8 e8 58 3b b8 6b be 96 b6
       2.647067e-06 -3.98939e-05 -4.4667075e-05 -4.492516e-06
000370 70 e8 51 b6 9a 25 2c 37 82 84 0f 37 eb 67 41 38
       -3.1278723e-06 1.0260754e-05 8.554316e-06 4.6111567e-05
000380 80 70 86 38 61 e6 01 00 8b ac 01 00 7f 04 02 00
       6.410573e-05 1.7448e-40 1.53732e-40 1.85284e-40
000390 04 e0 01 80 47 f3 01 00 fd ab 00 00 5f 70 00 80
       -1.72197e-40 1.79107e-40 6.1698e-41 -4.0311e-41
0003a0 48 17 00 80 ca 02 00 00 20 66 01 80 fa 30 02 00
       -8.352e-42 1e-42 -1.28471e-40 2.0124e-40
0003b0 95 11 00 80 82 db 00 80 31 b2 00 00 bc e6 01 80
       -6.307e-42 -7.8745e-41 6.3923e-41 -1.74607e-40
0003c0 4d a5 00 80 ab dc 00 80 39 fb 00 00 9d e3 ff 39
       -5.9299e-41 -7.9161e-41 9.0122e-41 0.00048806975
0003d0 11 fe f0 bb bf e9 06 bc 9e 15 59 ba 61 16 17 ba
       -0.007354506 -0.00823444 -0.0008281114 -0.00057635276
0003e0 c6 fb f7 3a 85 b6 ce 3a 4a 48 0b 3c 5c a2 41 3c
       0.0018919639 0.0015770948 0.008501122 0.011818495
0003f0 f4 ff 3a 33 fb 77 1c 33 6b bf e5 32 68 89 10 32
       4.3539288e-08 3.6430702e-08 2.6746156e-08 8.413146e-09

learned_4 f4 [32, 32, 3, 3]
000000 0f 98 7c 3a f3 68 2d 38 b2 18 e1 ba c0 de 83 ba
       0.00096356956 4.1344156e-05 -0.0017173497 -0.0010060892
000010 24 2c 2b bb d7 5e 5a bb a2 d5 07 bb 95 6e 59 bb
       -0.002611884 -0.003332069 -0.00207267 -0.0033177484
000020 5b 09 37 bb b0 a2 bc 14 d6 44 82 12 8d 0e 28 95
       -0.002792916 1.9047318e-26 8.221123e-28 -3.3938808e-26
000030 f7 e3 c4 94 fd 9d 7f 95 da 0f a3 95 9b d5 4a 95
       -1.9880859e-26 -5.162147e-26 -6.5860185e-26 -4.096208e-26
000040 91 5b a2 95 be af 88 95 9e 90 37 05 57 e9 4b 03
       -6.5575745e-26 -5.5207235e-26 8.6311806e-36 5.99242e-37
000050 49 b7 9e 85 68 bc 35 85 e5 f1 f1 85 fd e8 1b 86
       -1.4925577e-35 -8.545184e-36 -2.2752389e-35 -2.9323433e-35
000060 5b d7 be 85 b5 84 1a 86 e6 5f 03 86 e6 88 09 39
       -1.7946623e-35 -2.9061679e-35 -2.4708817e-35 0.00013116337
000070 e1 85 bc 36 fb 26 75 b9 ee a0 0f b9 8d 6c ba b9
       5.618422e-06 -0.00023379542 -0.00013697494 -0.0003555756
000080 cf d2 ed b9 21 f0 93 b9 69 cd ec b9 89 57 c7 b9
       -0.00045361227 -0.00028216935 -0.0004516647 -0.00038021457
000090 4d 1e 9c 38 ce ec ef 3b 8a ae f9 3b 51 bf 4c 3b
       7.4443036e-05 0.0073219305 0.0076196836 0.0031241963
0000a0 f2 a1 00 3c f4 d2 a0 3b a6 98 17 3b 36 f8 16 3b
       0.007851111 0.00490796 0.0023131757 0.002303613
0000b0 9b 18 dd ba e8 40 bf 38 ae 2e 16 3c ca 53 1c 3c
       -0.0016868295 9.1196795e-05 0.009166403 0.009541461
0000c0 6d 1b 80 3b eb 09 21 3c 11 68 c9 3b 20 bf 3d 3b
       0.0039095194 0.009829025 0.006146439 0.002895303
0000d0 3b fe 3c 3b 4a 5a 0a bb 46 c6 be 32 33 86 09 36
       0.0028838057 -0.0021110945 2.2209075e-08 2.0492705e-06
0000e0 32 03 0f 36 4a ff 6a 35 30 72 13 36 a1 29 b8 35
       2.131052e-06 8.754329e-07 2.1971173e-06 1.3721184e-06
0000f0 41 dc 2d 35 58 0a 2d 35 1f be fd b4 15 41 1a 38
       6.4768034e-07 6.4462574e-07 -4.7263254e-07 3.6777074e-05
000100 a1 3a a0 3b 4d 3a a7 3b b7 11 08 3b 59 de ab 3b
       0.0048898016 0.0051033855 0.0020762512 0.0052450118
000110 80 ba 57 3b 10 17 ca 3a c4 b0 c9 3a 92 0b 93 ba
       0.003291756 0.001541825 0.0015387763 -0.0011218658
000120 24 39 0f 37 bd 7f 89 3a 9d 68 8f 3a c3 cb e9 39
       8.536768e-06 0.001049034 0.0010941211 0.00044593037
000130 4b 79 93 3a 41 f0 38 3a 2f 7f ad 39 f4 0f ad 39
       0.0011251358 0.00070548436 0.0003309189 0.00033009017
000140 76 9f 7c b9 c2 8e ef 3a aa d1 a3 38 cb 85 55 bb
       -0.00024091997 0.0018276798 7.811499e-05 -0.0032580968
000150 f3 38 fa ba fe 5f a2 bb 7b 22 cf bb f0 da 80 bb
       -0.0019090459 -0.004955291 -0.006321249 -0.0039323494
000160 17 40 ce bb c1 9d ad bb fa c5 3e 0b 83 8a 0c 09
       -0.006294261 -0.0052983467 3.674161e-32 1.6917015e-33
000170 97 67 a9 8b cf fd 45 8b 8e d7 00 8c 42 8d 24 8c
       -6.5252297e-32 -3.8131764e-32 -9.925627e-32 -1.2676609e-31
000180 92 62 cc 8b 69 c4 23 8c f4 ff 09 8c 22 f1 01 00
       -7.8726254e-32 -1.2616168e-31 -1.0631119e-31 1.78338e-40
000190 20 28 01 00 20 84 01 80 38 df 00 80 b7 42 01 80
       1.0623e-40 -1.39233e-40 -8.0076e-41 -1.15768e-40
0001a0 bd 28 00 80 ab db 00 80 1a e4 01 00 7d df 00 80
       -1.4614e-41 -7.8802e-41 1.73663e-40 -8.0172e-41
0001b0 62 f0 be 3a 78 c8 82 38 e9 2c 2a bb 9d 69 c7 ba
       0.0014567489 6.236223e-05 -0.002596671 -0.001521397
0001c0 25 69 81 bb 89 16 a5 bb f6 63 4d bb 9c 61 a4 bb
       -0.003949302 -0.005038087 -0.00313401 -0.0050165188
0001d0 0c 60 8a bb ad 97 04 39 f9 4d b5 36 59 5f 6c b9
       -0.0042228755 0.00012645005 5.4032976e-06 -0.00022542234
0001e0 b1 7e 0a b9 74 c0 b3 b9 5c 4e e5 b9 cc a3 8e b9
       -0.00013207902 -0.0003428493 -0.00043736666 -0.0002720639
0001f0 7f 52 e4 b9 02 34 c0 b9 ba f9 4c 34 b1 5f 21 39
       -0.00043549013 -0.00036659843 1.908983e-07 0.00015389804
000200 5b 93 29 39 4b 70 87 38 6d 3c 2d 39 04 7a db 38
       0.0001617199 6.458218e-05 0.00016521076 0.00010465461
000210 61 94 4a 38 6b 3b 4b 38 a5 a1 12 b8 53 5d 00 80
       4.829874e-05 4.845431e-05 -3.4959656e-05 -3.3478e-41
000220 5c a1 00 00 8e aa 00 80 d9 7b 01 00 aa 32 00 80
       5.7885e-41 -6.1183e-41 1.36264e-40 -1.8175e-41
000230 c0 c4 00 80 17 6b 01 00 75 6e 01 00 4e f5 00 80
       -7.058e-41 1.30252e-40 1.3146e-40 -8.7999e-41
000240 4f 70 05 31 d0 1d b7 2e 92 d5 6d b1 29 58 0b b1
       1.9417887e-09 8.327172e-11 -3.460944e-09 -2.0277275e-09
000250 d6 dc b4 b1 0c ba e6 b1 00 87 8f b1 81 bd e5 b1
       -5.2637956e-09 -6.715032e-09 -4.1771955e-09 -6.6863213e-09
000260 a1 64 c1 b1 8d 35 db 38 b2 3e 26 3c ed fa 2c 3c
       -5.6284795e-09 0.000104527084 0.010146784 0.010557872
000270 43 e7 8d 3b 46 41 32 3c ea d1 de 3b ce 19 52 3b
       0.004330547 0.01087982 0.006799926 0.0032058838
000280 89 34 51 3b 03 3c 19 bb 84 26 48 35 5f 47 90 38
       0.0031922183 -0.0023381717 7.4561854e-07 6.879749e-05
000290 52 09 96 38 09 8a f6 37 1f b0 9a 38 33 35 41 38
       7.1542934e-05 2.9389763e-05 7.376097e-05 4.606433e-05
0002a0 38 66 b6 37 0d 8a b5 37 4c 1a 85 b7 d6 e1 33 3a
       2.174369e-05 2.1641166e-05 -1.5867081e-05 0.000686196
0002b0 6e 45 f6 37 6c 53 a0 ba 9e e0 3b ba 4b d8 f3 ba
       2.9357816e-05 -0.0012231893 -0.00071669545 -0.0018603889
0002c0 94 88 1b bb 0a 81 c1 ba 2b de 1a bb ca 5d 02 bb
       -0.002373253 -0.0014763188 -0.0023630958 -0.0019892328
0002d0 50 34 f3 38 b7 6f 2f 3c 71 70 36 3c 42 e3 95 3b
       0.00011596887 0.010707787 0.011135207 0.0045742104
0002e0 e7 17 3c 3c 3c ef ea 3b 98 c9 5d 3b f6 bd 5c 3b
       0.011480308 0.0071696322 0.0033842083 0.0033682561
0002f0 6f d8 21 bb 4e 57 13 39 30 b0 54 3c ee 2d 5d 3c
       -0.0024695655 0.00014051536 0.0129814595 0.01349972
000300 50 b6 b5 3b 5f 08 64 3c 3f 69 0e 3c 77 70 86 3b
       0.005545415 0.013918011 0.008692085 0.0041027623
000310 73 ce 85 3b ce 35 44 bb 03 8d 4d 32 ca d0 93 35
       0.0040834486 -0.0029939297 1.1964633e-08 1.1013119e-06
000320 c9 b5 99 35 ed 97 fc 34 8e 7a 9e 35 6f ef 45 35
       1.1452295e-06 4.7049198e-07 1.1807585e-06 7.373664e-07
000330 6a df ba 34 95 fc b9 34 56 5f 88 b4 a6 e7 50 38
       3.4807755e-07 3.4642713e-07 -2.540134e-07 4.9806804e-05
000340 39 a4 96 3b 5a a7 9c 3b 6e b4 00 3b 79 82 a1 3b
       0.0045972136 0.004780692 0.0019638794 0.0049288836
000350 c3 ba 49 3b 46 71 be 3a 6b 8b bd 3a d4 f8 8a ba
       0.0030781485 0.0014529608 0.0014461105 -0.0010602721
000360 3b 56 bb 29 20 7e 06 2d 6a da 0b 2d 6f d5 65 2c
       8.319427e-14 7.6450235e-12 7.949733e-12 3.2661337e-12
000370 b8 31 10 2d d2 16 b4 2c ff 07 2a 2c c9 38 29 2c
       8.196492e-12 5.1184413e-12 2.4162892e-12 2.4047867e-12
000380 80 2b f8 ab 71 6d 58 38 fe 7f b5 3b ad 0e bd 3b
       -1.7633534e-12 5.160034e-05 0.0055389395 0.0057695718
000390 5b a4 1a 3b 06 a3 c2 3b f9 a7 73 3b 35 36 e5 3a
       0.0023596499 0.005939844 0.0037178977 0.0017487468
0003a0 70 6b e4 3a bf 09 a7 ba 49 13 0d 82 a2 a8 e5 81
       0.0017427038 -0.0012743993 -1.0364579e-37 -8.436329e-38
0003b0 4b a5 3a 80 b7 d1 fc 81 3d 0c 45 00 5e 55 2b 02
       -5.385755e-39 -9.2871106e-38 6.34104e-39 1.2587595e-37
0003c0 10 71 27 81 58 1c c5 01 bc 99 4c 02 5d 85 00 80
       -3.0754174e-38 7.240704e-38 1.5031673e-37 -4.7842e-41
0003d0 7c 4a 01 00 c3 07 02 00 d6 0f 01 00 be ef 01 00
       1.18555e-40 1.86455e-40 9.7516e-41 1.77839e-40
0003e0 98 9a 01 00 0e 43 00 80 bc 1f 00 80 74 fa 01 80
       1.47293e-40 -2.4055e-41 -1.1384e-41 -1.81681e-40
0003f0 86 19 b5 37 5d 5f 02 3b c0 92 07 3b 0c c8 5e 3a
       2.1588767e-05 0.0019893267 0.0020686835 0.0008498437

learned_5 f4 [32, 32, 3, 3]
000000 8e 68 01 80 6a d0 00 80 5a 33 00 80 0a 26 00 00
       -1.29343e-40 -7.4765e-41 -1.8421e-41 1.3646e-41
000010 32 f4 01 00 d5 80 00 80 7d ba 01 80 b5 a2 01 00
       1.79436e-40 -4.6216e-41 -1.58735e-40 1.50204e-40
000020 8e 6d 01 80 75 e8 01 00 48 4d 00 00 97 4f 00 80
       -1.31136e-40 1.75225e-40 2.7723e-41 -2.8551e-41
000030 2b 07 02 00 12 31 01 00 b8 9b 01 80 2d 35 02 00
       1.86242e-40 1.09439e-40 -1.47697e-40 2.02747e-40
000040 8c 53 00 80 d1 57 00 80 7c 69 01 80 47 d5 00 80
       -2.9971e-41 -3.1503e-41 -1.29676e-40 -7.651e-41
000050 f0 4e 01 00 7e 36 00 80 e3 41 02 80 f9 3d 00 00
       1.20153e-40 -1.9548e-41 -2.07307e-40 2.2232e-41
000060 da 94 01 00 20 77 01 00 14 87 00 00 08 8c 00 80
       1.45233e-40 1.3457e-40 4.8457e-41 -5.0234e-41
000070 87 2e 00 80 41 77 01 00 76 f1 01 80 80 4d 01 00
       -1.6691e-41 1.34616e-40 -1.78455e-40 1.19637e-40
000080 4d 24 00 80 55 b9 00 00 b4 d8 01 80 de 37 01 80
       -1.3022e-41 6.6485e-41 -1.69574e-40 -1.11877e-40
000090 95 a2 01 00 8a a4 01 80 a5 18 01 80 d6 60 01 00
       1.50159e-40 -1.50861e-40 -1.00676e-40 1.26574e-40
0000a0 4f b9 00 80 10 8e 01 00 f0 a5 00 00 5b 74 01 00
       -6.6476e-41 1.42798e-40 5.9527e-41 1.33576e-40
0000b0 3f f6 01 00 37 30 00 80 f4 d2 01 80 72 68 00 00
       1.80172e-40 -1.7296e-41 -1.67511e-40 3.7468e-41
0000c0 41 7b 00 00 ce c4 00 80 41 cf 00 80 0c 01 00 80
       4.4215e-41 -7.06e-41 -7.4349e-41 -3.76e-43
0000d0 96 1c 02 80 77 b9 00 80 91 6b 01 80 2f 6a 00 00
       -1.93926e-40 -6.6532e-41 -1.30423e-40 3.8091e-41
0000e0 f2 c7 00 80 4a 13 02 80 39 4c 01 00 3a b1 00 00
       -7.1727e-41 -1.9059e-40 1.19179e-40 6.3577e-41
0000f0 a3 60 01 00 e9 8d 00 00 7d d4 00 80 f9 12 02 00
       1.26502e-40 5.0908e-41 -7.6226e-41 1.90477e-40
000100 be f6 01 00 62 9d 01 80 8e e6 00 80 b8 ce 00 00
       1.8035e-40 -1.48294e-40 -8.2707e-41 7.4157e-41
000110 80 72 01 00 ed b4 00 80 dc d7 01 80 58 55 01 00
       1.3291e-40 -6.4904e-41 -1.69271e-40 1.22451e-40
000120 56 fe 00 00 76 1b 01 80 91 5a 01 80 81 3e 01 00
       9.1239e-41 -1.01687e-40 -1.24325e-40 1.14258e-40
000130 d9 c0 01 80 01 27 01 80 6f 82 00 80 be 51 01 00
       -1.61016e-40 -1.05827e-40 -4.6791e-41 1.21159e-40
000140 8f 52 01 80 8c 6c 01 80 dc 8e 00 80 30 1d 00 00
       -1.21452e-40 -1.30775e-40 -5.1248e-41 1.047e-41
000150 4c 27 02 80 d0 8e 00 00 b9 1f 02 80 a6 23 01 00
       -1.97768e-40 5.1231e-41 -1.95051e-40 1.04624e-40
000160 52 17 02 80 2a ba 00 80 44 94 01 80 b7 0f 01 00
       -1.92037e-40 -6.6783e-41 -1.45023e-40 9.7473e-41
000170 98 ee 00 00 83 5e 01 80 7c ee 01 80 fb b5 01 80
       8.5591e-41 -1.2574e-40 -1.77388e-40 -1.57118e-40
000180 6a eb 01 00 a8 e6 00 80 0b ec 00 80 af 89 00 00
       1.76286e-40 -8.2744e-41 -8.4676e-41 4.9392e-41
000190 21 7a 00 80 84 a4 01 80 cd a3 01 00 49 e6 00 80
       -4.3812e-41 -1.50853e-40 1.50596e-40 -8.2611e-41
0001a0 6e f8 00 00 c7 23 01 00 b5 ab 00 80 c3 f9 01 80
       8.912e-41 1.0467e-40 -6.1597e-41 -1.81433e-40
0001b0 e6 b4 01 80 2c e9 00 00 22 f9 00 00 d2 48 01 00
       -1.5673e-40 8.3646e-41 8.9372e-41 1.17959e-40
0001c0 54 0e 01 80 b6 35 00 00 1c 1d 02 00 6b 0e 02 80
       -9.6975e-41 1.9268e-41 1.94113e-40 -1.88843e-40
0001d0 2a 02 01 80 58 3b 00 00 00 43 01 00 31 14 02 80
       -9.2612e-41 2.1289e-41 1.1587e-40 -1.90914e-40
0001e0 4a 3f 01 00 14 6f 00 80 e5 bf 01 00 84 e0 01 80
       1.1454e-40 -3.9847e-41 1.60674e-40 -1.72377e-40
0001f0 73 a1 01 80 07 67 01 00 e8 ef 01 80 1c 69 00 00
       -1.49753e-40 1.28795e-40 -1.77898e-40 3.7706e-41
000200 d0 36 01 00 b6 ec 01 00 12 68 00 80 de 36 01 00
       1.11499e-40 1.76751e-40 -3.7333e-41 1.11518e-40
000210 1e 9b 01 00 94 16 02 00 52 b3 00 00 aa 53 02 80
       1.47481e-40 1.9177e-40 6.4328e-41 -2.13684e-40
000220 33 45 01 00 9d e1 00 80 e9 3c 00 00 a3 65 01 00
       1.1666e-40 -8.0935e-41 2.185e-41 1.28296e-40
000230 e5 02 02 80 25 e8 01 00 52 23 02 80 e1 47 02 80
       -1.8471e-40 1.75113e-40 -1.96342e-40 -2.09456e-40
000240 d3 47 01 80 1f 7c 01 00 f6 84 01 80 7c e9 00 80
       -1.17601e-40 1.36362e-40 -1.39533e-40 -8.3758e-41
000250 f2 8d 00 80 e4 39 02 00 8f ee 01 80 9c f5 00 00
       -5.092e-41 2.04438e-40 -1.77414e-40 8.8108e-41
000260 05 3f 00 80 d0 c6 00 80 d2 68 00 80 6f 54 01 00
       -2.2607e-41 -7.132e-41 -3.7602e-41 1.22125e-40
000270 bd 92 00 00 94 ad 00 00 e6 96 00 00 ac d2 00 00
       5.264e-41 6.2268e-41 5.4132e-41 7.5575e-41
000280 07 c5 00 80 9a a2 00 80 6b 39 00 80 5b 1f 00 80
       -7.068e-41 -5.833e-41 -2.0598e-41 -1.1248e-41
000290 4a 3a 01 00 b4 29 00 80 bf 48 01 80 b6 79 00 80
       1.12746e-40 -1.496e-41 -1.17932e-40 -4.3662e-41
0002a0 5b 10 02 80 0d a2 00 00 78 fe 00 80 bf a6 01 00
       -1.89538e-40 5.8133e-41 -9.1286e-41 1.51653e-40
0002b0 8c 64 00 00 05 cc 01 00 14 d0 00 00 28 5b 00 80
       3.607e-41 1.65024e-40 7.4644e-41 -3.2701e-41
0002c0 3e f4 01 80 14 8b 00 00 38 09 01 80 6a a0 01 80
       -1.79453e-40 4.9892e-41 -9.5143e-41 -1.49381e-40
0002d0 21 c8 00 00 e3 4e 01 00 45 b7 01 80 32 80 00 00
       7.1793e-41 1.20135e-40 -1.5758e-40 4.5988e-41
0002e0 74 b2 00 80 88 5c 00 00 3e 85 01 80 46 a9 00 00
       -6.4017e-41 3.3194e-41 -1.39634e-40 6.0724e-41
0002f0 06 69 00 00 5c 0c 01 80 79 eb 00 00 dd 8f 01 80
       3.7675e-41 -9.6269e-41 8.4472e-41 -1.43444e-40
000300 71 80 01 80 c7 23 00 00 cb c5 00 80 bb 8e 02 80
       -1.37912e-40 1.2834e-41 -7.0955e-41 -2.34873e-40
000310 10 7d 00 00 6b e1 01 80 23 eb 00 00 4a 18 01 00
       4.4864e-41 -1.727e-40 8.4351e-41 1.00549e-40
000320 82 13 02 00 5e 39 00 00 a0 45 01 80 81 aa 01 00
       1.90669e-40 2.058e-41 -1.16812e-40 1.53001e-40
000330 e4 84 01 80 c9 b9 00 80 78 13 02 80 e1 93 01 80
       -1.39508e-40 -6.6647e-41 -1.90655e-40 -1.44884e-40
000340 58 ab 00 00 85 db 00 80 1d b6 01 00 ef 17 02 00
       6.1467e-41 -7.8749e-41 1.57165e-40 1.92257e-40
000350 a5 09 00 00 d0 2b 00 80 53 a2 00 00 7d 04 02 00
       3.46e-42 -1.5717e-41 5.8231e-41 1.85281e-40
000360 0c fa 00 00 10 9f 01 00 1d 4f 00 00 f4 b7 00 80
       8.97e-41 1.48896e-40 2.838e-41 -6.599e-41
000370 50 c1 00 00 d9 d0 01 80 96 eb 01 80 c5 a5 01 00
       6.9347e-41 -1.66756e-40 -1.76348e-40 1.51302e-40
000380 d0 93 00 80 02 03 00 80 e8 39 01 80 96 5a 00 80
       -5.3025e-41 -1.079e-42 -1.12608e-40 -3.2496e-41
000390 4b b1 01 00 10 58 01 80 af 22 00 80 05 15 00 80
       1.55436e-40 -1.23426e-40 -1.2442e-41 -7.54e-42
0003a0 cc cf 01 80 cd 5b 01 00 4a 9b 00 80 30 bc 00 00
       -1.66379e-40 1.24767e-40 -5.5707e-41 6.7509e-41
0003b0 be f4 01 80 ce e1 01 80 f6 aa 01 80 a4 05 01 00
       -1.79632e-40 -1.72839e-40 -1.53165e-40 9.3859e-41
0003c0 dd 3a 00 80 bd 4d 00 00 33 c9 01 00 e7 40 00 80
       -2.1116e-41 2.7887e-41 1.64012e-40 -2.3283e-41
0003d0 d3 f8 01 80 27 f0 00 00 0f 2b 02 00 5e 91 01 00
       -1.81097e-40 8.615e-41 1.99118e-40 1.43983e-40
0003e0 f7 93 00 00 52 bc 01 00 5f 2e 00 00 41 90 01 80
       5.308e-41 1.59392e-40 1.6635e-41 -1.43584e-40
0003f0 b0 b9 01 80 2d 49 02 80 ad 65 00 00 e4 45 00 00
       -1.58448e-40 -2.09922e-40 3.6474e-41 2.5072e-41
