onnx/VDSR_postpruning_l1filter_0.9.onnx (onnx, 135703 bytes, 20 tensors)

learned_0 f4 [7, 7, 3, 3]
0	0x3d6dee0d	0.05808835
1	0x3c35e854	0.011102755
2	0xbd4e88a7	-0.05042329
3	0x3e51f619	0.20504035
4	0xbd8380d2	-0.06421055
5	0xbb41246f	-0.002947118
6	0x3c9f1798	0.01942043
7	0xbc31bc69	-0.010848143
8	0x3cb7b618	0.022425696
9	0x3e06b01d	0.1315312
10	0xbda43532	-0.08017959
11	0xbde42453	-0.11139741
12	0xbdc19bf8	-0.09453577
13	0x3d12f240	0.03587556
14	0xbe0a3721	-0.13497593
15	0x3cce4bf0	0.025182694
16	0x3c2a30cb	0.01038761
17	0x3e1adcb0	0.15123248
18	0x3e4fee18	0.2030567
19	0xbd6a53ee	-0.057208948
20	0xbc2b0602	-0.010438444
21	0xbdef9dc8	-0.11700016
22	0xbcfc8436	-0.030824762
23	0xbe324baf	-0.17411683
24	0x3cea351c	0.028589778
25	0xba71aac9	-0.00092188694
26	0x3dcab872	0.098984614
27	0xbd1bdeb8	-0.038054198
28	0xbe0887fb	-0.13333122
29	0x3d00dbdd	0.031459678
30	0xbaf25c1b	-0.0018490584
31	0xbdc30d4e	-0.09524022
32	0x3e238629	0.15969147
33	0x3e59d279	0.21271695
34	0xbbb4eb15	-0.005521188
35	0x3e2d8630	0.1694572
36	0x3c4296ac	0.011876743
37	0xbd507270	-0.050890386
38	0x3c778253	0.015106755
39	0x3d6d4033	0.057922553
40	0x3d0c84d9	0.03430638
41	0xbdb0f167	-0.08639794
42	0xbdc64d7d	-0.096827485
43	0xbd31d856	-0.043419205
44	0x3d286958	0.04111609
45	0x3dd4c092	0.10388292
46	0x3db07334	0.08615723
47	0xbd0581a7	-0.03259435
48	0xbcb3d429	-0.021951752
49	0xbd7a8655	-0.061163265
50	0x3cf88382	0.030336145
51	0xbd28502f	-0.041092094
52	0xbd00d31f	-0.03145134
53	0x3cb1c1a6	0.021698784
54	0xbd9a30be	-0.07528828
55	0x3ddd5f26	0.10809164
56	0xbd15566c	-0.03645937
57	0x3dcf1aa4	0.10112503
58	0x3ba72541	0.0051008766
59	0xbd69b9e0	-0.05706203
60	0x3de25573	0.110514544
61	0x3d70d7f1	0.058799688
62	0x3ce6ad1d	0.028158719
63	0xbddd24cd	-0.10798035
64	0xbd7916b0	-0.060812652
65	0xbdaab1c5	-0.08334688
66	0x3dd31b22	0.103079095
67	0x3d6035fd	0.054738987
68	0xbdc8042e	-0.09766422
69	0xbcbcad25	-0.02303178
70	0x3dc562d6	0.09637992
71	0xbda22033	-0.07916298
72	0xbd723196	-0.05912932
73	0xbd72fbc4	-0.059322134
74	0xbd8ac8f8	-0.06776613
75	0x3d264616	0.040594183
76	0xbce311c4	-0.027718432
77	0xbcc8b884	-0.024502046
78	0xbdba14ce	-0.090859994
79	0x3ce12fd4	0.027488627
80	0xbd291e96	-0.041288935
81	0xbd889443	-0.06668904
82	0x3d9e6c8a	0.07735546
83	0x3d50bd66	0.050961874
84	0xb98b5984	-0.0002657884
85	0xbdc9318e	-0.09823905
86	0xbd177cac	-0.03698413
87	0xbd355922	-0.044274457
88	0x3d5275b9	0.0513818
89	0x3d63705b	0.055527072
90	0x3d588ed8	0.0528706
91	0x3dc36379	0.09540457
92	0xbddc133c	-0.10745856
93	0x3d294a59	0.04133067
94	0xbd81c85e	-0.06337045
95	0x3d3869b1	0.04502267
96	0xbd36f49d	-0.044666875
97	0xbdb6e194	-0.08929744
98	0xbd03781e	-0.032096975
99	0x3c9c46b9	0.019076692
100	0xbd02d7b2	-0.031943984
101	0x3c49e93f	0.012323677
102	0xbd819de7	-0.063289456
103	0xbda626fd	-0.08112905
104	0xbdb357ec	-0.08757004
105	0xbd93f73f	-0.07224893
106	0x3d2a0f95	0.041518766
107	0x3cdd6269	0.027024465
108	0x3c8cca39	0.017186271
109	0x3ce427e4	0.027851053
110	0xbb3751b7	-0.002797229
111	0x3daae8a9	0.08345158
112	0x3c18a050	0.009315565
113	0xbd44f000	-0.048080444
114	0xbd81382d	-0.06309543
115	0x3db81dc9	0.08990056
116	0x3d923f5c	0.07140991
117	0xbcc1d510	-0.023661166
118	0x3db61878	0.08891386
119	0x3d4a98d1	0.049462143
120	0x3d595b16	0.053065382
121	0xbd92b9bf	-0.071643345
122	0x3d78cdfa	0.06074331
123	0xbc326742	-0.010888876
124	0x3d5335d3	0.051565003
125	0xbdbb0ef2	-0.0913371
126	0xbe393e3c	-0.18090147
127	0x3e2384bf	0.15968607
128	0xbd3d1773	-0.04616494
129	0xbce83b49	-0.028348582
130	0xbc2019de	-0.009771792
131	0xbda90afc	-0.08254048
132	0x3e67d0e7	0.22638284
133	0xbcc96e73	-0.0245888
134	0xbdab9be4	-0.08379343
135	0x3dd3fd88	0.103510916
136	0x3e1c788d	0.15280361
137	0xbe07f4ec	-0.13277024
138	0x3d6dd2f3	0.058062505
139	0x3d873c7b	0.066033326
140	0x3e26fcf2	0.16307428
141	0xbdd5a865	-0.10432509
142	0x3e2fede2	0.17180589
143	0xbd9cae7f	-0.0765047
144	0xbc6c6686	-0.01442874
145	0x3e86c686	0.26323336
146	0x3d8ab359	0.06772489
147	0x3e9182f7	0.2842023
148	0xbd891b2c	-0.06694636
149	0xbda008ce	-0.07814179
150	0x3dd3403e	0.103149876
151	0x3e9a6e79	0.3016241
152	0x3c87c66a	0.016574103
153	0x3e244033	0.16040115
154	0x3d24a6fe	0.04019832
155	0xbe021ad6	-0.1270555
156	0x3d57016a	0.052491583
157	0x3c29dbf3	0.010367381
158	0x3e2d1170	0.16901183
159	0xbe04090e	-0.12894079
160	0xbe395839	-0.1810006
161	0x3e4db2fa	0.20087805
162	0xbd200787	-0.03906968
163	0xbd9219e0	-0.071338415
164	0x3d71e32c	0.05905454
165	0x3cf206e9	0.02954431
166	0xbda34c1d	-0.07973502
167	0x3de931a0	0.11386418
168	0xbd0b9170	-0.034074247
169	0xbc84f371	-0.016229363
170	0xbd3dcf5f	-0.046340343
171	0x3ac0406d	0.0014667638
172	0x3d3504b3	0.044193935
173	0xbdc7d8ec	-0.097581714
174	0xbd5374e8	-0.051625162
175	0x3ddee2f0	0.10883129
176	0xbdbaac06	-0.09114842
177	0x3d0993cf	0.033588227
178	0x3d02e795	0.031959135
179	0xbdcaf204	-0.09909442
180	0x3c6edfc6	0.014579719
181	0x3d8bdd07	0.06829267
182	0x3d9d5231	0.076816924
183	0xbcf1f985	-0.029537925
184	0x3da55d2e	0.08074413
185	0x3cbdc3d6	0.02316467
186	0xbc848dfe	-0.016180988
187	0x3d1b6d22	0.037945874
188	0x3d8577a0	0.06516957
189	0x3f07594b	0.52870625
190	0xbdcb5733	-0.09928741
191	0xbddeabcb	-0.10872611
192	0x3de4442e	0.11145817
193	0xbdda9b1f	-0.10674118
194	0x3dfff4f5	0.12497894
195	0xbe30fca0	-0.17283869
196	0x3ee2254c	0.4416908
197	0x3d29df06	0.041472457
198	0xbead4604	-0.3384248
199	0xbdb0db83	-0.086356185
200	0x3c5acdbf	0.013354718
201	0x3e6bd6ae	0.23031113
202	0x3e9bd799	0.30437925
203	0xbe07612c	-0.13220662
204	0x3e5ff559	0.21870936
205	0x3e2c2623	0.16811423
206	0x3d9edb04	0.07756618
207	0xbe0fa63c	-0.14028257
208	0xbd64ae67	-0.055830386
209	0xbddd323b	-0.10800596
210	0x3db7f319	0.08981914
211	0x3f46388b	0.7743003
212	0xbe796ae2	-0.24357179
213	0xbe8d9e11	-0.27659658
214	0x3d44ce25	0.048048157
215	0xbe55045a	-0.20802441
216	0xbe3e7543	-0.1859942
217	0x3ced0b6f	0.028936116
218	0x3e44714c	0.19183844
219	0xbcbeaf08	-0.02327682
220	0xbde99da2	-0.11407019
221	0x3ea1ae4c	0.3157829
222	0x3d39c904	0.04535772
223	0x3cd4183a	0.025890458
224	0xbc1abfbf	-0.00944513
225	0xbe3bedaa	-0.1835238
226	0x3c2563b7	0.010094575
227	0xbd0ecf82	-0.034865864
228	0xbd3551ce	-0.04426747
229	0xbd84d15b	-0.06485244
230	0xbca5f85a	-0.020260025
231	0x3da1e3ea	0.07904799
232	0x3c994d66	0.018713664
233	0xbc20e9c5	-0.00982136
234	0x3d505445	0.050861616
235	0xbc83346c	-0.016016208
236	0x3b2a9180	0.0026026666
237	0x3c1bc565	0.009507512
238	0x3d86aaaf	0.06575524
239	0x3d380432	0.044925876
240	0xbc0ff7fb	-0.0087871505
241	0x3cfa0e25	0.030524323
242	0xbd9ba400	-0.0759964
243	0x3d828a80	0.06374073
244	0xbd1e4b07	-0.03864577
245	0xbce214e2	-0.027597848
246	0xbd7965d2	-0.06088812
247	0x3d67b0ff	0.05656528
248	0xbcba5212	-0.022744212
249	0xbda36943	-0.079790615
250	0xbd3e96dd	-0.046530593
251	0x3dcb947d	0.09940431
252	0x3d95ba1b	0.073108874
253	0x3d937a6a	0.07201083
254	0xbdc72bed	-0.09725175
255	0xbb92c621	-0.004479185

learned_1 f4 [7, 7, 3, 3]
0	0x3d8b556b	0.068034016
1	0xbe14868e	-0.14504454
2	0xbdd18278	-0.10229963
3	0x3d05ff5c	0.032714233
4	0x3da257a4	0.079268724
5	0xbd108080	-0.035278797
6	0x3e0d4dfb	0.13799278
7	0x3d67839f	0.056522008
8	0x3dec0e5a	0.11526175
9	0x3d943741	0.07237101
10	0x3d17159d	0.036885846
11	0xbdb8456e	-0.08997618
12	0x3d58d037	0.052932944
13	0xbdc71ca4	-0.0972226
14	0x3d9900f0	0.07470882
15	0x3d34c5b1	0.044133846
16	0x3c78eb7d	0.0151928635
17	0xbc82ac56	-0.015951317
18	0xbd8568a1	-0.06514097
19	0x3c55cef2	0.013049828
20	0xbd2314f5	-0.039814908
21	0x3d3c4fe6	0.045974635
22	0x3dc1a5a5	0.09455422
23	0xbe436711	-0.19082285
24	0xbca0fe47	-0.019652499
25	0x3cf67484	0.030084856
26	0xbd9ab4f2	-0.07554044
27	0x3dfae465	0.12250594
28	0x3d8e1c48	0.06938988
29	0xbd28d3ad	-0.041217495
30	0x3cf80b19	0.03027873
31	0x3d483aac	0.04888408
32	0x3daed9e6	0.085376546
33	0xbe1b6ab1	-0.15177418
34	0x3d8808ce	0.06642304
35	0xbd280b6b	-0.041026514
36	0x3d2cee67	0.042219546
37	0x3e1f4cbe	0.15556619
38	0xbd6c56a4	-0.057699814
39	0xbd39a4b1	-0.045323078
40	0x3e0c7459	0.13716258
41	0xbda481a8	-0.080325425
42	0x3d15d289	0.036577735
43	0x3db14157	0.08655041
44	0xbe1f3585	-0.1554776
45	0xbdc743ca	-0.097297266
46	0x3cbcfe9e	0.02307063
47	0x3bbc1415	0.0057396987
48	0x3db335a9	0.08750469
49	0xbb01ac30	-0.001978647
50	0xbdf3c91b	-0.11903592
51	0xbc24640f	-0.010033621
52	0xbcf997bc	-0.03046786
53	0x3db6cd62	0.089258924
54	0x3c7057e3	0.014669391
55	0xbcb6caec	-0.022313558
56	0xbd2b883e	-0.041877978
57	0xbce5bcb4	-0.028044082
58	0x3cfd5d6a	0.030928332
59	0xbb195942	-0.002339915
60	0xbd4e7a27	-0.050409462
61	0x3d39e9a6	0.04538884
62	0x3d3e7389	0.0464969
63	0x3e031084	0.12799269
64	0x3e38d5f0	0.1805036
65	0xbae837ae	-0.0017716789
66	0xbd4ebe28	-0.050474316
67	0x3dc7ded0	0.09759295
68	0xbd6ee800	-0.05832672
69	0xbcea0c01	-0.028570177
70	0xbd3c832e	-0.04602354
71	0xbd3e669f	-0.046484586
72	0x3dc5d62d	0.096599914
73	0x3dd38cad	0.10329566
74	0xbca8dfb6	-0.020614486
75	0x3dca14ca	0.098672464
76	0x3c01c4c6	0.00792045
77	0xbd89f7ec	-0.067367405
78	0xbdb9e955	-0.09077708
79	0xbdade0e3	-0.08490159
80	0xbca3f94b	-0.020016333
81	0x3dbab29f	0.091161005
82	0x3a0656a4	0.0005124605
83	0x3dccf0a9	0.1000684
84	0x3e3eecd2	0.18645027
85	0xbd978a8e	-0.07399474
86	0x3d8f4471	0.06995476
87	0x3eaa637d	0.3327903
88	0xbd8150de	-0.06314252
89	0xbe567a4c	-0.2094509
90	0x3cb46868	0.022022441
91	0x3ca65478	0.02030395
92	0xbe2bbe58	-0.16771829
93	0x3d622a9c	0.055216417
94	0x3e559064	0.20855862
95	0x394fd472	0.000198202
96	0xbe534e0a	-0.20635238
97	0xbde421de	-0.11139272
98	0x3e85399c	0.26020515
99	0xbd3442af	-0.044008907
100	0x3d5d830f	0.054080065
101	0x3e0095ce	0.12557146
102	0x3e601c7b	0.21885864
103	0xbd588787	-0.052863624
104	0xbdb590f3	-0.088655375
105	0xbe4391aa	-0.19098535
106	0x3998026e	0.0002899351
107	0xbcae0dcb	-0.021246811
108	0xbdcfedb2	-0.10152759
109	0x3dc7dca3	0.0975888
110	0x3d97a2d5	0.074041046
111	0xbd08795e	-0.03331887
112	0x3ce90268	0.02844353
113	0x3bf42ea3	0.0074518486
114	0x3c8ad513	0.016947305
115	0xbd346e20	-0.044050336
116	0x3d0ac71d	0.033881295
117	0xbce4a6bf	-0.027911542
118	0x3d93e435	0.072212614
119	0xbd097b3d	-0.033564795
120	0x3d88e6f8	0.06684679
121	0x3cf40ccc	0.029791258
122	0xbd4d1311	-0.05006701
123	0x3c1c4ac5	0.009539311
124	0x3d70cf3e	0.05879139
125	0xbc1c8c67	-0.009554959
126	0xbc0e3fe4	-0.008682225
127	0x3e10e839	0.14151086
128	0x3d8cb166	0.068697736
129	0xbc982fa4	-0.018577404
130	0x3df8a415	0.12140671
131	0xbe718b11	-0.23588206
132	0x3e4fd0f4	0.20294553
133	0x393ae832	0.00017824842
134	0xbd9e9fbb	-0.0774531
135	0x3d2909c9	0.041269097
136	0x3cde2580	0.02711749
137	0xbbed50ba	-0.0072422894
138	0xbd836c40	-0.064171314
139	0x3d5561e8	0.052095324
140	0x3ddcc3d5	0.107795395
141	0x3d6f9d1b	0.058499437
142	0x3aa0b636	0.0012261334
143	0xbd99364b	-0.07481059
144	0xbd6d1444	-0.057880655
145	0x3d815abe	0.06316136
146	0x3ce1fa86	0.02758528
147	0xbd0c32b9	-0.03422806
148	0x3e40d17e	0.18829915
149	0xbb90e55e	-0.004421874
150	0xbd2897ab	-0.041160267
151	0x3e8b4544	0.27201283
152	0x3e212f91	0.15740801
153	0xbe46865d	-0.19387193
154	0x3e23fea1	0.16015102
155	0x3e47f9fa	0.19528952
156	0x3e6fe6e2	0.23427919
157	0x3dbd452b	0.09241708
158	0x3e278675	0.16359885
159	0xbeac287d	-0.3362464
160	0xbdccd630	-0.100017905
161	0xbd9e898e	-0.0774108
162	0xbde48ec1	-0.11160041
163	0x3e490c51	0.19633605
164	0x3cbd2d7e	0.023092981
165	0x3d1636df	0.036673423
166	0x3e3c86a0	0.1841073
167	0x3db6c3de	0.089240775
168	0xbd265431	-0.040607635
169	0xbc2156bd	-0.00984734
170	0xbcfa81c0	-0.030579448
171	0x3d1a8094	0.037720278
172	0xbc605d96	-0.013694188
173	0x3d01c9a5	0.031686444
174	0xbd4b8310	-0.049685538
175	0xbdab0470	-0.08350456
176	0x3d860dac	0.065455765
177	0x3d63da9f	0.055628415
178	0x3d94d888	0.072678626
179	0xbd12ab23	-0.03580774
180	0xbd8ef4b0	-0.06980264
181	0x3be7ee45	0.0070779645
182	0x3d653db5	0.05596705
183	0xbc471201	-0.012150289
184	0xbde60fb2	-0.112334624
185	0xbd436195	-0.047700483
186	0x3d40bcec	0.04705517
187	0x3da86d5f	0.08223986
188	0x3d636c04	0.055522934
189	0xbce471e4	-0.027886339
190	0xbd65069d	-0.05591451
191	0xbcde5b10	-0.027143031
192	0x3de318a2	0.11088683
193	0x3dbb2800	0.09138489
194	0x3d65871b	0.05603705
195	0xbc8b0582	-0.0169704
196	0xbdcb88cd	-0.09938202
197	0x3d2c022c	0.04199426
198	0x3d71b4fa	0.059010483
199	0xbb88233a	-0.00415459
200	0xbde356be	-0.11100529
201	0x3dda3f71	0.10656632
202	0xbcd77b0e	-0.026303794
203	0xbdd2c658	-0.10291737
204	0xbd7e202c	-0.0620424
205	0x3d5dddea	0.054166712
206	0x3c24db96	0.010062119
207	0xbd950e99	-0.07278175
208	0xbdc98aea	-0.09840949
209	0xbc2644d4	-0.010148246
210	0xbd7d2c2d	-0.061809707
211	0x3d9b7dca	0.07592352
212	0xbd2ac43e	-0.041691057
213	0xbd26135c	-0.040545806
214	0xbd7de31c	-0.061984167
215	0xbdc3d46d	-0.095620014
216	0xbd7c14cf	-0.061543282
217	0x3d853c8c	0.06505689
218	0xbd66addf	-0.05631816
219	0xbd27b739	-0.04094622
220	0xbcba83db	-0.022767952
221	0xbdcd4b65	-0.10024146
222	0xbd3fccd3	-0.046826195
223	0xbd631d23	-0.05544771
224	0xbda85c91	-0.08220781
225	0x3de77cb9	0.11303086
226	0x39eaab79	0.00044759715
227	0xbd326ac8	-0.043558866
228	0xbddd1bb2	-0.10796298
229	0x3dce48bb	0.10072466
230	0x3db8c5bb	0.09022089
231	0xbd94843f	-0.072517864
232	0xbc177b97	-0.009245775
233	0xbdd506d5	-0.10401694
234	0xbd1afd3b	-0.037839156
235	0x3bc964db	0.006146056
236	0x3caa1662	0.020762626
237	0xbd480fd1	-0.04884321
238	0xbd9a2c8f	-0.0752803
239	0x3c24daf2	0.010061966
240	0xbd95a7aa	-0.0730737
241	0xbd6142ec	-0.054995462
242	0x3d06f585	0.03294899
243	0x3c2fbe89	0.010726579
244	0xbd9ba7d2	-0.076003686
245	0xbc00baa1	-0.007856996
246	0xbc994069	-0.018707471
247	0xbdaf628c	-0.08563718
248	0x3d4ed7e3	0.050498854
249	0x3d6a5d35	0.057217795
250	0xbd7db089	-0.061935935
251	0x3cdc2ff2	0.02687833
252	0x3e07914e	0.13239023
253	0xbdf975e9	-0.12180693
254	0xbd19bf12	-0.037535734
255	0xbcb1e3d4	-0.021715082

learned_2 f4 [7, 7, 3, 3]
0	0x3b231fce	0.0024890783
1	0x3b85aca6	0.004079419
2	0x3be1c315	0.0068897107
3	0x3d610bd6	0.05494293
4	0x3e03eae3	0.12882571
5	0xbe12185e	-0.14267108
6	0x3e16d930	0.14731288
7	0xbdbc548e	-0.09195815
8	0xbd463dc3	-0.048398744
9	0xbd9bf53b	-0.076151334
10	0x3bfdea7b	0.0077488995
11	0xbe27314d	-0.163274
12	0xbe1ce869	-0.15323032
13	0x3d21260c	0.039342925
14	0xbddfdabf	-0.109303944
15	0x3e031580	0.1280117
16	0xbe198f67	-0.1499611
17	0x3ec57e42	0.3857289
18	0xbe5ae4c3	-0.21376328
19	0x3db63db3	0.08898487
20	0x3e2a9310	0.16657662
21	0xbdab3cda	-0.08361216
22	0xbd598d26	-0.053113125
23	0xbe446ef6	-0.19182953
24	0xbd17bdfb	-0.037046414
25	0x3eb21308	0.34780145
26	0x3e29fa4a	0.16599384
27	0xbc348b34	-0.011019517
28	0xbd9577b0	-0.07298219
29	0x3d769918	0.060204595
30	0x3b7dc384	0.0038721273
31	0x3dbfb58a	0.09360798
32	0xbc1b70e7	-0.009487367
33	0x3ddbc385	0.10730652
34	0x3db0244e	0.086006746
35	0x3d40e10e	0.04708963
36	0x3dfa45c9	0.12220342
37	0x3dff39c9	0.124621935
38	0x3dd3515b	0.10318252
39	0x3d77cb98	0.060496897
40	0x3c39877b	0.011323805
41	0xbdb1284b	-0.086502634
42	0x3d60dfab	0.054900806
43	0xbd0e6434	-0.03476353
44	0x3dde3373	0.10849657
45	0xbde760fc	-0.11297795
46	0x3d9685d3	0.07349744
47	0xbdb60d05	-0.08889202
48	0x3d8b9c9c	0.0681698
49	0xbd5872f0	-0.052843988
50	0xbbf87ef4	-0.0075834934
51	0x3dc5956e	0.09647642
52	0xbda92640	-0.08259249
53	0x3cf6ad75	0.030112008
54	0x3e7d297d	0.24722858
55	0xbea370fd	-0.3192214
56	0x3e5f63ed	0.21815462
57	0x3d22deb1	0.039763156
58	0xbed51b07	-0.41622183
59	0x3f190552	0.59773743
60	0x3e1a20af	0.1505153
61	0x3e06010d	0.13086338
62	0xbd0ab9dd	-0.03386866
63	0xbd791478	-0.060810536
64	0xbbf35072	-0.0074253613
65	0xbde6bcf7	-0.11266511
66	0x3e016194	0.1263488
67	0x3dbd7c6f	0.092522494
68	0x3c201d25	0.009772574
69	0xbd98bd1f	-0.07457947
70	0x3e0548e0	0.13016081
71	0xbdc7dee7	-0.09759312
72	0xbc20a215	-0.009804268
73	0xbd7947a5	-0.06085934
74	0xbb5e48af	-0.0033917835
75	0x3b6d89ea	0.0036245533
76	0x3d80c4c5	0.06287531
77	0xbbbaf69d	-0.005705668
78	0xbd9b69fc	-0.07588574
79	0xbd8ea0fd	-0.069643
80	0xbda07856	-0.07835452
81	0x3d6e2ccb	0.058148187
82	0x3d78b770	0.060721815
83	0x3cb99579	0.022654282
84	0x3d51d8c4	0.051232114
85	0xb90c931a	-0.0001340624
86	0x3e354f03	0.17705922
87	0x3c9b80a1	0.018982233
88	0x3d9914c4	0.07474664
89	0x3e46781b	0.19381754
90	0xbbaa37a6	-0.005194622
91	0xbd23589d	-0.03987943
92	0x3be2c59f	0.006920531
93	0x3dd4645c	0.103707045
94	0x3d32d83c	0.04366325
95	0x3d0fac62	0.035076506
96	0xbdb5eff3	-0.08883657
97	0x3bd48e1a	0.0064866664
98	0xbd5ebe1b	-0.054380517
99	0x3d3fc6f0	0.04682058
100	0x3e0662b6	0.13123593
101	0x3d872f63	0.06600835
102	0x3dc456b1	0.095868476
103	0xbd89bfb4	-0.067260176
104	0x3dd2e0e3	0.102968
105	0x3d1ba064	0.037994757
106	0x3da040ed	0.078248836
107	0x3d88098d	0.06642447
108	0xbd680f34	-0.056655124
109	0x3dd4ba18	0.10387057
110	0x3b188272	0.002327111
111	0x3d2f1dff	0.042753216
112	0x3d67ac76	0.056560956
113	0x3d7e8a25	0.062143464
114	0x3d742f14	0.05961521
115	0x3d8cca15	0.068744816
116	0x3d27ef9f	0.041000005
117	0xbdf6138c	-0.12015447
118	0x3d1b5852	0.037926026
119	0xbd9ad7e7	-0.07560711
120	0xbe861d33	-0.26194152
121	0x3cb4dab2	0.022076938
122	0xbd8ec547	-0.069712214
123	0xbd57d1df	-0.052690383
124	0xbe351ac2	-0.17685989
125	0xbe354fc0	-0.17706203
126	0xbdbd9e5a	-0.09258719
127	0x3dbd280e	0.092361555
128	0xbdd66e05	-0.10470203
129	0x3d202b85	0.039104003
130	0xbd0c1937	-0.034203734
131	0x3da82761	0.08210636
132	0x3d65a881	0.0560689
133	0x3c8cd383	0.0171907
134	0x3c9f4f96	0.01944713
135	0xb9f9f4ec	-0.00047675462
136	0x3dac684c	0.084183306
137	0xbc9bacc0	-0.019003272
138	0xbd3be55b	-0.045873027
139	0xbd9c2218	-0.0762369
140	0xbd01ac2e	-0.031658344
141	0xbd324df6	-0.04353138
142	0x3d2b58ef	0.04183286
143	0x3d8d16a8	0.06889087
144	0x3d899a35	0.06718866
145	0xbda398c7	-0.07988124
146	0xbdc900bb	-0.098145925
147	0xbde7478d	-0.11292944
148	0xbb1fc341	-0.0024377855
149	0xbca207f6	-0.019779187
150	0xbd8c14a7	-0.068398766
151	0xbc8ba967	-0.01704855
152	0xbda737e9	-0.08164961
153	0xbd810054	-0.06298891
154	0x3d825b55	0.063650765
155	0x3db73963	0.089464925
156	0x3db6da31	0.089283355
157	0x3c51a382	0.012795331
158	0xbdc84315	-0.0977842
159	0x3d3ee75a	0.046607353
160	0xbdd5d026	-0.10440092
161	0x3ca6eb5a	0.020375896
162	0x3d9e9db3	0.077449225
163	0x3c9a619f	0.018845377
164	0xbc808ead	-0.015693033
165	0x3d9cc33a	0.07654424
166	0xbdd5acbb	-0.10433336
167	0x3dcf4ba8	0.10121852
168	0xbd611beb	-0.054958265
169	0xbd980485	-0.07422737
170	0x3dd38780	0.10328579
171	0x3dc821e2	0.09772088
172	0xbde93431	-0.11386908
173	0x3dc296c1	0.0950141
174	0xbd686df9	-0.056745503
175	0xbce8407c	-0.028351061
176	0xbdb8a09b	-0.09015008
177	0x3d29cdd6	0.041456066
178	0x3d2d1f52	0.042266198
179	0x3c931f54	0.017959274
180	0x3d81fc51	0.06346954
181	0xbdae74ed	-0.085183956
182	0xbb77ea12	-0.0037828726
183	0xbdc0f0fa	-0.09420963
184	0xbdf7fae9	-0.12108404
185	0xbcf9a140	-0.030472398
186	0x3c647575	0.01394402
187	0x3c47d5b2	0.012196945
188	0x3d65c987	0.056100395
189	0x3e0a8d88	0.13530552
190	0xbd9c7545	-0.07639555
191	0xbd3158ab	-0.04329745
192	0xbbf424b5	-0.007450665
193	0x3d8046dc	0.06263515
194	0x3dd17d96	0.10229032
195	0xbc408481	-0.011750341
196	0xbd1c66b8	-0.038183898
197	0xbe0f74fd	-0.14009471
198	0xbe4e3b55	-0.20139821
199	0x3d7669de	0.060159557
200	0x3e77ca37	0.24198233
201	0x3caff250	0.021477848
202	0xbdc3baee	-0.095571384
203	0x3d971cea	0.07378562
204	0xbdcc62d9	-0.09979791
205	0xbdd23ac6	-0.102651164
206	0xbd4345a4	-0.047673836
207	0x3dcf142a	0.10111268
208	0x3dff9913	0.124803685
209	0x3f031747	0.51207393
210	0xbd00d611	-0.03145415
211	0xbdde7858	-0.108627975
212	0x3cb19151	0.021675738
213	0xbe73e9e8	-0.23819697
214	0xbe80570a	-0.25066406
215	0x3e4c608e	0.19958708
216	0xbd4bc92a	-0.049752392
217	0x3c1f8155	0.009735425
218	0xbd6a7f3f	-0.057250258
219	0x3d5caaab	0.0538737
220	0xbd909096	-0.070588276
221	0xbbb63da8	-0.005561549
222	0xbd4bdb0d	-0.04976945
223	0x3d1ebfb4	0.03875704
224	0x3d3fdcb0	0.046841323
225	0xbd4e6eff	-0.050398823
226	0x3d520df9	0.051282857
227	0x3d46e7bc	0.048560843
228	0xbd39dcce	-0.04537659
229	0x3ddc3e86	0.10754113
230	0x3de5358b	0.11191853
231	0xbdd29598	-0.10282439
232	0x3d375435	0.04475804
233	0x3ca087a4	0.019595928
234	0xbbf54f38	-0.0074862503
235	0x3d9dc9ff	0.07704543
236	0x3d9f35dd	0.077739455
237	0xbd7aa881	-0.061195854
238	0xbda8a08b	-0.08233746
239	0x3c651a7a	0.013983363
240	0x3df70fe0	0.12063575
241	0xbbebb013	-0.0071926205
242	0xbdd975b9	-0.10618157
243	0x3ec3e9cb	0.38264307
244	0xbcef1bb5	-0.029188016
245	0xbe1ab613	-0.15108518
246	0xbaea60cb	-0.001788163
247	0xbe659d3e	-0.22423264
248	0xbd061ec5	-0.032744188
249	0xbe8302d7	-0.25588104
250	0x3dbd3ef3	0.09240522
251	0x3e55a0dc	0.20862144
252	0x3c601c5f	0.013678639
253	0xbda6f307	-0.081518225
254	0x3d756f49	0.059920583
255	0xbdb83afc	-0.089956254

learned_3 f4 [7, 7, 3, 3]
0	0xbc725325	-0.014790331
1	0x3d9d9b3c	0.07695624
2	0xbd9dd154	-0.07705942
3	0xbc481388	-0.012211688
4	0xbd960c68	-0.07326585
5	0x3ca4c5b0	0.020113796
6	0xbd0db214	-0.034593657
7	0xb7a6d37c	-1.9887222e-05
8	0x3d5ae295	0.05343874
9	0xbdb9335f	-0.090430014
10	0xbd25c916	-0.040474974
11	0xbdb4605b	-0.08807441
12	0xbba1cfef	-0.0049381177
13	0xbd801943	-0.06254818
14	0xbdaf4b43	-0.08559277
15	0xbc87dc98	-0.01658468
16	0x3c665af1	0.014059768
17	0xbd0e0018	-0.03466806
18	0xbd8e51a2	-0.06949164
19	0xbda35289	-0.07974727
20	0x3dab874c	0.08375415
21	0xbdc79d5a	-0.09746809
22	0x3de2b69e	0.11069988
23	0xbddcded6	-0.1078469
24	0xbc4d78f0	-0.012541041
25	0x3dd94dc7	0.10610538
26	0x3dd3cea7	0.1034215
27	0xbb85f5d1	-0.0040881415
28	0xbdbd0cef	-0.092309825
29	0xbd74228a	-0.05960325
30	0xbdce462d	-0.10071979
31	0xbd3d3e30	-0.046201885
32	0xbda5be09	-0.08092887
33	0x3d80ba6b	0.062855564
34	0xbdc2d860	-0.095139265
35	0x3d311105	0.04322912
36	0xbddf7c0c	-0.10912332
37	0xbd3da554	-0.046300247
38	0xbd32a842	-0.043617494
39	0x3c6964ee	0.014245255
40	0x3c57d5f8	0.013173573
41	0x3a90c7ed	0.0011045911
42	0xbdc81ab1	-0.09770716
43	0xbd7c1ee9	-0.061552916
44	0xbd15ac2d	-0.036541153
45	0x3d5ecbcc	0.054393575
46	0xbc9f9622	-0.019480769
47	0x3d2e77a7	0.042594578
48	0xbd0afbc6	-0.033931516
49	0x3cbd4b03	0.023107057
50	0xbc8b026a	-0.016968925
51	0x3cab7e45	0.020934233
52	0xbd66a73e	-0.05631184
53	0xbd234275	-0.0398583
54	0xbd35c759	-0.044379566
55	0x3da3b451	0.07993377
56	0x3dd8b8cc	0.10582122
57	0xbdd10d6a	-0.10207637
58	0x3d9b9bd5	0.07598082
59	0xbd0eee1e	-0.034895055
60	0x3c0dee4c	0.008662771
61	0x3cb314f4	0.021860577
62	0x3dc6615a	0.09686537
63	0xbddc4813	-0.107559346
64	0xbcf41826	-0.029796671
65	0x3e1e997c	0.15488237
66	0xbddd28cb	-0.10798796
67	0x3e291ba3	0.16514449
68	0x3e127ad8	0.14304674
69	0xbd8c7ee3	-0.06860139
70	0xbe0bc0fa	-0.13647833
71	0xbdbb6cbd	-0.091515996
72	0x3db8443d	0.089973904
73	0x3db94eed	0.09048257
74	0x3d7f1b4b	0.062281888
75	0x3d4fb8c6	0.050713323
76	0xbd981939	-0.07426686
77	0xbd728097	-0.059204664
78	0x3d52c1cc	0.05145435
79	0x3d57b11c	0.05265914
80	0xbd1d4afa	-0.03840158
81	0x3d676de2	0.056501277
82	0xbd9db857	-0.07701176
83	0xbd17b7cb	-0.037040513
84	0xbd7fd45c	-0.06245838
85	0xbcad245f	-0.021135507
86	0xbd4114f6	-0.04713913
87	0x3cfc7f3e	0.030822393
88	0x3c8f454e	0.017489102
89	0xbd89857d	-0.06714914
90	0xbd9fd2a8	-0.07803851
91	0x3db5cf74	0.08877459
92	0xbd99b4f1	-0.07505215
93	0xbd9043b0	-0.0704416
94	0x3ddcdf9e	0.10784839
95	0x3b9d9f6e	0.0048102653
96	0xbe025e5a	-0.12731305
97	0xbdfd414a	-0.123659685
98	0x3c64c4f6	0.013962975
99	0x3ddba877	0.107254915
100	0x3c39635f	0.011315196
101	0x3d6eb9ab	0.058282536
102	0xbe53b1a7	-0.20673238
103	0x3d7a3940	0.061089754
104	0x3e18afb8	0.14910781
105	0x3d19fbb8	0.037593573
106	0xbe244f67	-0.16045915
107	0xbd22a851	-0.0397113
108	0xbcfe1e10	-0.031020194
109	0xbd66ead6	-0.0563763
110	0x3bb40b00	0.0054944754
111	0x3b0e1499	0.0021679758
112	0xbdb294ef	-0.08719813
113	0xbd84f82a	-0.06492646
114	0xbd925365	-0.071448125
115	0xbdc3af75	-0.0955495
116	0xbdc13d1f	-0.09435486
117	0xbd8050a7	-0.06265383
118	0xbb97e574	-0.0046355072
119	0xbd9186ba	-0.07105775
120	0xbd54252c	-0.051793262
121	0x3d1ceeeb	0.038313787
122	0x3d03a14f	0.032136258
123	0x3cb984fb	0.022646418
124	0xbd57f87c	-0.052727208
125	0x3cb4dbcc	0.022077464
126	0x3e552af9	0.20817174
127	0xbe2a5777	-0.16634928
128	0x3e96530c	0.29360235
129	0x3efcc213	0.49366817
130	0x3d8848e0	0.06654525
131	0xbceab81e	-0.028652247
132	0xbd0844f2	-0.033268876
133	0xbe91437c	-0.283718
134	0xbdaae450	-0.083443284
135	0x3db0962f	0.08622395
136	0xbe34bf0f	-0.17651008
137	0xbe2eba2c	-0.17063206
138	0x3df83e8b	0.12121304
139	0x3d179cef	0.037014898
140	0xbe0fa01a	-0.14025918
141	0x3d17088c	0.036873385
142	0x3cbb982b	0.022899708
143	0x3d9b3e86	0.07580285
144	0x3c0ad888	0.008474477
145	0xbdd0204b	-0.101624094
146	0x3d8dde73	0.069271944
147	0xbca6b9ab	-0.020352205
148	0xbc370c7d	-0.011172411
149	0x3d1b4379	0.037906144
150	0x3ddc29de	0.10750173
151	0x3d0915c1	0.03346801
152	0xbc86bab6	-0.016446453
153	0x3c1dc2c7	0.009628958
154	0xbe25a950	-0.16177869
155	0x3d2b4523	0.04181398
156	0x3e41ce6e	0.18926403
157	0xbd4fe2e7	-0.0507535
158	0x3e2dd847	0.16977035
159	0xbe24ac3b	-0.16081326
160	0xbd4295a5	-0.047505993
161	0xbd75907a	-0.059952237
162	0x3e1e93da	0.15486088
163	0x3e9977df	0.29974267
164	0x3d321e28	0.04348579
165	0xbcba0652	-0.022708092
166	0x3e2bcb39	0.16776742
167	0x3ec67334	0.38759768
168	0x3d75006b	0.05981485
169	0xbe755bc4	-0.23960787
170	0xbdc46a4f	-0.09590589
171	0xbe842e2a	-0.2581647
172	0x3ec4f560	0.38468456
173	0xbd93fbba	-0.072257474
174	0xbe0fab1a	-0.14030114
175	0x3d40bca0	0.047054887
176	0x3e56ae02	0.20964816
177	0x3db01e3a	0.08599515
178	0x3ddd1ca0	0.107964754
179	0x3d2a61bb	0.04159711
180	0x3c94c1f5	0.018158892
181	0xbd1fd308	-0.039019614
182	0x3c8acf95	0.016944686
183	0xbdd7964d	-0.105267145
184	0xbda8e6bb	-0.08247133
185	0x3d151335	0.03639527
186	0x3c1741c0	0.009231985
187	0x3dd4acef	0.10384547
188	0x3d94d647	0.07267433
189	0x3e6cd18a	0.23126808
190	0x3bad6430	0.0052914843
191	0x3cb2baf4	0.021817662
192	0x3dd1a097	0.10235708
193	0xbe31801e	-0.17334029
194	0xbe125afe	-0.14292523
195	0xbdab4ef0	-0.083646655
196	0x3d6e0cec	0.058117792
197	0x3d8824cb	0.06647643
198	0x3dfbe70f	0.1229993
199	0x3dc4237d	0.09577081
200	0xbd8de5d5	-0.069286026
201	0x3d55bb91	0.05218083
202	0x3dd0339e	0.10166095
203	0xbcde4fe8	-0.027137712
204	0x3d438948	0.047738343
205	0x3cafbbb3	0.021451807
206	0x3d975d21	0.0739081
207	0x3d62df8b	0.05538897
208	0xbd95a55e	-0.07306932
209	0xbb4a1c43	-0.00308396
210	0x3ddc39cf	0.107532136
211	0x3dd11d5c	0.10210678
212	0x3d4198ac	0.04726474
213	0xbda153ed	-0.07877336
214	0x3d71fe0c	0.05908017
215	0xbcd14ed9	-0.025550293
216	0x3d04c5cf	0.032415207
217	0x3da9aeb0	0.08285272
218	0x3cc9d4b3	0.024637556
219	0x3e2be9a2	0.16788343
220	0x3dd56b94	0.104209095
221	0x3e8105e7	0.25199816
222	0x3db51201	0.088413246
223	0x3d2ea74b	0.04264001
224	0xbd2f43ff	-0.042789456
225	0x3cbcb5dc	0.023035936
226	0x3e835359	0.25649527
227	0x3ddb8729	0.10719139
228	0xbe65332f	-0.22382806
229	0xbe1b2f7c	-0.15154833
230	0xbe8dc0d9	-0.27686194
231	0x3e76b768	0.24093401
232	0x3d2f81c1	0.042848352
233	0xbcadcf82	-0.021217111
234	0xbe0f30b0	-0.13983417
235	0x3dc92419	0.09821338
236	0x3e0c66cb	0.13711087
237	0x3bde42e2	0.0067828754
238	0xbe5fc544	-0.21852595
239	0x3cf1aa7d	0.02950024
240	0x3e46463e	0.19362733
241	0x3daf6a10	0.08565152
242	0x3e0b647f	0.13612555
243	0x3d8027e4	0.062576085
244	0xbdce4e24	-0.10073498
245	0x3d1bebc5	0.038066644
246	0xbd6fcc86	-0.058544658
247	0xbbf303d8	-0.0074162297
248	0xbdc80cbd	-0.09768055
249	0xbd20a5eb	-0.03922073
250	0x3db3dec1	0.08782721
251	0xbd918933	-0.07106247
252	0xbe22c0aa	-0.15893808
253	0xbe3be029	-0.18347229
254	0x3d72aa24	0.05924429
255	0xbe08dcdb	-0.133655

learned_4 f4 [7, 7, 3, 3]
0	0x3d37b944	0.044854417
1	0x3b9deda8	0.0048195906
2	0x3dad04bb	0.08448168
3	0xbd186a83	-0.037210952
4	0xbd2fd285	-0.042925376
5	0xbd2a0a0b	-0.041513484
6	0xbc704e3c	-0.01466709
7	0x3dd566d5	0.10420004
8	0xbd068fcd	-0.032851983
9	0xbdc1c295	-0.09460942
10	0xbcd86bb3	-0.026418542
11	0xbdd7fceb	-0.10546287
12	0xbda1b92b	-0.07896646
13	0xbda3f354	-0.080053955
14	0xbce8f686	-0.028437864
15	0xbde13295	-0.10995976
16	0xbe328600	-0.1743393
17	0x3d291f5a	0.041289665
18	0x3c7b4cdb	0.015338148
19	0x3e864c39	0.26230028
20	0x3ea9d271	0.33168367
21	0x3bf873c6	0.0075821606
22	0xbe6737f9	-0.22579946
23	0x3e87d611	0.26530507
24	0x3e682139	0.22668923
25	0xbe5ad2ca	-0.21369472
26	0x3bc9bc3b	0.006156472
27	0x3c5a018c	0.013306033
28	0xbe305ebf	-0.17223643
29	0xbdf6b7e7	-0.12046795
30	0xbde5feef	-0.11230265
31	0xbe46f1db	-0.19428198
32	0x3e80b869	0.25140694
33	0x3e4b8780	0.19875908
34	0xbc363bda	-0.011122668
35	0x3db02213	0.08600249
36	0xbbf751e4	-0.007547604
37	0x3e72fb43	0.23728661
38	0x3dcfe4ba	0.10151048
39	0xbd0aecfc	-0.033917412
40	0xbd999d27	-0.075006776
41	0x3bb1cfa8	0.005426366
42	0xbd9907ad	-0.07472167
43	0x3dd30ef8	0.103055894
44	0xbda5fb06	-0.081045195
45	0xbd33243f	-0.04373574
46	0x3d86753a	0.06565328
47	0x3bb11ee5	0.0054052942
48	0x3d82d6da	0.06388636
49	0xbd49f1aa	-0.049302734
50	0xbd8af9a0	-0.067858934
51	0x3d197ba0	0.037471414
52	0xbd2562d5	-0.040377457
53	0x3dcc3100	0.099702835
54	0xbd351130	-0.044205844
55	0x3c998270	0.018738955
56	0xbe0215ba	-0.127036
57	0xbcde3e09	-0.02712919
58	0xbd0a9ac7	-0.033839013
59	0x3e93d818	0.28875804
60	0xbe126bb4	-0.14298898
61	0x3d142e06	0.036176704
62	0x3cfb6d33	0.030691719
63	0x3cfd7b11	0.030942472
64	0xbdc5f13c	-0.096651524
65	0xbdc4fb34	-0.09618226
66	0xbd9093b7	-0.07059424
67	0x3ddb92e4	0.107213765
68	0x3da1899e	0.078875765
69	0x3cc3d6a6	0.023906063
70	0x3d9c2d55	0.07625834
71	0xbd1d4327	-0.03839412
72	0x3d8f6862	0.07002331
73	0x3d371bbf	0.044704195
74	0xbd8bd54f	-0.06827795
75	0x3d4f4077	0.050598588
76	0x3e005c31	0.12535168
77	0x3d8c2f36	0.06844942
78	0xbd9fd082	-0.078034416
79	0xbcd189f5	-0.025578478
80	0x3d9635d8	0.07334489
81	0x3de64f5c	0.11245605
82	0x3d8826be	0.066480145
83	0x3de4d5c1	0.11173583
84	0xbe217c2f	-0.15770029
85	0xbe088b28	-0.13334334
86	0xbe817cc2	-0.25290495
87	0xbd3953ac	-0.04524581
88	0x3ce28a58	0.027653858
89	0xbe0e851e	-0.13917968
90	0xbd476009	-0.04867557
91	0x3d3d0bdc	0.046153888
92	0x3d79ec93	0.06101663
93	0xbc27416a	-0.010208467
94	0x3e42751a	0.18989983
95	0x3e8658a1	0.26239493
96	0xbe5d337b	-0.2160167
97	0x3d9bdece	0.07610856
98	0xbdd95b5c	-0.106131285
99	0x3bbe78bb	0.005812732
100	0x3d1a38c8	0.037651807
101	0x3be713da	0.007051927
102	0xbdd19f2b	-0.10235437
103	0x3dfeed24	0.12447575
104	0x3cd0ca4d	0.02548709
105	0x3e3da690	0.1852057
106	0x3e0ca289	0.13733877
107	0x3d692fd5	0.05693038
108	0x3dad956e	0.08475767
109	0x3d4d1f00	0.050078392
110	0xbc87467b	-0.0165131
111	0xbde42ae4	-0.11140993
112	0xbd0dd25a	-0.034624435
113	0x3d8785e0	0.066173315
114	0x3d5fb0e4	0.054612055
115	0x3d049864	0.032371894
116	0x3d8e1f16	0.06939523
117	0x3e9698ad	0.29413357
118	0x3db95cdb	0.09050914
119	0x3d605f5b	0.054778438
120	0xbd2b354d	-0.04179888
121	0x3da91ff2	0.08258046
122	0xbd8e94f1	-0.06962002
123	0xbc8f56ea	-0.017497499
124	0x3e37dd45	0.17955501
125	0x3ddcc75b	0.107802115
126	0x3d8f5671	0.06998909
127	0x3df5bc7c	0.11998841
128	0x3bc5c242	0.00603512
129	0x3d0c374c	0.034232423
130	0x3d3c3d8a	0.045957126
131	0x3d1cb08f	0.038254317
132	0xbdc1d394	-0.094641834
133	0xbd97f81f	-0.07420372
134	0xbdb3359b	-0.08750459
135	0xbb608e7a	-0.003426461
136	0xbdf6cd5c	-0.12050888
137	0x3d65361e	0.055959813
138	0xbe065398	-0.13117826
139	0xbdee8c87	-0.11647897
140	0x3d8d44bd	0.068978764
141	0xbc932496	-0.017961781
142	0x3bc1b8cb	0.0059119216
143	0x3d0d5889	0.03450826
144	0x3dfa7814	0.12229934
145	0x3e02e330	0.12781978
146	0xbde07943	-0.10960629
147	0x3e633abb	0.22190373
148	0x3e180347	0.14845
149	0xbdcc715c	-0.09982559
150	0xbb0df0f0	-0.0021658503
151	0x3e01443d	0.12623687
152	0xbd7360cd	-0.05941849
153	0xbde3e804	-0.11128238
154	0xbe0f4d63	-0.13994364
155	0xbddb1ea5	-0.10699204
156	0x3e138072	0.14404467
157	0x3de0b5fc	0.10972211
158	0xbdecf8f7	-0.11570924
159	0x3d9526c4	0.072827846
160	0x3cdac1fb	0.026703825
161	0xbbcf84e9	-0.006332983
162	0x3e371587	0.17879306
163	0x3e634993	0.22196035
164	0xbd893867	-0.06700211
165	0x3dead234	0.11465874
166	0xbcb25a85	-0.021771679
167	0x3c89db14	0.016828097
168	0xbda595c9	-0.0808521
169	0x3dcd75e1	0.10032249
170	0xbbb5e140	-0.0055505335
171	0x3d54f6bf	0.051993128
172	0xbd94ef82	-0.07272245
173	0x3953cb64	0.00020198297
174	0xbce6a49c	-0.028154664
175	0x3d355bc4	0.044276968
176	0x3c537920	0.012907296
177	0xbc1a0499	-0.00940051
178	0xbbbff2cf	-0.0058578025
179	0xbd9be09a	-0.07611199
180	0xbe03e50a	-0.1288034
181	0xbb357438	-0.002768768
182	0xbdcc17d8	-0.09965485
183	0xbd272af4	-0.040812448
184	0x3e9824f5	0.29715696
185	0x3dae7ace	0.08519517
186	0x3bbbb6c4	0.0057285745
187	0x3d91747c	0.07102296
188	0xbd862665	-0.06550292
189	0x3c99ab23	0.018758362
190	0x3cdbf7e5	0.026851604
191	0xbdc6fa13	-0.097156666
192	0xbd021bfc	-0.03176497
193	0xbd831ba7	-0.06401759
194	0x3d6f3f9e	0.05841028
195	0xbdcf5cd0	-0.101251245
196	0x3d8dbbb8	0.0692057
197	0x3d2c646f	0.04208797
198	0xbad6366c	-0.0016343123
199	0xbdc0e9a5	-0.09419564
200	0xbe1de997	-0.15421139
201	0xbd330ded	-0.043714453
202	0x3dcfbd01	0.101434715
203	0xbdeb9591	-0.11503137
204	0xbd781f36	-0.06057664
205	0xbbbc3016	-0.005743037
206	0xbe23efbf	-0.16009425
207	0xbe24b2c8	-0.16083825
208	0x3e267855	0.1625684
209	0x3e23d269	0.15998234
210	0xbecc35be	-0.39884752
211	0xbdfd45ce	-0.1236683
212	0x3ec9a482	0.39383322
213	0x3d723cf2	0.059140153
214	0x3da85301	0.08218957
215	0x3e1f3957	0.15549217
216	0x3d8f9ff1	0.07012928
217	0xbcfd59cb	-0.030926606
218	0xbe59306f	-0.21209882
219	0xbd5cedc1	-0.053937677
220	0xbc4ec358	-0.012619816
221	0x3dd2c1b6	0.10290854
222	0x3e78ed7a	0.2430934
223	0xbd677786	-0.05651047
224	0x3d4ac276	0.04950186
225	0x3d8160b1	0.063172705
226	0xbbd83caf	-0.006599031
227	0x3e351533	0.17683868
228	0x3defb50c	0.11704454
229	0xbddfca9d	-0.10927317
230	0xbd8da138	-0.06915516
231	0x3e4b7402	0.19868472
232	0x3ca1e2d5	0.019761482
233	0x3e28723a	0.16449824
234	0x3d05b418	0.032642454
235	0xbddde80c	-0.10835275
236	0x3cb8dbec	0.022565804
237	0xbc8cb559	-0.017176317
238	0xbc1c1fec	-0.009529095
239	0xbddf900b	-0.10916146
240	0xbd51f0bf	-0.051254984
241	0xbd3dc8da	-0.046334125
242	0x3d954635	0.072887816
243	0xbcbc839c	-0.023011975
244	0x3e69460a	0.22780624
245	0xbddb61fa	-0.10712047
246	0xbe11f0fd	-0.14252086
247	0xbe3c9d6e	-0.1841943
248	0x3d4dda91	0.05025727
249	0x3d574693	0.05255754
250	0xbc493326	-0.012280261
251	0x3db90b0b	0.090353094
252	0x3dad1df0	0.08452976
253	0x3df6117a	0.12015052
254	0xbd8bb2ed	-0.06821237
255	0xbd543e30	-0.05181712

learned_5 f4 [7, 7, 3, 3]
0	0xbe5422b8	-0.20716369
1	0xbdbba046	-0.09161429
2	0x3dff4d0f	0.1246587
3	0x3e7834d4	0.24238902
4	0xbc935108	-0.017982975
5	0x3c8edfe1	0.017440738
6	0x3dcbf600	0.0995903
7	0xbddbf1f5	-0.10739509
8	0x3e39d3e1	0.18147232
9	0xbdde1a42	-0.10844852
10	0xbe1493fa	-0.14509574
11	0x3de35ff7	0.11102288
12	0xbd92b226	-0.07162885
13	0x3e1cf51a	0.15327874
14	0xbc59f309	-0.013302573
15	0xbd119b97	-0.035548773
16	0xbb9cdea9	-0.0047872853
17	0x3c0e7da8	0.008696951
18	0xbd138aee	-0.036021166
19	0xbd7148ce	-0.058907323
20	0x3e0fa50a	0.14027801
21	0xbdc591dd	-0.09646962
22	0x3e13c50c	0.14430636
23	0x3e1cf51d	0.15327878
24	0xbc9ab479	-0.018884884
25	0x3e1d56f7	0.15365206
26	0x3d37b2af	0.04484814
27	0x3da49683	0.0803652
28	0x3e1f01d3	0.1552804
29	0xbc07813e	-0.00827056
30	0x3e007f27	0.12548505
31	0xbd1ab811	-0.037773196
32	0xbddb014d	-0.106936075
33	0xbd917dc9	-0.0710407
34	0x3db65090	0.08902085
35	0x3d507342	0.05089117
36	0x3e39a88b	0.181307
37	0xbd765a02	-0.060144432
38	0x3e5ae40c	0.21376055
39	0x3d064339	0.032778952
40	0xbdc84474	-0.097786814
41	0x3dee2162	0.11627461
42	0xbde53d58	-0.11193341
43	0x3e5755e0	0.21028852
44	0x3e688ae3	0.22709231
45	0xbbe1e084	-0.0068932194
46	0x3e56ad35	0.2096451
47	0x3b5c2f42	0.0033597504
48	0x3d7b3069	0.061325464
49	0x3d4ccbb9	0.049998973
50	0x3d0fe187	0.03512719
51	0xbc0886d0	-0.008332923
52	0xbd3b9c28	-0.04580322
53	0xbd526780	-0.051368237
54	0xbd619674	-0.055075124
55	0xbb974841	-0.0046167676
56	0xbd4447ab	-0.04791991
57	0xbdccd8dd	-0.10002301
58	0x39197bab	0.00014637287
59	0xbe3f929d	-0.18708272
60	0xbde0405a	-0.10949774
61	0x3d0ebde3	0.03484906
62	0x3d4edfc8	0.050506383
63	0x3e8650ec	0.26233613
64	0x3dde5c50	0.10857451
65	0x3db0e9cf	0.086383455
66	0x3db39c00	0.08769989
67	0xbe36b837	-0.1784371
68	0xbe6b1532	-0.22957304
69	0xbe87f7e5	-0.26556316
70	0xbcdc0010	-0.026855499
71	0x3e71e21b	0.23621409
72	0xbd9feebd	-0.078092076
73	0x3e1ef8c3	0.15524583
74	0x3cb867f1	0.0225105
75	0x3de42e67	0.11141663
76	0xbd72d645	-0.059286375
77	0xbd231303	-0.039813053
78	0xbddb3a82	-0.10704519
79	0xbe43f534	-0.19136506
80	0xbde82bdd	-0.11336491
81	0x3e3ec7fe	0.18630978
82	0x3e0e3c8b	0.13890283
83	0x3e3b44f8	0.18288028
84	0x3e5271d2	0.20551232
85	0xbd878acc	-0.0661827
86	0xbe03e5b4	-0.12880594
87	0x3d9d593d	0.076830365
88	0xbe8db98f	-0.27680632
89	0xbdeb5232	-0.11490287
90	0x3e6cd1a0	0.2312684
91	0xbda91429	-0.08255798
92	0xbe4fe86f	-0.2030351
93	0xbd5cec9d	-0.05393659
94	0xbce0dbf6	-0.027448636
95	0xbd245dea	-0.040128626
96	0xbe46e393	-0.1942275
97	0x3e6606f9	0.22463597
98	0x3e15ddfb	0.1463546
99	0xbde68eb6	-0.11257689
100	0x3de6bb97	0.11266249
101	0x3e185954	0.14877826
102	0xbd48c40f	-0.0490151
103	0x3e44468d	0.19167538
104	0x3d8b61d9	0.06805772
105	0xbd88af87	-0.06674104
106	0x3d6e9df4	0.058256105
107	0xbe05a4fe	-0.13051221
108	0xbe10fff6	-0.14160141
109	0x3e02fe71	0.12792374
110	0x3db75158	0.08951062
111	0x3c825685	0.015910396
112	0x3e84f884	0.25970852
113	0xbbec62aa	-0.00721391
114	0xbd8d1524	-0.06888798
115	0x3e435b75	0.19077857
116	0xbd4bc938	-0.049752444
117	0x3dc6d4bb	0.09708544
118	0xbe1137cc	-0.14181441
119	0xbe349659	-0.17635478
120	0xbd787095	-0.06065424
121	0xbd98f14b	-0.07467898
122	0xbc03c8ed	-0.00804351
123	0xbdebc854	-0.11512819
124	0xbd9a9914	-0.075487286
125	0x3d393a20	0.045221448
126	0xbd449863	-0.04799689
127	0xbe658ea8	-0.224177
128	0xbcb10ae5	-0.02161164
129	0xbd305f39	-0.04305956
130	0x3eadfff9	0.33984354
131	0x3e207845	0.15670879
132	0xbe989f11	-0.29808858
133	0x3db3fa19	0.08787937
134	0x3e6e0ce5	0.23247106
135	0xbd6bb097	-0.057541456
136	0xbce6f747	-0.028194083
137	0xbe26d0b1	-0.16290547
138	0x3e7a9fdf	0.24475048
139	0x3da8748a	0.08225353
140	0xbd8f74a9	-0.07004673
141	0xbda6c9e7	-0.081439786
142	0x3df44741	0.11927653
143	0xbdfb99c1	-0.122851856
144	0xbd01dd7f	-0.031705376
145	0xbe520943	-0.20511346
146	0x3c81e5f5	0.015856722
147	0xbd82daaa	-0.06389363
148	0xbe0f85e3	-0.14015917
149	0x3df808fc	0.12111089
150	0x3d907b41	0.07054759
151	0xbe358291	-0.17725588
152	0x3cddf32c	0.027093492
153	0x3c3e6c44	0.011622492
154	0x3c16b354	0.009198029
155	0x3daaadaf	0.08333909
156	0x3dbd037e	0.09229182
157	0x3ea02cd3	0.31284198
158	0x3e658c01	0.22416689
159	0xbeb7e6cc	-0.35918272
160	0xbdc24ecc	-0.094876856
161	0x3dd1e45d	0.10248635
162	0x3e246b09	0.16056456
163	0x3e30165b	0.17196028
164	0xbde5e796	-0.11225812
165	0x3defddde	0.1171224
166	0x3df5c7b2	0.120009795
167	0xbc90e721	-0.017688336
168	0xbe5744e9	-0.21022381
169	0xbda611f8	-0.08108896
170	0xbc7f96fd	-0.015599963
171	0x3cefadb6	0.029257637
172	0x3c93bd98	0.018034741
173	0xbd09f63d	-0.033682097
174	0xbdb655c2	-0.08903076
175	0xbcd884d2	-0.026430521
176	0xba70a766	-0.0009180218
177	0x3cd271a3	0.025688952
178	0xbd94a232	-0.07257499
179	0x3d842a3d	0.06453369
180	0xbcfbdd2a	-0.030745108
181	0x3cce5af0	0.025189847
182	0xbd35bdb1	-0.044370357
183	0x3d1f6837	0.038917746
184	0x3cee63f6	0.0291004
185	0x3e12b0e9	0.14325298
186	0xbe174d46	-0.14775571
187	0xbd9d8b63	-0.076926015
188	0x3db94ecd	0.09048233
189	0xbc070bbf	-0.008242547
190	0x3abe54ef	0.0014521162
191	0xbdecdcf2	-0.115655795
192	0xbe2a6dc7	-0.16643439
193	0xbdf7204c	-0.12066707
194	0x3dc8f2e1	0.098119505
195	0xbda55e19	-0.08074588
196	0xbd152954	-0.036416367
197	0x3df66a9a	0.120320514
198	0x3d8ace45	0.06777624
199	0xbde1882d	-0.110123016
200	0x3c18d465	0.009327983
201	0x3e5bf007	0.21478282
202	0x3e15a101	0.146122
203	0x3dd24ea6	0.10268907
204	0xbd637552	-0.055531807
205	0xbd95a97b	-0.073077165
206	0xbd9795dc	-0.0740163
207	0x3ea75046	0.3267843
208	0x3da4ddab	0.08050092
209	0x3d8a90a0	0.06765866
210	0x3d922b76	0.07137196
211	0xbe11d189	-0.14240088
212	0xbd9c884b	-0.07643183
213	0xbd935928	-0.071947396
214	0xbdce3436	-0.10068552
215	0xbe52edd0	-0.20598531
216	0xbe4942bc	-0.19654363
217	0xbd83bd83	-0.06432631
218	0xbc7d7b2f	-0.015471264
219	0xbd34e226	-0.044160984
220	0x3dcb4a54	0.09926286
221	0x3da3b90f	0.079942815
222	0xbe64c6b1	-0.2234142
223	0xbd92e742	-0.07173015
224	0xbc06d1a9	-0.008228698
225	0x3dd1338b	0.10214909
226	0xbd135d86	-0.035977863
227	0x3e13921e	0.14411208
228	0x3d66d131	0.056351844
229	0xb9d9aec8	-0.00041519688
230	0xbc97c473	-0.018526291
231	0xbaa4bd73	-0.0012568667
232	0x3ced8e35	0.028998474
233	0xbd0a4783	-0.033759605
234	0x3e43e6fd	0.19131084
235	0x3da9afee	0.08285509
236	0x3e139255	0.1441129
237	0x3e38b762	0.18038705
238	0x3e43b73d	0.19112869
239	0x3e6725f9	0.22573079
240	0xbc2c6ec1	-0.010524453
241	0x3dd7e750	0.10542166
242	0x3e05a5ea	0.13051572
243	0x3d828cec	0.06374535
244	0x3d9cc029	0.07653839
245	0x3dbfdf44	0.093687564
246	0x3db4138b	0.0879279
247	0xbd73a16e	-0.059480123
248	0xbcbb3efd	-0.022857184
249	0x3d8ee6c6	0.0697761
250	0x3cbd19c5	0.023083577
251	0xbdff70bd	-0.12472675
252	0x3de3ccbe	0.11123036
253	0xbd8b4de4	-0.06801966
254	0x3e2dd752	0.1697667
255	0x3db578c0	0.08860922

learned_6 f4 [7, 7, 3, 3]
0	0x3dc0a96c	0.09407315
1	0xbd030059	-0.031982753
2	0x3de16624	0.1100581
3	0xbe1806f3	-0.14846401
4	0x3e21ef89	0.15814032
5	0x3ed0444d	0.4067711
6	0xbcf0f09b	-0.029411605
7	0x3d560113	0.05224712
8	0x3dfd4939	0.12367482
9	0x3e1acc90	0.15117097
10	0xbe7e4335	-0.24830325
11	0xbd931c11	-0.071830876
12	0x3cd5aae6	0.026082467
13	0x3daadd71	0.08343018
14	0x3e4ad6c9	0.19808497
15	0xbd447fed	-0.047973562
16	0xbddbde03	-0.10735705
17	0x3c9f0bc5	0.019414792
18	0x3c6d8162	0.014496179
19	0xbd3c9cbd	-0.046047915
20	0xbd84b96a	-0.064806774
21	0x3e802768	0.25030065
22	0x3e7d786e	0.24752972
23	0x3ddb672d	0.107130386
24	0xbe124560	-0.14284277
25	0x3cc47f44	0.023986466
26	0xbd386a8c	-0.045023486
27	0x3d8707d0	0.06593287
28	0x3c40e392	0.011773007
29	0x3b4dda6b	0.0031410705
30	0xbd45313f	-0.048142668
31	0x3d9246eb	0.07142433
32	0x3c56f985	0.0131210135
33	0x3b1e68d8	0.0024171378
34	0x3cbb84bc	0.022890441
35	0x3ca290b2	0.019844387
36	0x3e3cfaab	0.18454997
37	0x3c78923e	0.015171586
38	0xbdd61724	-0.104536325
39	0x3da27d8a	0.07934101
40	0x3d51ba6a	0.05120317
41	0x3de1fc66	0.11034469
42	0xbe64e6c0	-0.22353649
43	0xbe860d87	-0.26182196
44	0x3eb5b7c0	0.35491753
45	0xbdb170a2	-0.08664061
46	0x3de4c6e9	0.111707516
47	0xbe0d3655	-0.13790257
48	0xbdb653dc	-0.08902714
49	0xbe39dcdd	-0.18150659
50	0xbe43361c	-0.1906361
51	0xbcd6e449	-0.026231902
52	0xbdd4cf74	-0.10391131
53	0xbe814ba9	-0.25253037
54	0xbda72c1b	-0.08162709
55	0xbecf6452	-0.40506226
56	0xbe3aded8	-0.1824907
57	0x3e7aaebd	0.2448072
58	0x3e8f11c3	0.2794324
59	0x3d986535	0.07441179
60	0x3e09a81b	0.13443033
61	0x3e243be9	0.16038479
62	0x3c4cb9d8	0.0124954805
63	0x3e08f92e	0.13376305
64	0xbc2e7dae	-0.010650082
65	0xbe522b92	-0.20524433
66	0x3e567456	0.20942816
67	0xbc46773e	-0.0121133905
68	0xbde0a6a4	-0.10969284
69	0x3e2662d1	0.16248633
70	0xbd30b0d6	-0.043137394
71	0xbe02d44b	-0.12776296
72	0x3d3169b0	0.043313682
73	0xbd98be9f	-0.07458233
74	0xbe7e3abd	-0.24827094
75	0x3e816cf6	0.25278443
76	0x3d48f3bb	0.049060564
77	0xbe5dcbe4	-0.2165981
78	0x3e53b9c2	0.2067633
79	0xbdcd8bcc	-0.1003643
80	0xbe919884	-0.28436673
81	0x3d946947	0.072466426
82	0xbcc082ae	-0.023499813
83	0xbe1e8c4b	-0.15483205
84	0xbd32daa7	-0.043665554
85	0x3d568dbf	0.052381273
86	0xbe407210	-0.18793511
87	0x3cbc378b	0.022975704
88	0xbddbd694	-0.10734287
89	0xbc95ef23	-0.018302506
90	0xbe2d4db8	-0.16924179
91	0x3bff78fb	0.0077964044
92	0x3b81ad5a	0.0039574327
93	0xbdd9f67e	-0.10642718
94	0xbce5d855	-0.028057257
95	0xbcda6c09	-0.026662843
96	0xbe408ee2	-0.18804505
97	0xbdf9c8ec	-0.12196526
98	0x3c8bc37a	0.017060984
99	0xbd9b4cbd	-0.07582996
100	0xbdaca984	-0.0843077
101	0xbdabeae9	-0.08394415
102	0x3d31e145	0.043427724
103	0x3e0ba5a8	0.13637412
104	0xbd83279d	-0.0640404
105	0x3c5f5c5b	0.013632859
106	0x3dfd9a1f	0.12382912
107	0xbe07dea1	-0.1326852
108	0xba7705dd	-0.0009423176
109	0xbde93ba3	-0.11388328
110	0x3cb7e6f9	0.022449004
111	0x3dcf127a	0.10110946
112	0x3b015a23	0.0019737564
113	0x3cac9154	0.021065392
114	0xbd7b4a2f	-0.061350044
115	0xbdac870f	-0.08424198
116	0xbdb8f6c3	-0.09031441
117	0x3e131104	0.1436196
118	0xbd8a60b5	-0.06756727
119	0xbd2d0c0d	-0.04224782
120	0x3d892fa3	0.06698539
121	0xbdc3b5cc	-0.095561594
122	0xbd736e30	-0.059431255
123	0x3e8ac040	0.270998
124	0xbc66b45c	-0.014081087
125	0xbe47e46c	-0.1952073
126	0x3e4df392	0.20112446
127	0x3e442005	0.1915284
128	0x3cdd4e40	0.027014852
129	0x3e87b648	0.26506257
130	0xbe3d409b	-0.18481676
131	0xbea1ee50	-0.3162713
132	0x3e06d62c	0.13167638
133	0x3e205c07	0.15660106
134	0xbdc40fd6	-0.09573333
135	0xbe9f3f62	-0.31103045
136	0xbd55da99	-0.052210424
137	0x3dfdfbfa	0.12401576
138	0x3e505d0c	0.20347995
139	0x3e46bf5a	0.19408932
140	0x3e1d7dc0	0.15380001
141	0x3e7b970f	0.24569343
142	0xbe05d38b	-0.13068978
143	0xbe62b189	-0.22138037
144	0xbd2aea8c	-0.041727588
145	0x3e11782b	0.14205997
146	0x3e7362ba	0.2376813
147	0xbe74c528	-0.23903334
148	0xbe331ef8	-0.17492282
149	0x3e7fd054	0.24981815
150	0xbaed3467	-0.0018097282
151	0xbe250df5	-0.16118605
152	0x3e8bceab	0.27306113
153	0x3e028028	0.127442
154	0xbd8d7a38	-0.06908077
155	0x3e0ff947	0.14059936
156	0x3c84fbca	0.016233344
157	0x3d2acd7c	0.04169987
158	0x3df2601e	0.11834739
159	0x3d3b3a73	0.04571004
160	0x3cc70cd5	0.024298111
161	0x3d21f6e6	0.0395421
162	0xbe3578f8	-0.17721927
163	0xbe13a1b8	-0.1441716
164	0x3dd9792b	0.10618814
165	0x3ce86365	0.028367708
166	0x3e3ae7c8	0.1825248
167	0x3d8c2c5f	0.068444006
168	0x3e5dfc6f	0.21678327
169	0x3d83f186	0.06442551
170	0xbe1a67a9	-0.15078606
171	0x3c98e613	0.018664395
172	0x3dddaaef	0.108236186
173	0xb8fb8705	-0.00011993762
174	0x3d04862d	0.032354522
175	0x3d3f7b9d	0.046748746
176	0x3dcf7410	0.10129559
177	0x3d92f308	0.07175261
178	0x3d5399e4	0.051660433
179	0x3de982f2	0.11401929
180	0xbd8e8d52	-0.069605485
181	0xbda49472	-0.08036126
182	0xbdb609c6	-0.08888583
183	0xbd0d23ef	-0.034458097
184	0xbe8622d7	-0.26198456
185	0x3ddec75c	0.108778685
186	0x3db47729	0.088117905
187	0xbcc64d0b	-0.024206659
188	0x3e29426a	0.16529241
189	0x3da91ac6	0.0825706
190	0xbc42c58c	-0.011887919
191	0xbdd771c7	-0.10519748
192	0xbcc64da5	-0.024206946
193	0x3c6815fe	0.0141654
194	0x3d1ab816	0.037773214
195	0xbde48cc4	-0.111596614
196	0xbcbe5a0f	-0.023236303
197	0x3d213249	0.039354596
198	0x3c721e69	0.014777758
199	0xbddc1869	-0.10746843
200	0xbd46bc8b	-0.048519652
201	0xbb15ba4b	-0.0022846635
202	0x3c97bf30	0.018523782
203	0x3d96e108	0.0736714
204	0x3c1f2fb5	0.009715964
205	0x38efd7f5	0.00011436633
206	0x3d64345b	0.055713993
207	0xbd2bab95	-0.04191168
208	0xbb34e190	-0.0027600266
209	0xbd5a7173	-0.05333085
210	0xbdb62905	-0.088945426
211	0xbd2c3916	-0.04204663
212	0xbcccb1eb	-0.024987182
213	0xbd5276f6	-0.05138298
214	0xbdbd7e4e	-0.09252606
215	0x3cd5b8b1	0.026089044
216	0x3d21ab10	0.03946978
217	0x3cf16f5c	0.029472046
218	0x3d1debbc	0.038554892
219	0x3dca8961	0.09889484
220	0xbc877452	-0.016534958
221	0x3dcaa598	0.09894866
222	0x3dba5fe0	0.09100318
223	0xbd4284ef	-0.047490057
224	0xbd16ca8e	-0.036814265
225	0x3d790aa7	0.060801174
226	0x3d1eb3d7	0.038745727
227	0xbcd3df19	-0.025863217
228	0xbdebd99a	-0.115161136
229	0x3d59f7d3	0.05321486
230	0x3c959a6f	0.018262116
231	0xbdf7a1a4	-0.120913774
232	0x3da516a4	0.08060959
233	0xbd536d4e	-0.051617913
234	0xbc94290f	-0.018085985
235	0x3d451cbf	0.048123118
236	0x3d522706	0.051306747
237	0xbd88a807	-0.06672674
238	0xbda3d322	-0.07999255
239	0x3b5caa4f	0.0033670848
240	0x3ddcc21d	0.10779212
241	0xbd0643f6	-0.032779656
242	0x3ca41813	0.02003101
243	0xbddfe9cb	-0.10933264
244	0xbdd24073	-0.10266199
245	0x3d015649	0.03157643
246	0x3d0260e2	0.031830676
247	0xbd987b45	-0.07445387
248	0xbd97db98	-0.07414931
249	0xbdd18322	-0.1023009
250	0x3d51ea2b	0.05124871
251	0xbde88f20	-0.11355424
252	0xbd97dfeb	-0.07415756
253	0xbe33fd9a	-0.1757721
254	0xbdb7003d	-0.08935592
255	0xbd8bfd7a	-0.06835456
